models/ddqn.pth (torch, 328358 bytes, 6 tensors)

fc1.weight f4 [256, 36]
000000 75 6b 60 3e fb 54 ba 3d 62 8c 57 bc b6 c6 d5 3c
       0.21915992 0.0909824 -0.013156028 0.02609573
000010 29 d6 70 bd ae 51 18 3d c5 8d 03 be 19 c1 31 3e
       -0.05879799 0.03718727 -0.1284705 0.17358817
000020 01 ce eb bd 90 87 4e bd 32 fb b4 bc f0 8e d7 bd
       -0.115139015 -0.05042225 -0.022092436 -0.1052531
000030 e8 90 5d bd e4 27 56 3e b7 35 36 be bd 4b 4c 3e
       -0.05409327 0.20913655 -0.17793928 0.19950767
000040 44 70 0d be 18 a2 78 bb 93 62 03 be d3 3a bd bd
       -0.13812357 -0.0037938412 -0.12830572 -0.092397355
000050 f9 79 c3 3c ce 23 9d bd 72 fa ef bd 1f 1a c1 bb
       0.023861872 -0.07672845 -0.117176905 -0.0058930065
000060 6e 97 1f 3c b2 3a ad 3e 47 67 ac bd e0 da ee bb
       0.0097406935 0.33833843 -0.08418136 -0.0072892755
000070 84 86 00 3d 89 84 51 3d 28 d4 04 bd 39 75 f0 3e
       0.031378284 0.051151786 -0.03242889 0.46964434
000080 7b e7 0c bc a6 75 5c 3f 31 86 0e bd c0 c8 46 3c
       -0.008600111 0.8611702 -0.034795944 0.0121328235
000090 9e 8b de 3d 0c a7 43 3d 32 e7 ff 3d c7 2f cb 3d
       0.108664736 0.04776673 0.12495269 0.09921222
0000a0 dc 91 c0 bd 7a dd 34 be 89 70 b7 bd 74 be 31 3c
       -0.094028205 -0.17662612 -0.08957011 0.01084863
0000b0 32 2d 3d bd 56 b3 b7 bd 55 b1 2e be e8 e6 ed bc
       -0.04618568 -0.089697525 -0.17059834 -0.029040769
0000c0 4c f1 3f be 3b 5c 92 bc a1 c8 cd bd 1e 5b ec bc
       -0.18744391 -0.017866245 -0.100480326 -0.028852042
0000d0 3d ad bb 3d 71 2b 07 be 97 73 55 be be d9 98 3d
       0.09163902 -0.13200165 -0.20844875 0.07463406
0000e0 16 42 b0 3c 0c b8 15 3d b3 2b e5 3d 89 40 08 be
       0.021515887 0.036552474 0.111899756 -0.13305868
0000f0 35 19 0e be ed 22 50 3d 27 28 4a be 00 34 d3 bd
       -0.13876803 0.050814558 -0.1974188 -0.103126526
000100 51 f3 9e bd 85 c5 37 be 28 76 0b bd 1e ef e7 bc
       -0.07761253 -0.17946441 -0.03404823 -0.028312262
000110 2a 2f df 3c e9 04 04 bd 2b 5d af bd c6 a7 e2 3d
       0.02724417 -0.032231245 -0.08562692 0.110671565
000120 c5 10 a6 be 95 e3 42 3d 27 f6 b2 3d ed c3 12 3e
       -0.3243467 0.04758032 0.08738356 0.14332552
000130 e2 ac ec 3c 47 d8 fb 3c 98 0c 47 be ae 17 b4 bc
       0.02889103 0.030742778 -0.19438398 -0.021983948
000140 c9 27 c4 bd bf 6d da bd 19 c3 c2 bd a2 b4 d7 3d
       -0.09577901 -0.10665464 -0.09509868 0.105325
000150 3a 43 d6 3c 6f 22 b7 3d 8e bc b7 bd 2b c6 12 3e
       0.026155103 0.089421146 -0.08971511 0.14333408
000160 59 62 9e bc 9b 0c 17 be df 6c 61 be b8 49 96 bd
       -0.019334005 -0.14750902 -0.22014187 -0.073382795
000170 83 f3 b3 3d ee e1 46 3d b4 7a 39 be 9c 0e 8e 3e
       0.087866805 0.048555307 -0.18113214 0.2774552
000180 b2 8b 1c be 4c 98 46 be 85 a4 1a 3d 19 17 06 3e
       -0.15287665 -0.19394034 0.037754554 0.13094749
000190 9e d8 0a 3e d9 ba cd 3d 87 ec 37 be 89 27 34 bf
       0.13559195 0.10045404 -0.17961322 -0.70372826
0001a0 62 c3 a5 3d 9c e8 08 c0 3f 83 01 39 be 4e 8f bd
       0.08093907 -2.1391973 0.00012351292 -0.06997441
0001b0 46 fc 14 3c 7f 21 fe 3d 75 46 35 be 52 d7 c3 bc
       0.00909335 0.124087326 -0.17702658 -0.023906384
0001c0 0f f7 6d 3d b1 8c 12 3c b2 42 a8 bd f0 94 a9 3c
       0.05809694 0.008944676 -0.08215846 0.020700902
0001d0 79 ad 89 bd 3c 82 0c be d1 3c 41 be f7 88 2a be
       -0.067225404 -0.13721555 -0.18870856 -0.1665381
0001e0 66 dc 1e be 2f 3a 93 ba 22 46 dc bb c8 cf b5 3d
       -0.15513763 -0.001123255 -0.0067222277 0.08877522
0001f0 47 00 61 3d c1 d4 8d 3d cf ec e0 3d 70 42 24 3d
       0.054931905 0.06925345 0.10982668 0.040102422
000200 66 4d 60 bb 95 4c 07 be 97 d1 15 be b0 7b 2b 3e
       -0.003422582 -0.13212807 -0.14630733 0.16746402
000210 c8 e1 51 bd dc 44 03 be f8 54 bd bc 36 9c e4 3d
       -0.051240712 -0.12819237 -0.023111805 0.11162607
000220 1b a4 a6 bd 1a 10 2f be 33 d8 fc ba d2 52 30 3e
       -0.081367694 -0.17095986 -0.0019290507 0.17219093
000230 0e 8f e4 3c df 8e 1d be 5b a0 e6 bc f8 89 e8 bd
       0.027900245 -0.15386532 -0.028152635 -0.113544405
000240 59 10 19 3d 51 52 a7 be cf aa cf 3d ab 1c 66 be
       0.037369106 -0.3267999 0.10140001 -0.22471873
000250 9b f8 5b bc b6 42 8b bd a1 1a 3c 3e be 74 90 bf
       -0.013425971 -0.067998335 0.18369533 -1.1285627
000260 b4 ba 47 3d 46 55 8e 3e 1e c1 c2 3d 6c bb 64 bd
       0.04876204 0.27799433 0.095094904 -0.055842802
000270 e2 25 06 3e 0b 08 bc 3d 2d 06 ba bc a2 f9 2a bf
       0.13100389 0.091812216 -0.022708023 -0.6678716
000280 bb 00 02 be 34 f8 e2 3e bb de bc 3c 3a 2e 00 be
       -0.12695591 0.4432999 0.023055425 -0.12517634
000290 68 97 e5 3c 7a e2 10 be 0a 84 f5 3d d2 51 14 bf
       0.028026298 -0.14148894 0.11988075 -0.5793735
0002a0 f8 a4 39 bd 29 dc 13 3f 94 52 16 3e 84 fb 15 3d
       -0.045323342 0.5775781 0.14679939 0.036616817
0002b0 b6 70 8d bd 04 17 bb bd da a8 93 3d 7a 94 73 be
       -0.069062635 -0.09135249 0.0720994 -0.23787108
0002c0 e3 12 51 3d b1 2b f1 3f 99 24 9f 3d 22 46 19 be
       0.051043402 1.8841459 0.07770652 -0.1496816
0002d0 dc 26 a9 3e fc 2d 65 be 0d 58 84 bd 90 26 bf 3d
       0.3303746 -0.22380823 -0.06462107 0.09333527
0002e0 df ff 14 bd d2 89 b5 bd 62 f5 67 3d 5e 0b 6a be
       -0.03637683 -0.08864178 0.0566305 -0.22855899
0002f0 86 21 0a be 4f f3 9a 3d 91 6d 8d 3c f0 6d 4f 3d
       -0.1348935 0.07565939 0.01726416 0.050641954
000300 e8 0b c9 3d 0a 64 94 3c ad 75 4d bd 6c 66 15 3e
       0.09816724 0.018114109 -0.050161052 0.14589852
000310 3d 7a 1e 3e 1a ac 3f bc bf 27 17 3e b6 2e a2 bd
       0.15476318 -0.011698747 0.14761256 -0.07919066
000320 ae 41 c7 3d bc 3e 37 be e1 d1 d8 bd c9 ab 85 3b
       0.09729324 -0.17895025 -0.10586906 0.0040793163
000330 5d ac 45 bd dc 17 70 3e 66 fa e6 bd 00 f9 df bd
       -0.04826008 0.23446602 -0.112782285 -0.10936165
000340 b8 fc eb 3d 5f f3 fd 3d 51 ef 4a 3d e3 64 14 3f
       0.11522812 0.12399935 0.049544636 0.5796644
000350 f0 aa bb be 5c 87 2c 40 b4 90 bb 3a 93 9f 2a be
       -0.36653852 2.6957617 0.0014310093 -0.16662435
000360 5e 4c f8 3d 59 40 fc bd f0 77 14 be 9f e6 6a bd
       0.12123941 -0.12316961 -0.14498878 -0.057348844
000370 47 7e 5f bd 5e 71 f7 bd 41 b3 12 be d1 8b cc bc
       -0.054563787 -0.1208217 -0.14326192 -0.024969013
000380 35 d7 27 be d6 73 a3 3a 14 35 8b bd ea d2 fc 3d
       -0.16390689 0.0012470435 -0.06797233 0.12344916
000390 ec 9b 80 3d 29 41 df bd 28 1d 86 bd 41 35 02 3e
       0.0627974 -0.109011 -0.0654853 0.12715627
0003a0 49 fc 3a be fc 4b 0f be bc 93 4b 3d 40 80 37 3c
       -0.18260302 -0.1399383 0.049701437 0.011200011
0003b0 75 d4 9a 3d 8b b9 41 3d 7c 23 c2 bd 47 9a 94 bd
       0.07560054 0.04729609 -0.09479424 -0.072559886
0003c0 e9 15 8d bd ba 21 e3 bc e3 7b 07 3e ea c3 fb 3d
       -0.06888945 -0.027726043 0.13230853 0.12293227
0003d0 cf 29 ed 3d 71 1f f5 bc 22 91 bb b8 38 6e e3 bd
       0.1158024 -0.029922219 -8.943888e-05 -0.11105007
0003e0 f3 81 b7 3d 62 09 f9 3c a6 3e 3a be 90 89 e2 bd
       0.08960333 0.030399982 -0.18187961 -0.11061394
0003f0 74 42 2a 3d 44 03 ee bd f5 f8 82 bd 9d d6 06 be
       0.04156728 -0.116217166 -0.06395141 -0.13167806

fc1.bias f4 [256]
000000 b1 6c 89 bd 1d 04 54 be 14 c3 fb bd a1 7b 96 bd
       -0.06710184 -0.20704694 -0.122930676 -0.07347799
000010 5a 67 e4 bc fb 01 e2 bc 62 2d 54 3d a6 c1 f7 bc
       -0.027881313 -0.027588835 0.051801093 -0.030243706
000020 ef 32 5b be 06 87 8f bd 6a e1 3d be f7 84 84 be
       -0.21406148 -0.070081756 -0.1854302 -0.25882694
000030 9e c0 9b bd ea 5d 7b 3d b9 c6 26 be b4 49 aa 3d
       -0.07605098 0.06136886 -0.16286744 0.08314839
000040 64 34 1c 3e 08 de 47 be 44 0f 2f 3e cf 4e 3a be
       0.1525436 -0.19518292 0.17095667 -0.18194126
000050 c7 1c 8b bd 66 5d d7 bd 97 44 48 3e c5 29 8d bd
       -0.06792598 -0.10515861 0.19557415 -0.068927325
000060 09 64 ae b8 51 a9 08 3e fc 5b 38 3d 45 5f 5a be
       -8.3155996e-05 0.13345839 0.045009598 -0.21325405
000070 e9 9c 87 3d 20 a6 b6 bc 02 11 6d bd 26 2d 40 bb
       0.06621725 -0.022296011 -0.057877548 -0.0029323786
000080 58 a1 36 be 94 ac 8d bd 4b 20 ce bc b8 1b ef bd
       -0.17834985 -0.06917682 -0.025161883 -0.11675209
000090 cd 81 12 3e 46 28 03 bd 3e 54 53 be a2 3e 19 3e
       0.14307328 -0.03202083 -0.20637605 0.14965299
0000a0 00 6f 1c 3e cc fd 5e 3d 6d df b9 3d 9b dd 3a 3d
       0.15276718 0.05444126 0.09075818 0.045621496
0000b0 d8 71 8a 3c e8 f9 88 bd b6 6f 34 3e 73 ae 1a 3d
       0.016899988 -0.06688291 0.1762074 0.037764024
0000c0 18 8b ba 3d bb 9c 0a 3e 94 08 b1 bc 2a 85 12 be
       0.09108561 0.1353635 -0.021610536 -0.1430861
0000d0 55 4c 4f be 95 24 83 bd 52 8f 21 3e 00 ba dd 3c
       -0.20243962 -0.06403462 0.15777329 0.02706623
0000e0 ce d9 cb 3d df bd fd 3c 01 32 4b 3d be 09 b3 3d
       0.09953652 0.030974327 0.049608234 0.087420925
0000f0 4d f5 3d 3e 71 e8 98 3d c8 bf 42 bd 03 be 29 3e
       0.18550606 0.0746621 -0.047546178 0.1657639
000100 e5 69 bd 3b 2c d0 55 be d1 03 1d 3e a5 db 1e 3e
       0.005780446 -0.20880193 0.15333487 0.15513475
000110 dd 16 f7 bd 26 db be 3d 1c 3d a3 bd fc a0 2b 3e
       -0.12064908 0.09319143 -0.0797064 0.1676063
000120 ac a4 bf bd 37 68 5b be 48 11 3b be 5c 06 39 be
       -0.093575805 -0.21426474 -0.18268311 -0.18068832
000130 39 0a 02 bd 23 46 c6 ba a9 3c f3 bd 87 4c ba bd
       -0.03174803 -0.0015127104 -0.118768044 -0.09096628
000140 2d 49 01 be 5e 9e 75 3d 1e 40 32 3e e3 8b 5f be
       -0.1262557 0.059965484 0.17407271 -0.21830706
000150 62 b5 2e 3e 80 0e e4 3d 36 bc 57 3d 15 b1 21 3e
       0.1706138 0.11135578 0.052669726 0.15790208
000160 e7 4e bc 3d 02 54 fe bd d2 df 11 3e 2b 10 74 bd
       0.09194737 -0.12418367 0.14245537 -0.05958573
000170 2f c8 fc 3d 2a 03 b6 bd 23 95 a1 bd 02 1b f4 3d
       0.123428695 -0.08887322 -0.07889774 0.11919214
000180 6f 9a 92 bc c8 2c 10 be f3 66 f6 bd 1d 88 b7 3d
       -0.017895905 -0.14079583 -0.12031355 0.089615084
000190 12 74 93 bd fd 07 1e 3e d7 c6 57 bd 76 39 10 3e
       -0.07199873 0.15432735 -0.052679863 0.1408442
0001a0 35 c6 42 be 2c 41 1c be 3f 0b 55 3b 4a 8c 9a 3d
       -0.19020922 -0.15259236 0.0032507924 0.07546289
0001b0 14 7e 38 be ad bb 8f bc 5e 66 3a be e2 86 f5 bd
       -0.18016845 -0.017545545 -0.18203112 -0.119886175
0001c0 58 ae 19 bd 7b e1 94 3d a9 61 f6 bb 26 53 9c 3c
       -0.037519783 0.072695695 -0.007518966 0.019082617
0001d0 b1 88 fb bd 45 95 f7 bd c2 b9 f0 bd 64 7c 41 bd
       -0.12281931 -0.12089018 -0.117541805 -0.04723777
0001e0 5f cb 7a 3d dd b8 15 3e 02 ee a9 bd df f0 a6 bc
       0.061229106 0.14621301 -0.082973495 -0.020378528
0001f0 11 41 1c 3d 28 9f a9 3d 25 5a c6 bc 10 d3 e6 3c
       0.03814799 0.0828231 -0.024212906 0.028176814
000200 92 81 fa 3d 47 69 8a 3d d5 cf be 3d 34 15 33 3e
       0.12231745 0.06758361 0.093169846 0.17488557
000210 65 7b 97 bc 78 2b 22 bb 1a f1 0b bc e7 7c 36 3e
       -0.018491456 -0.0024745148 -0.00854137 0.17821084
000220 c7 1e 52 3d ea 88 11 3e c9 36 09 bd 72 2d e6 3d
       0.051298883 0.14212385 -0.033499513 0.11239137
000230 11 64 e3 bd 58 d4 c8 bd 43 f6 31 be e0 ab 68 3d
       -0.111030705 -0.09806126 -0.17379098 0.056804538
000240 fc 9b b0 bd 9a a2 42 be 65 af d2 3c 95 22 9d bd
       -0.08623502 -0.1900734 0.0257184 -0.076726116
000250 bb 38 57 3c 68 dd 6e bd aa 51 3c bd 71 57 41 3d
       0.013136084 -0.05831662 -0.04597632 0.04720253
000260 f3 fe 3c be a2 f6 45 be 10 11 94 bc 06 38 a0 bd
       -0.1845663 -0.19332364 -0.018074542 -0.078231856
000270 cc 11 53 3e ba bd f1 3c de 77 7e bc 19 21 58 bd
       0.20612258 0.029509414 -0.015531508 -0.05276594
000280 b5 aa 49 be f1 2b f8 bc 1d d1 ea bd 3d 96 15 3e
       -0.19694026 -0.03029439 -0.114656664 0.14608093
000290 1c ff 81 bd e1 c9 ab bd 83 66 e9 3d 2e 12 b8 3d
       -0.063474864 -0.08388115 0.11396506 0.089878425
0002a0 d0 64 a6 3d 37 ce 94 bd 39 da bc 3c 63 a9 01 bd
       0.08124697 -0.07265895 0.023053275 -0.03165568
0002b0 dd 7e 54 3d 16 52 6c 3d cc 1f 12 3e ac 97 08 bd
       0.0518788 0.05769547 0.14269942 -0.03334777
0002c0 ca ec 4d 3d d5 46 59 bd b7 5c 79 bc c0 ae fb 3d
       0.050274648 -0.053046066 -0.015219859 0.1228919
0002d0 a1 fa 63 bd a8 b8 7d bd eb 13 58 3d 2d a3 8c bc
       -0.05565894 -0.06194368 0.05275337 -0.017167652
0002e0 48 28 c2 bd cd 87 08 3e 7e e3 fd bd c8 94 c5 bd
       -0.09480339 0.13333054 -0.12396906 -0.096475184
0002f0 2c c1 01 3d 24 75 01 be c6 d6 10 3e e3 ab 53 be
       0.031678364 -0.12642342 0.1414443 -0.20671038
000300 e4 3c 08 3d 61 ac eb 3d 25 c8 05 bd cd f2 a2 bc
       0.033261195 0.11507488 -0.032661576 -0.019891167
000310 5d 9d dc 3b 3c 9f c9 3c 82 0b 19 be 0b 04 53 be
       0.0067326264 0.024612062 -0.14945796 -0.20607011
000320 99 5d 0a bd 7a 85 e9 3d 6d ed c6 3d 93 39 39 3e
       -0.033780668 0.11402412 0.09713254 0.18088369
000330 b1 0c 46 3d 66 78 81 bb 5f a1 b4 bd e4 ca c1 3d
       0.048351947 -0.00395112 -0.088198416 0.094625264
000340 fa 7f f3 bd 4c b2 89 3d 4a 04 51 3e 65 82 85 bd
       -0.11889644 0.067234606 0.20411792 -0.065190114
000350 fa 64 23 bd eb 83 f2 bd da 3e 01 be 87 da 5f be
       -0.03989122 -0.118415676 -0.12621632 -0.21860705
000360 48 d7 c9 3d ab 56 e2 bd 12 a1 53 bb 54 5c 79 bc
       0.09855515 -0.11051687 -0.003229205 -0.015219767
000370 b4 7f 01 be 9d 40 0f bd d4 1e 4d bd 91 8f c1 bd
       -0.12646371 -0.03497373 -0.050078228 -0.09451211
000380 cd 17 4f 3d 59 4a 4d bc 5c 5e 41 be 24 c3 03 3e
       0.050559808 -0.012529933 -0.18883651 0.12867409
000390 87 2a a5 bd e1 bc 1b be 37 2e 1e bd 88 d2 ce 3c
       -0.08064752 -0.1520877 -0.038618293 0.025246873
0003a0 fa b9 33 be 77 6b d8 3d 88 40 52 3d 1b 6a 32 3e
       -0.17551413 0.10567372 0.051331073 0.17423289
0003b0 12 a2 b9 3d dc c0 2b be d4 2f 87 bd 5e 8a d4 3c
       0.090641156 -0.16772789 -0.06600919 0.025944885
0003c0 1d 10 f7 3c 7b 98 75 bd 93 6c 03 3e 0b 2a d3 3d
       0.03015905 -0.05995987 0.12834387 0.103107534
0003d0 b9 c8 07 be b2 bc aa bd 46 e1 11 be ec e5 1f 3d
       -0.13260163 -0.08336772 -0.14246091 0.03903763
0003e0 6e 94 9b 3d 6c 63 01 3e b0 23 06 3d 62 27 38 be
       0.0759667 0.12635583 0.032748878 -0.17983773
0003f0 84 5f 3d 3d 08 3d f2 bc 76 3e 42 3e 7a 28 f3 3d
       0.04623367 -0.029570118 0.1896914 0.11872955

fc2.weight f4 [256, 256]
000000 3a 99 94 3c 18 eb 11 3d 0b 9c b2 bd b8 69 d7 bc
       0.01813947 0.035624593 -0.08721169 -0.026295528
000010 08 5f 46 3a 41 c2 d9 3a a9 ca 5c bc 28 11 19 bc
       0.00075672613 0.0016613678 -0.013476052 -0.009342469
000020 a0 45 82 3c f3 41 45 3c 40 5b 81 3b 70 e7 7f bc
       0.01590234 0.012039649 0.0039476454 -0.015619144
000030 80 dc 05 ba 68 ef 58 bc d5 61 21 bd e8 20 88 bc
       -0.00051064044 -0.013240673 -0.03939994 -0.016617253
000040 14 00 9b bd 60 82 2c bc c1 96 27 bd b0 81 ae bd
       -0.07568374 -0.010529131 -0.040915255 -0.0852083
000050 e0 73 63 bb bb 8f ac bc bb ed 0f bd 67 4b d8 bc
       -0.0034706518 -0.02106463 -0.035138827 -0.026403142
000060 20 5a ac 3c ae 96 22 bd 8f 2f 47 3b 6c 6f 7a bd
       0.021039069 -0.03969448 0.0030393337 -0.061141416
000070 59 79 18 bd 20 7d 60 3b d4 f7 1a bd 08 d9 8e bc
       -0.0372251 0.0034254268 -0.037834004 -0.017437473
000080 7c 75 1f 3d e7 b1 4d bd d0 bd 6e bc 5e 9d 1d 3d
       0.0389304 -0.05021849 -0.014571622 0.038480155
000090 1a a4 2d bd b0 d0 31 bd c8 3a 96 bd 6d 8a 4c bc
       -0.042392828 -0.04341191 -0.073354304 -0.012484175
0000a0 0e 2f 3e 3d 74 d1 fb bb 25 d1 07 bd 20 e9 89 bd
       0.046431594 -0.007684881 -0.03315844 -0.06733918
0000b0 83 a0 89 3c 2a d0 21 bd 17 65 78 3d 48 d5 23 3d
       0.01680017 -0.03950516 0.06064328 0.039998323
0000c0 e0 08 c0 bb 51 e9 30 bd f7 a5 66 3c 50 f4 52 3d
       -0.005860433 -0.043191258 0.014077655 0.051502526
0000d0 40 1e a3 bc 7e 24 25 3d de 6b 57 3c 71 ee 72 bd
       -0.019911885 0.040318005 0.013148276 -0.059309427
0000e0 a3 18 96 bd d3 a6 1e bd 4c 25 03 3d 40 16 5f ba
       -0.07328918 -0.038733315 0.03201799 -0.00085100904
0000f0 d4 0d 90 bd 50 11 c6 3c 28 05 47 bc 7b 1e 9e bc
       -0.070338875 0.024178177 -0.012147225 -0.019301644
000100 e0 b0 b8 3a 19 5b b1 b9 b2 a1 11 3d 58 41 9c bb
       0.0014090799 -0.00033827944 0.035554595 -0.004768532
000110 ce a4 2f 3d 35 7b b4 bd d0 73 60 bd 36 6c 06 bd
       0.04288178 -0.088125624 -0.054797947 -0.03281804
000120 03 39 58 bd cd 23 7b bd 51 a2 1b bd ee b1 79 bd
       -0.052788746 -0.06131344 -0.037996594 -0.060960703
000130 db 3a 03 bd 2e 7d 34 3d f0 28 17 bd 00 be 07 bd
       -0.03203855 0.044064693 -0.036904275 -0.033140182
000140 56 fa 37 3d 64 78 49 bd c2 95 ff 3b 18 78 4b bd
       0.044916473 -0.04918708 0.007799835 -0.049675077
000150 86 1f 6c 3c 40 03 f9 ba 58 fc f1 bc 3a a3 98 bc
       0.014411813 -0.0018998161 -0.029539272 -0.01863252
000160 cb 4c 4b bd a0 7f dc 3c a1 16 a2 bd 4d 84 70 3d
       -0.049633782 0.026916325 -0.07914472 0.05871992
000170 35 08 83 bb e8 f6 86 bd 69 af b3 bc 4f 84 0f bd
       -0.003998781 -0.065900624 -0.021934228 -0.03503829
000180 b4 bd 19 bd ed ff 99 bd 2a f2 73 bd 80 57 62 ba
       -0.03753443 -0.07519517 -0.059557118 -0.00086342543
000190 5d eb 41 3d 1a 1f 1e bd b6 b2 33 3d 1f 41 24 bc
       0.0473436 -0.03860388 0.043871604 -0.010025292
0001a0 fc 10 04 3d c5 e2 1c 3d 0f ee 63 bd 9f 9f ea bc
       0.03224276 0.0383022 -0.055646952 -0.028640566
0001b0 b0 d4 8a bc 54 29 7f bd 06 7e 64 3d fd c5 b8 bd
       -0.01694712 -0.062295273 0.055784248 -0.09022138
0001c0 70 e3 9a bc b8 1f 24 bc 5e a7 15 bd 85 c4 8f 3c
       -0.018907279 -0.010017328 -0.036536567 0.017549763
0001d0 e8 67 99 bc 74 7e 21 bd da 6a c9 3c e4 19 ce 3c
       -0.018726304 -0.039427236 0.024587084 0.02515883
0001e0 82 e2 4a bd 90 a5 29 bd 48 ea aa bd 4f ae 32 3c
       -0.04953242 -0.04141766 -0.08345467 0.010905816
0001f0 57 5d e6 3a 42 60 03 3d a8 e8 5d 3c 03 76 96 bc
       0.0017575425 0.03207422 0.013544239 -0.01836682
000200 6a 44 05 bd d7 10 3d bd eb 76 08 3d f7 fc 33 bd
       -0.032535948 -0.046158638 0.033316534 -0.043942418
000210 14 ac e6 bc 07 11 62 3d 04 13 80 bd c5 dd 74 3d
       -0.028158225 0.05519202 -0.06253627 0.05978181
000220 14 15 a6 bd af 43 4f bd b1 1b 0d 3d 98 0f 45 3c
       -0.08109489 -0.050601657 0.034450237 0.012027644
000230 eb 66 49 bc 83 96 e8 bc 32 30 49 bd e0 e2 29 bd
       -0.012292604 -0.028392082 -0.04911823 -0.04147613
000240 d0 19 6f bd 64 b3 86 bd c0 4c c6 3c d5 16 5a 3c
       -0.058374226 -0.06577185 0.02420652 0.013311108
000250 9c bd 3b bd 20 95 68 bd d3 51 18 bd 0c 48 9f bc
       -0.045835122 -0.05678284 -0.03718741 -0.019443534
000260 b3 39 96 bd 2d af f5 bb 07 cb 50 3c 72 4e f5 bc
       -0.07335224 -0.007497689 0.012743718 -0.029944632
000270 3d a2 a5 bd 49 27 f6 3c 50 df ae bb 69 2c 27 3d
       -0.08087585 0.03004803 -0.0053366795 0.040813837
000280 67 86 50 3b 43 25 2f bd e6 f8 21 bd 26 d0 af 3c
       0.0031818391 -0.042760145 -0.03954401 0.021461558
000290 bc 07 5f 3d 98 64 21 3c c4 eb 42 bb 1d 87 8c bd
       0.054450735 0.009850644 -0.0029742578 -0.06861708
0002a0 d0 30 7f bd 74 64 ed 3c d8 de 0a bc 60 2e 1e bd
       -0.06230241 0.028978564 -0.008475982 -0.038618445
0002b0 12 b3 8d 3c 93 61 11 3d 09 40 e4 3c 02 a2 2e 3d
       0.017297301 0.035493445 0.027862566 0.04263497
0002c0 42 2f c9 bd 0d f6 35 3c 6e 37 69 3b 36 95 50 bd
       -0.09823467 0.011106026 0.0035586017 -0.05092355
0002d0 09 df 9b 3c d9 78 54 bc d0 5f 14 3c 78 e3 5b bd
       0.01902725 -0.012968265 0.009056047 -0.053683728
0002e0 9e a4 0d bd b6 ff e8 3c 26 5b 44 bd e8 76 1f bd
       -0.03458082 0.028442245 -0.04793849 -0.038931757
0002f0 f7 24 16 bc b8 2f 2f bd f2 9d ee 3c 34 db 3e bd
       -0.009164087 -0.042770118 0.029128049 -0.046595767
000300 80 28 15 bd cb 85 07 3c 9b 13 e4 3c 97 aa 8b bb
       -0.036415577 0.008271645 0.02784138 -0.0042622793
000310 cc 55 6b 3d 70 a7 ee 3b 92 b3 f5 bc c2 08 8c bd
       0.05745487 0.0072831437 -0.029992852 -0.06837608
000320 cf cb 13 3c 98 1d c8 bc 09 38 9f bd 26 f7 f7 bb
       0.00902076 -0.024428174 -0.0777436 -0.007567304
000330 78 21 a2 3c 4e 50 41 bd 42 1c 69 bd ca 15 fc bc
       0.01979135 -0.047195725 -0.056911714 -0.030772109
000340 d7 fd 90 bd 46 14 46 3c 2b 30 5d 3d 74 d1 f7 bc
       -0.07079666 0.0120897945 0.054001015 -0.030251242
000350 3f c2 09 bd dc 04 c8 bb bc 17 0a 3d d8 63 2f 3d
       -0.033632513 -0.006104095 0.03371404 0.042819828
000360 e3 c9 23 bc 98 0a f0 3c ec 24 c8 bc bd ea 54 3c
       -0.009996864 0.029301926 -0.024431668 0.012995419
000370 a0 57 46 3b df a2 5f 3d 98 eb 0a bd d0 db ee 3b
       0.003026463 0.054598685 -0.033916086 0.0072893873
000380 2a 75 00 bd 56 76 a2 3c 05 e2 44 bd 8c 71 4e 3d
       -0.031361736 0.019831818 -0.04806711 0.050401255
000390 42 5b 57 3d f0 36 f8 3c 42 7b 6d 3d 00 40 e8 b9
       0.052577265 0.030299634 0.057978876 -0.00044298172
0003a0 53 00 44 3c 3e 8d a7 bd 0e 39 a5 bd 1c f0 71 3c
       0.011962968 -0.08181237 -0.08067523 0.014766719
0003b0 9e 24 42 3d 89 7a b7 bd 62 0e 2e bd bb 74 bc bd
       0.047398202 -0.089589186 -0.042494185 -0.09201952
0003c0 c0 1a b1 bb 49 bd 8b bd 88 2a 16 3a 13 cb 9b bd
       -0.0054048 -0.06823213 0.00057283835 -0.07607093
0003d0 3d eb be bc 7c f3 a3 bc 3d 98 80 bd b4 26 d9 bc
       -0.02330553 -0.020013563 -0.06279037 -0.026507713
0003e0 3e d6 42 3d 8c 36 7f 3d 1e 18 31 bb ec ac 76 bd
       0.0475676 0.06230788 -0.0027022432 -0.060223505
0003f0 6a 27 bd bb b8 54 c8 bc 1a fb f1 3c f8 98 4f bc
       -0.005772521 -0.02445446 0.02953868 -0.012670748

fc2.bias f4 [256]
000000 d1 cb a1 bd b1 16 43 bd de 66 32 3d 21 25 74 bd
       -0.07900203 -0.047629062 0.043555133 -0.05960572
000010 0b a4 e1 bc 16 18 6b 3c e0 3b ef 3a 19 9a 12 3d
       -0.027544042 0.014349004 0.0018252097 0.03579149
000020 e5 16 9b 3c b9 2a 49 bc 03 12 4c bd 16 ae 50 3c
       0.018931815 -0.012278252 -0.049821865 0.012736818
000030 6a fa d1 bc b5 31 40 3a 3d 9c 6d bd 5d 30 46 3d
       -0.025632102 0.00073316257 -0.05801033 0.048385967
000040 63 54 d9 3c b0 92 9b 3c e8 90 83 bc 57 ce a9 bd
       0.026529497 0.018990844 -0.016060308 -0.08291309
000050 6a 04 e9 3c 03 73 2a bc f4 58 c4 bc fa 24 d1 3b
       0.028444488 -0.0104033975 -0.023968197 0.006382582
000060 d5 d8 a1 bc c5 e5 a6 bd a6 31 1b bd de e3 a6 bd
       -0.019756714 -0.08149294 -0.037889145 -0.08148931
000070 ad 5c 0a 3e d6 7c c0 bc 04 27 fd 3c 43 a8 5c bd
       0.13511916 -0.023497026 0.030902393 -0.053871404
000080 3f 79 6f 3b d7 d9 1f bd a0 77 8d bd 76 30 12 bc
       0.0036540774 -0.039026108 -0.06907582 -0.008922687
000090 a2 69 ad bd ac 80 0b bd 28 75 20 bd 0d 57 94 3d
       -0.084674135 -0.034058258 -0.03917423 0.07243166
0000a0 b9 95 15 3d 53 3b 75 bd 53 9e c3 bd 62 9e cf bb
       0.03651974 -0.05987103 -0.09551682 -0.0063360194
0000b0 c2 32 bc 3c 41 4a 5e bd d1 ec ef bc 28 6b af bc
       0.022973422 -0.054270033 -0.029287728 -0.0214134
0000c0 b1 f5 b2 3c 70 f0 69 bb 61 a3 85 bd 39 ff 91 bd
       0.02184567 -0.003569629 -0.06525303 -0.07128758
0000d0 8e 69 2d bc 32 66 1d bb 36 5e 79 bd 8c 66 ae ba
       -0.010584248 -0.0024017212 -0.060880862 -0.0013305708
0000e0 fa 6b de bc c0 55 5d bd f8 02 ec 3c 90 e1 fe bc
       -0.027151097 -0.054036856 0.02881001 -0.031113416
0000f0 25 ad 10 bd f1 53 07 3d 93 cd 02 3d ce 81 73 3c
       -0.035321373 0.033039037 0.031934332 0.014862491
000100 6d f8 89 bd 01 11 1a bc fe 0e 89 bc 18 6f f5 3b
       -0.067368366 -0.009403468 -0.016730782 0.00749005
000110 3e 46 9d bd fe 79 31 bd cb 6a 15 bd fe 36 42 3d
       -0.07679413 -0.04332923 -0.0364788 0.047415726
000120 cd ac bf 3b d9 3f aa 3c ea 68 04 3e c9 7e 11 bb
       0.005849457 0.020782398 0.12930647 -0.0022200814
000130 02 11 ef 3b 75 f2 47 3b 28 ae 6e 3b c5 79 c1 bb
       0.0072957287 0.0030509506 0.0036419723 -0.0059044086
000140 69 cb 95 bc 16 88 1d bd 92 d8 a8 3c dc 8c cb 3c
       -0.01828547 -0.03845986 0.020611081 0.02484744
000150 87 e7 96 bd 75 d9 9b 3b d0 66 be bc 09 2a 3d 3d
       -0.07368379 0.0047561475 -0.023242384 0.046182666
000160 b3 5c 92 bb 5f 07 48 bd 39 c5 8b bd 72 76 8b 3b
       -0.004466617 -0.048835155 -0.068247266 0.004256063
000170 57 d8 bc bc ae df 01 3e e6 99 8c bd 2b 89 d3 bc
       -0.023052378 0.12682983 -0.06865291 -0.025822243
000180 5e 89 89 bc a9 09 2a bd 1f 0a 27 bd 82 81 1d 3d
       -0.016789135 -0.04151312 -0.040781137 0.038453586
000190 b9 f8 28 bd 9a af 17 3d 35 0f 44 bd 48 ee 80 3c
       -0.041252825 0.0370327 -0.047866065 0.015738621
0001a0 74 04 61 bc 7a a8 c0 bd 0b 40 86 bd c9 fd 5c bd
       -0.013733972 -0.09407134 -0.06555184 -0.053952966
0001b0 2c 96 89 bd 6c d0 47 bd 52 b4 35 bd aa fa ab ba
       -0.06718096 -0.04878275 -0.04436142 -0.0013120968
0001c0 3a d0 f0 bd 3e 57 88 bd 5f 7a 1f bd 91 1c 1b bd
       -0.11758466 -0.06657265 -0.03893506 -0.03786904
0001d0 1f a3 11 bd 15 48 e3 3c e4 c2 05 3c b5 c3 39 3d
       -0.035555955 0.027744332 0.008164141 0.045352656
0001e0 ea e9 84 bd b7 87 6e bd 3c c0 5a bd ef 45 4d 3d
       -0.06489928 -0.058234897 -0.053405985 0.050115522
0001f0 4c 05 8a bd 62 10 b9 bc 3c a5 5b 3c 00 42 e9 bc
       -0.067392915 -0.02259082 0.013406094 -0.028473854
000200 53 6b 75 bd 6f f9 97 bd ba 65 bb 3c d1 51 13 bd
       -0.059916805 -0.074206226 0.022875655 -0.035966698
000210 39 18 88 3c c0 9d fe bb 97 ad 9a bd 8d a9 71 3c
       0.016613113 -0.00777027 -0.07552641 0.014749897
000220 fb 51 5a bd ec e0 61 bd f3 1d 19 3d 8f e3 2a 3d
       -0.05330084 -0.055146143 0.037382077 0.041720923
000230 99 58 3d 3c 2f 04 35 bc eb c4 5d bc 07 bf 2b bd
       0.011556768 -0.011048361 -0.013535718 -0.041930225
000240 22 d4 15 bd 73 f6 c4 bb 8b 54 6d bc 18 82 07 3d
       -0.03657926 -0.0060108243 -0.014485489 0.03308305
000250 e3 29 0a 3c e8 45 d7 3c 59 d6 cf bc 52 8d e3 ba
       0.008432838 0.026278451 -0.025370764 -0.0017360842
000260 4e a8 cc 3c 59 87 72 3c fa 73 3d bb f1 d3 7f bd
       0.024982598 0.014802777 -0.0028908239 -0.062457982
000270 07 e4 95 bc 62 57 18 bd df 29 ca bc 9b 2c 19 3c
       -0.018297208 -0.03719271 -0.024678169 0.009349014
000280 bc 1a 11 bd 24 d9 3a bd 9f 29 74 bd f0 17 37 bd
       -0.035425887 -0.045617238 -0.059610005 -0.044700563
000290 02 28 fe bc e6 35 63 bd 72 67 4c bd f5 a5 ec ba
       -0.031024937 -0.055471323 -0.04990334 -0.001805483
0002a0 b1 85 64 3d 6c 14 19 bd aa e0 23 3c 63 a8 83 bd
       0.05579156 -0.03737299 0.010002295 -0.064286016
0002b0 4d 98 a7 bb f7 f9 ed bb 95 e9 ca bd a3 ee ad 3c
       -0.005114591 -0.007262464 -0.099078335 0.021231955
0002c0 3d ff fd 3c 08 ff d1 ba f3 53 6e 3c ad 52 43 3d
       0.031005496 -0.001602144 0.014546382 0.047686268
0002d0 df e8 88 3c ca 7e a2 bd 27 51 ed bc c8 1c d6 3c
       0.016712604 -0.07934339 -0.02896936 0.02613677
0002e0 76 77 b5 bd 2e a1 76 3d a1 e9 4f bd fc 26 aa bc
       -0.08860676 0.060212307 -0.050759915 -0.020770542
0002f0 6b bc 60 bd f8 d3 87 bc d3 5b 0a 3d 95 23 bd 3c
       -0.05486719 -0.016580567 0.033778977 0.023088256
000300 5f 05 ec 3c 55 a9 f5 3c 5f ad 44 bd 19 06 53 bd
       0.028811155 0.02998797 -0.048016902 -0.051519487
000310 48 3a 63 bc ec c6 c8 bd fa db f7 bc 47 4b 4b 3d
       -0.013868876 -0.09803566 -0.03025626 0.049632337
000320 a7 7d ff 3b b0 cd f0 bc 42 24 7c bd d1 03 0e bd
       0.0077969613 -0.029394954 -0.061558016 -0.03467161
000330 b4 30 b7 3c d5 38 e6 3c 33 45 86 bd 1c b2 93 bd
       0.02236209 0.028103271 -0.065561675 -0.07211706
000340 8e 97 4a 3a d3 72 b1 3c dd 55 92 3c 92 a9 fd bb
       0.0007728272 0.021661198 0.017863208 -0.0077411616
000350 b0 85 8c 3b 35 90 03 bd 0f d4 4c bd d4 89 50 3c
       0.0042883977 -0.03211995 -0.050006922 0.012728173
000360 27 5a 79 bd ce 79 68 bd f0 b0 af 3c a5 dd de bb
       -0.06087699 -0.056756787 0.021446675 -0.0068013244
000370 23 be b8 bc e3 10 3f 3d 7b 92 0d bd ae 30 01 bd
       -0.022551602 0.046646964 -0.034563523 -0.031540565
000380 80 92 b8 bd 61 a2 56 3a 28 c3 57 3d a5 76 be bc
       -0.09012318 0.00081876485 0.05267635 -0.023249933
000390 ae 46 5b bd 69 c5 30 3c d8 75 8f bc d8 ce 20 3d
       -0.053534202 0.010789254 -0.017512247 0.03925976
0003a0 e4 4c 67 bd 3a 37 3f bd ee 13 a2 3c 76 38 cc bc
       -0.056469813 -0.046683528 0.019784894 -0.024929266
0003b0 51 f7 4b bd ea b9 ff 3c 74 7e 82 3c 7f 63 b3 bd
       -0.049796406 0.03121658 0.015929438 -0.08759212
0003c0 ed d2 86 bd 70 e1 35 3d 06 13 02 3d df 4f 81 bd
       -0.065832 0.044404447 0.031756423 -0.06314062
0003d0 eb 4d 3f bd 05 21 37 bd 92 9f 59 bc d6 d4 11 bd
       -0.046705168 -0.044709224 -0.013282673 -0.035603367
0003e0 aa 5f 02 bd 1a 19 88 3c 7c b7 bb bd ff 28 6d 3c
       -0.031829514 0.016613532 -0.09165856 0.014475106
0003f0 9f 64 4d 3d d4 f1 8a 3c 5c a1 ba 3b f5 ce 95 3c
       0.050144788 0.016961016 0.005695505 0.018287161

fc3.weight f4 [24, 256]
000000 c1 44 42 3d f7 4b 11 3c 08 a8 2a bc 15 25 24 3d
       0.04742885 0.008868209 -0.010416038 0.040074427
000010 ff fc e3 3b e4 86 0d 3d 40 ad 47 3d 91 27 13 bd
       0.0069576497 0.03455247 0.04874921 -0.035926405
000020 bb 07 50 bc 79 c7 8f 3c 17 57 80 3d cc 2f 39 bd
       -0.012697156 0.01755117 0.06266611 -0.0452116
000030 94 6d 32 3d 77 8a 1e 3d 8a 58 53 3d d8 32 33 bd
       0.043561533 0.03870627 0.05159811 -0.04374966
000040 cc 98 d4 bc 30 ef 26 bc d4 27 15 3d 48 2e 17 3d
       -0.025951765 -0.010188863 0.036414936 0.03690937
000050 53 5e a7 bc 3a 32 3a bb b1 dc ea bc f2 39 7d 3c
       -0.02043072 -0.0028411285 -0.028669687 0.01545571
000060 36 3a d9 3c a6 3f fb bd 0d 67 1d bd 79 86 a7 bc
       0.026517015 -0.12267999 -0.038428355 -0.020449864
000070 ea e7 f1 3d 1c 71 cd 3c d8 e9 1e bc 40 d8 1d be
       0.11811812 0.025078349 -0.009699307 -0.15414524
000080 32 ff 51 bd 41 93 c9 bc 45 8d 0e 3d e6 bd 5e 3d
       -0.051268764 -0.024606349 0.034802694 0.05438032
000090 c2 34 21 be e8 3e cd 3c 20 8d 38 3d ad c6 07 3d
       -0.15742782 0.02505441 0.045056462 0.033148456
0000a0 78 af 5a 3c 89 65 3f 3d 56 fa b1 bd 66 1e 11 3d
       0.013347499 0.04672769 -0.08690326 0.03542938
0000b0 25 c7 42 3c ea 18 04 3c de 64 11 bc 46 d2 27 bc
       0.0118883 0.008062581 -0.008874146 -0.010243004
0000c0 d8 63 40 3d 6b 9c 85 bd 14 3d 5b 3d 3c 10 ae be
       0.04697022 -0.06523975 0.053525046 -0.3399676
0000d0 e0 45 1b bb b4 ea 73 bd a8 2c a3 bd 66 fe 3b 3d
       -0.0023692772 -0.059550002 -0.07967502 0.04589691
0000e0 67 9a 7b 3d b9 78 e1 3d ba fc 94 3c 80 07 7d bd
       0.061426546 0.11009354 0.018186916 -0.06177473
0000f0 3b 04 8c bd ac 92 b6 bc 49 1f 30 3d 0e 76 07 bd
       -0.068367444 -0.022286735 0.042998586 -0.03307157
000100 34 79 27 bd 10 42 d0 3b d2 5b 23 3d 9c e6 34 3d
       -0.040887073 0.0063555315 0.03988249 0.04416524
000110 cc be 3a 3d 52 1c 21 3d 54 f4 8e bc 2d a3 51 3d
       0.045592114 0.03933365 -0.01745049 0.051181007
000120 a9 8f 2d 3d 1a f1 29 3d 95 52 9c 3c fb c5 0c 3d
       0.042373333 0.041489698 0.019082347 0.034368496
000130 b2 41 38 bd b2 b0 97 bb 5c 52 29 bd 4a 4f 4d bd
       -0.044984527 -0.004629218 -0.04133831 -0.050124444
000140 8c 3c 55 bd a0 71 16 bd 20 f5 cb 3b a1 1f 48 3d
       -0.052059695 -0.036729455 0.0062242895 0.04885829
000150 e1 f0 27 3d 6a 01 2a 3d 9b d6 41 bc d6 24 77 bd
       0.041001204 0.041505255 -0.011830951 -0.060337864
000160 6f 2b 1a bd 50 c8 96 3c ff 88 09 3c 76 1e 2f bd
       -0.037639078 0.018406063 0.008394479 -0.04275366
000170 11 1b ba bb 9e 9f 0c be ec b6 bc bc 30 41 c5 3c
       -0.005679496 -0.13732764 -0.023036443 0.024078935
000180 1c d1 50 3d b6 8c 14 3d a9 7f 6a 3d 88 86 0c 3d
       0.050980672 0.036267005 0.057250652 0.034307986
000190 fd 88 19 3d 87 77 ad bc 19 3a 20 bd 2f 01 9a bb
       0.037484158 -0.02117516 -0.039117906 -0.004699848
0001a0 c1 1e 08 3d 62 e9 6c bc fa aa d5 bd 91 12 56 3d
       0.033232454 -0.01445994 -0.10433002 0.0522638
0001b0 f3 9a bf 3a b6 24 4f bd 4f 8f 1f bd a4 8f f0 bc
       0.0014618322 -0.05057212 -0.03895503 -0.029365368
0001c0 a0 2a 8b bd 2b 95 04 3c 50 04 e0 bc ea 3c 12 3d
       -0.067952394 0.008092205 -0.027345806 0.035702623
0001d0 5e e9 2d bc 14 63 dd bc dd 7b eb bc fc 7d 6a be
       -0.010614721 -0.027024783 -0.028745586 -0.22899622
0001e0 fd 4c f3 bb ec 2c 56 be d7 ce 35 3d 78 46 22 bd
       -0.007424949 -0.20915574 0.04438671 -0.039617985
0001f0 23 3b 32 3d 17 81 d4 bd 40 2c 93 bb ff 5d 44 bd
       0.04351343 -0.103761844 -0.004491359 -0.047941204
000200 95 52 8d 3c 3b de df 3c 54 08 db 3c f6 cd 12 bd
       0.017251292 0.027327647 0.02673737 -0.03584095
000210 1a c9 62 bc 08 ea 56 bc c9 a1 d6 bc 5f ef 36 3c
       -0.013841892 -0.013117321 -0.026200192 0.011165469
000220 33 b4 37 3d 0e 9f 15 bd 58 81 b6 3c 08 06 ed ba
       0.044849586 -0.03652864 0.022278473 -0.0018083462
000230 c1 62 95 be 60 21 3d bd 4c d0 67 3d 52 a0 12 3c
       -0.29176906 -0.046174407 0.05659513 0.008949356
000240 d0 9a 3a bc 05 27 c2 3b 5b e3 bb bd 05 33 e4 bc
       -0.011389449 0.0059250616 -0.09174224 -0.02785636
000250 6c e8 db 3d 4e 90 02 3d d0 86 19 bd 78 2c 03 3d
       0.1073769 0.0318759 -0.037482083 0.03202483
000260 f7 95 20 bc b7 08 ab 3c a7 f2 3d 3d d2 1b 4e 3d
       -0.009801379 0.020878179 0.04637399 0.0503195
000270 6a eb 3b 3d b0 f1 8e bc 63 86 ba bc 01 6c 0e be
       0.045878805 -0.01744923 -0.022769159 -0.13908388
000280 4e 7e 0a 3d fb 78 33 bc a1 1b 5c bc 56 f8 bb bc
       0.03381186 -0.010954137 -0.013434322 -0.022945564
000290 8a 22 65 3d 79 57 31 3c 75 d2 b7 be c5 59 0f bd
       0.055941142 0.010824078 -0.35902753 -0.03499772
0002a0 13 c5 3d bd ef 6d c6 bc a5 6e 23 3d 7a 74 5d bd
       -0.046330523 -0.024222342 0.03990044 -0.05406616
0002b0 8f 1c 86 3c 21 6f 3e bd 26 f7 d9 bd 88 f6 17 bc
       0.01637104 -0.0464927 -0.10642843 -0.009275086
0002c0 ec 27 31 3d 40 43 66 bb 3b 15 91 bc 0a 60 39 bd
       0.043250963 -0.00351353 -0.017710319 -0.045257606
0002d0 1f 4c b2 3c c0 8b 14 3c a8 fd 0b bd 49 40 bb bc
       0.021764813 0.009066522 -0.034177452 -0.022857802
0002e0 6b c0 4e 3d a4 da 89 bc d1 16 0a bc b4 20 2d 3d
       0.050476473 -0.016827889 -0.008428291 0.042267516
0002f0 a2 da 7d bd 31 e7 fd bc 96 6d 29 bc af 7c 0a 3d
       -0.061976083 -0.03099403 -0.010341069 0.033810314
000300 22 f5 e0 3c 5f 8e c5 bc 54 96 90 bc e0 7f 47 3b
       0.027460638 -0.02411574 -0.017649807 0.003044121
000310 4a ec 13 bd 29 6d 8d bb b5 cd af 3c 9b 7e 3b 3d
       -0.036114015 -0.0043159914 0.021460393 0.045775037
000320 a1 c7 a5 3d a7 84 9d bd 3f f5 55 3c b9 75 e0 39
       0.08094717 -0.07691317 0.0130589595 0.0004281232
000330 00 c3 54 bc 1e 08 82 be f0 b4 1f 3d 3b 62 09 bd
       -0.012985945 -0.25396818 0.038990915 -0.033540946
000340 63 30 45 3d 9b 9d 29 3d 83 52 d7 bc c0 32 8e 3a
       0.04814185 0.04141007 -0.026284462 0.0010848865
000350 20 4d 1d bb 70 26 ac 3c 53 5c 1d 3d cd 85 19 3d
       -0.002400227 0.021014422 0.038418125 0.037481118
000360 05 77 6f be 95 7e d9 3c ee 07 ac bc 24 47 90 bd
       -0.23385246 0.026549617 -0.020999875 -0.07044819
000370 12 99 11 bc b3 05 43 3d 1c cd 94 bc 30 cd 33 3d
       -0.008886592 0.047612857 -0.01816421 0.043896854
000380 6e 62 10 3d 9e 4d 61 3d a0 2a 6e bd c5 62 26 be
       0.03525012 0.055005662 -0.05814612 -0.16248615
000390 1a 90 3a bb 98 32 5b bd 16 3a 77 3d 0d 3f ff 3c
       -0.002846724 -0.053515047 0.06035813 0.031157995
0003a0 6a f2 6b bd c0 b4 3e bd ed da 1e 3e 44 c3 43 bd
       -0.05760423 -0.046559095 0.15513201 -0.04779364
0003b0 a7 e4 3a 3d 00 75 7f 3c c7 9c 22 3d e0 87 22 bd
       0.045628216 0.01559186 0.039700296 -0.03968036
0003c0 87 63 0a bd 39 c4 d6 bc 9c 82 f5 3c 9c 45 b3 bc
       -0.033786323 -0.026216613 0.029969506 -0.021883778
0003d0 f0 06 df bb fc 25 fe 3c ba 6e 56 be 5b f3 91 3b
       -0.006806247 0.031023972 -0.20940676 0.004454059
0003e0 0a 01 f6 ba f3 f9 11 bd 98 b2 9e bd b5 c5 6f 3d
       -0.001876862 -0.03563876 -0.07748908 0.058538157
0003f0 00 89 56 bc 08 79 73 bc 84 de 57 bd 3a 56 1d bd
       -0.013094187 -0.014860399 -0.05270244 -0.03841231

fc3.bias f4 [24]
000000 ac 18 15 be 4e 64 91 3c 9a 7b 64 3d 79 a5 8c 3d
       -0.14560193 0.017748024 0.055781938 0.06867499
000010 c5 5f 38 3e 64 7f 69 3d 8b e7 76 3d eb da 19 3d
       0.18005283 0.057006255 0.06027941 0.037562292
000020 ce f4 3d be ed 78 a2 bd 9d 2b 86 3d 7a 95 19 3c
       -0.18550417 -0.07933221 0.06551287 0.009374017
000030 ca a9 be bd c4 b4 24 bc 6c 34 20 be ab d1 74 bd
       -0.093097284 -0.0100528635 -0.15644997 -0.059770267
000040 0f 32 96 bd 4a bb 26 bd e0 26 38 bc b1 b0 da bc
       -0.07333767 -0.040705957 -0.011239737 -0.026695581
000050 fe 99 04 bc 90 d1 c5 3c 2c 68 b4 bd 55 6b c5 3b
       -0.008093355 0.024147779 -0.08808932 0.006024758
