models/generator.pth (torch, 466140 bytes, 6 tensors)

fc1.weight f4 [256, 32]
0	0xbefd3b74	-0.49459422
1	0xc004950a	-2.0715966
2	0xc010510e	-2.2549472
3	0xbff9bd36	-1.9510868
4	0xc018b22e	-2.3858752
5	0xc0031a13	-2.0484664
6	0xbff295c2	-1.8951952
7	0xc00a63ab	-2.1623333
8	0xbf926ff9	-1.1440421
9	0xc013988f	-2.3061864
10	0xbd21cc8c	-0.03950171
11	0xc00a4839	-2.1606581
12	0xc01b2e30	-2.424694
13	0xc012f6c8	-2.2963123
14	0xc016cf76	-2.3564124
15	0xbf9995c7	-1.1998833
16	0xc0072bb9	-2.1120436
17	0x3c88fd88	0.016722456
18	0xc017aa3d	-2.3697655
19	0xbffb413d	-1.9629284
20	0xbc3c13b9	-0.011479312
21	0xc0192726	-2.3930144
22	0xbfa29bf5	-1.2703844
23	0xc0040e1f	-2.063362
24	0xbe1c5a00	-0.15268707
25	0xc0187db9	-2.3826735
26	0xbffee2bf	-1.9912947
27	0xbff6587c	-1.9245753
28	0xc018e63a	-2.389052
29	0xbfb4ed69	-1.4134952
30	0xc015056c	-2.328456
31	0xbe09fa52	-0.13474396
32	0x40b43b35	5.6322274
33	0x3f7e8fdf	0.9943828
34	0xbebd73de	-0.37002462
35	0x3e99a207	0.3000643
36	0x3f0e0f17	0.55491775
37	0xbe4c9d33	-0.19981842
38	0x3d4d2c8d	0.050091315
39	0xbf9bc120	-1.2168312
40	0xc0838b31	-4.110741
41	0xbf175263	-0.5911009
42	0xbd9f91ca	-0.07791479
43	0xbe633a9c	-0.22190326
44	0x3bd5af18	0.006521117
45	0x3e03b7f1	0.12863137
46	0xbee8d63d	-0.4547595
47	0xbfd72526	-1.6808212
48	0xbec32a92	-0.38118416
49	0x3e1d5457	0.15364204
50	0xbf0572d7	-0.52128357
51	0x3dd57400	0.10422516
52	0xbde5848f	-0.11206924
53	0xbf22f0ce	-0.6364869
54	0xbff33952	-1.9001868
55	0xbea6c6f9	-0.3257368
56	0x3e013041	0.12616064
57	0x3f031ee2	0.51219
58	0xbfa80686	-1.3126991
59	0xbcab1151	-0.02088228
60	0xbf2af6d9	-0.6678291
61	0xbfeeef78	-1.866683
62	0xbea34f6b	-0.3189653
63	0x3e1bcf6d	0.15215845
64	0x3f77f3a7	0.9685616
65	0x3f07efa9	0.5310007
66	0x3e6df65f	0.23238514
67	0x3f8ed920	1.1160011
68	0x3ca6db88	0.020368353
69	0xbe579847	-0.21054183
70	0x3d27187c	0.040794834
71	0xbf794cd2	-0.97382843
72	0xbfc6d4cb	-1.5533689
73	0xbf18f5fe	-0.59750354
74	0xbdd55e84	-0.10418418
75	0x39b86806	0.00035172718
76	0xbe36915b	-0.17828886
77	0xbd89314f	-0.06698858
78	0xbf387702	-0.7205659
79	0xbf9f6375	-1.2452227
80	0xbf401510	-0.7503214
81	0xbdfc1fa0	-0.123107195
82	0x3d09df4b	0.033660214
83	0xbe37e469	-0.17958225
84	0xbc8cf41d	-0.017206246
85	0xbe22252d	-0.15834494
86	0xbf8f9d0e	-1.1219804
87	0xbf34ee8b	-0.7067649
88	0x3cdd68a8	0.027027443
89	0x3d6bea06	0.05759623
90	0xbe50b3a7	-0.20381032
91	0x3c50b7da	0.012739146
92	0x3dde65a2	0.10859229
93	0xc06f3cb1	-3.7380793
94	0xbf31897c	-0.6935041
95	0x3c6189f0	0.013765797
96	0x40d8edc9	6.7790265
97	0xbf17228d	-0.59037095
98	0x3fa301c5	1.2734915
99	0xbfaf57d9	-1.3698684
100	0xbabf155b	-0.0014578508
101	0x3c14a73b	0.009073074
102	0x3e1fc371	0.15601899
103	0xbf1d2ad8	-0.613935
104	0xc028a52b	-2.635081
105	0x404a430e	3.1603427
106	0x3c15aea0	0.009135872
107	0xbbd61c70	-0.0065341517
108	0x3c39bf99	0.011337184
109	0x3d8213cc	0.06351432
110	0xbe1b437a	-0.15162459
111	0xbfcce3e5	-1.6007048
112	0x404167b7	3.0219553
113	0xbd90fd07	-0.07079511
114	0x39b6f040	0.00034892745
115	0x3bd092b6	0.0063651456
116	0x3dc7ee4a	0.09762247
117	0x3e397e37	0.18114553
118	0xc00a8c15	-2.1648
119	0x40451f4f	3.080036
120	0x3e0f3e61	0.1398864
121	0xbc31347e	-0.010815738
122	0x3cc632c5	0.02419413
123	0x3e027f8b	0.12743966
124	0x3ea89476	0.32925767
125	0xc0b319f8	-5.59692
126	0x4040ce68	3.012598
127	0x3cbd1240	0.023079991
128	0xc0916278	-4.54327
129	0xbe1598de	-0.14609095
130	0xbf83d64f	-1.0299777
131	0xbfbbc5bc	-1.4669719
132	0xc004027e	-2.062652
133	0xbe981179	-0.2970083
134	0x3f86bda0	1.0526619
135	0x3ef5dfcb	0.48022303
136	0xc0c89d16	-6.2691755
137	0xbf63c55a	-0.8897301
138	0x3d136a78	0.03599021
139	0xbebad426	-0.3648998
140	0x3f28df81	0.6596604
141	0xbf8adc03	-1.0848392
142	0xbf34ee29	-0.70675904
143	0xc0b23cc3	-5.569917
144	0xbf4e2f62	-0.8054105
145	0xbc24fe40	-0.010070384
146	0x3bbd0117	0.005767952
147	0x3ea477dc	0.32122695
148	0xbf5eb5f0	-0.86996365
149	0xbf2e51f0	-0.68093777
150	0xc08b4ea5	-4.35335
151	0xbf633b6d	-0.8876255
152	0xbc54fd70	-0.012999877
153	0x3ef2e6fc	0.47441852
154	0x3f8a4fc2	1.080559
155	0xbf73140a	-0.9495245
156	0xbf1cb87e	-0.6121901
157	0xc097d28e	-4.7444525
158	0xbf4eb304	-0.80741906
159	0xbd5284d8	-0.05139622
160	0x3ebce7d7	0.3689563
161	0xbf74231d	-0.9536608
162	0xbf730b93	-0.94939536
163	0xbf4731a8	-0.77810144
164	0xbf28d52c	-0.65950274
165	0xbf3ac357	-0.72954315
166	0xbf58fdcc	-0.84762263
167	0xbf1dcd9d	-0.61641866
168	0xbf4e6cee	-0.80634964
169	0xbf57f66e	-0.84360397
170	0x3e0aa5a5	0.13539751
171	0x3f310deb	0.6916186
172	0xbea9dc56	-0.33175915
173	0xbf4bb821	-0.79577833
174	0xbf6379fa	-0.88857996
175	0xbf6898d9	-0.90858227
176	0xbf274656	-0.653417
177	0x3e148431	0.14503552
178	0xbf13f103	-0.5778963
179	0xbed15dcd	-0.40891877
180	0xbef56cfe	-0.47934717
181	0xbf5bf7a9	-0.85924774
182	0xbf439fb9	-0.7641559
183	0xbf2951b1	-0.66140276
184	0xbd418f84	-0.047256008
185	0xbeb50fd7	-0.35363647
186	0xbf767de3	-0.9628584
187	0xbf4b24ab	-0.79352826
188	0xbf628e82	-0.884987
189	0xbf87c1e8	-1.060605
190	0xbf66a160	-0.9008999
191	0xbe0599c7	-0.13046943
192	0x4102a736	8.165823
193	0x3f92e972	1.1477492
194	0xbf9d3f6b	-1.2284979
195	0x401bc06f	2.4336202
196	0x3d0ea884	0.034828678
197	0xbd22a8a7	-0.03971162
198	0xbf1d558f	-0.6145868
199	0x3d889b30	0.06670225
200	0x4001a27c	2.0255423
201	0xc0556864	-3.3344965
202	0xbc984040	-0.018585324
203	0x3cb30e8e	0.021857526
204	0xbd1316af	-0.035910305
205	0xbefeaa07	-0.49739096
206	0x3da2a074	0.0794076
207	0x3f7ef84a	0.9959761
208	0xc046b5d3	-3.1048477
209	0xbdc2afea	-0.09506209
210	0x3ccc2f5f	0.024924932
211	0xbd287e7b	-0.041136246
212	0xbf1aeb93	-0.6051571
213	0x3ceccb33	0.028905487
214	0x3f2bf4ea	0.67170584
215	0xc04f9d07	-3.2439592
216	0x3d66ea20	0.056375623
217	0x3d5635a0	0.052297235
218	0xbd022ecd	-0.031782914
219	0xbf1b1629	-0.6058069
220	0xbed4a6a5	-0.4153339
221	0x3fddcb39	1.7327644
222	0xc04833b1	-3.128155
223	0xbe1d3d40	-0.15355396
224	0xc10a5672	-8.646105
225	0x3f2d3183	0.67653674
226	0x3ea64f70	0.3248248
227	0x3d932aee	0.071859226
228	0xbdf8ec46	-0.121544406
229	0x3daa4826	0.083145425
230	0xbdeaeed6	-0.114713356
231	0xbd8c98fd	-0.06865118
232	0x3f209cb4	0.6273911
233	0x3d91707e	0.07101534
234	0xbe16d2be	-0.1472883
235	0xbdb5f5ee	-0.08884798
236	0x3d75d2b2	0.060015388
237	0xbde0dd21	-0.10979677
238	0xbc95a44d	-0.018266821
239	0x3e954810	0.29156542
240	0x3e745494	0.23860389
241	0x3d2a0574	0.041509107
242	0xbd9ae6e9	-0.07563574
243	0x3d740247	0.059572484
244	0xbdc219fc	-0.094776124
245	0xbd863a66	-0.06554107
246	0x3e8f0fc1	0.27941707
247	0x3aeb20f5	0.0017938899
248	0x3dc21bf2	0.094779864
249	0xbe03ed8a	-0.12883583
250	0x3d8bd9cc	0.06828651
251	0xbddf32b2	-0.10898341
252	0xbe501cbf	-0.20323466
253	0x3f5c896f	0.8614721
254	0x3db08e48	0.08620888
255	0x3d22e200	0.03976631

fc1.bias f4 [256]
0	0xc00f6d4c	-2.241046
1	0xbf0e47b1	-0.5557814
2	0xbf108979	-0.56459767
3	0x40473560	3.1126328
4	0xbf4a0e95	-0.789285
5	0xbf4aab5d	-0.7916773
6	0xc0565e2e	-3.3494983
7	0x3d033cf8	0.032040566
8	0xbfff97eb	-1.9968237
9	0x3edebdad	0.43504086
10	0x3f95df3e	1.1708753
11	0xbfca3940	-1.5798721
12	0xbf9fde88	-1.2489786
13	0x3f9cecc1	1.2259752
14	0x4040e3f2	3.0139127
15	0xbeb1fcf5	-0.34763303
16	0x403f07d4	2.9848528
17	0x4025b984	2.589448
18	0xbe937aca	-0.28804618
19	0xbe9b77aa	-0.30364734
20	0x3f20e7c1	0.6285363
21	0xbf0d4b79	-0.5519329
22	0x402b9f04	2.6815805
23	0x3edaedc5	0.4275953
24	0xbeea8827	-0.45807
25	0xbf0a6b84	-0.54070306
26	0xbf6c6c0c	-0.92352366
27	0x3f8b92c2	1.0904162
28	0xbf8c864f	-1.0978488
29	0xbffa49a7	-1.9553727
30	0xbfa512cb	-1.289636
31	0x3f80cb7d	1.00621
32	0xbfb72243	-1.4307331
33	0xbfed03f6	-1.8516834
34	0x3e576837	0.21035849
35	0x3fa6c2d1	1.3028203
36	0xbf6c7de6	-0.92379606
37	0xbfbe53ac	-1.4869285
38	0x3c829126	0.015938353
39	0xc0323769	-2.784632
40	0xc04f06df	-3.2347944
41	0xbf96b0a6	-1.1772659
42	0xbe948612	-0.29008538
43	0x3f4ad66f	0.7923345
44	0x400751aa	2.1143594
45	0xc06edc2c	-3.7321882
46	0xbfe7ea7e	-1.8118436
47	0xbedd219b	-0.431897
48	0xbe57a636	-0.21059498
49	0xbeb8e3a6	-0.36111182
50	0x3f109543	0.56477755
51	0xbe92e7b9	-0.28692415
52	0x3d8d6a9f	0.06905102
53	0x401b8269	2.4298346
54	0x3e36f155	0.17865498
55	0xbfb134ce	-1.384424
56	0xbfa8396c	-1.3142524
57	0x3d070742	0.032965906
58	0xbfc86347	-1.5655297
59	0xbf65f6bf	-0.8982963
60	0xbfd7ec64	-1.6869016
61	0x400c1dc9	2.189318
62	0x3f12ceb7	0.5734667
63	0x3f11da59	0.569738
64	0xbfa92f5b	-1.3217577
65	0x405768e1	3.3657763
66	0xbf8d83b7	-1.1055821
67	0xc036864f	-2.8519475
68	0x409d9fc3	4.925752
69	0x40397673	2.8978546
70	0xbff13ab1	-1.8846036
71	0xbf538dc6	-0.82638204
72	0xbf963b67	-1.1736878
73	0x3fc5debd	1.5458599
74	0x3dce47f6	0.10072319
75	0xbe69684c	-0.22793692
76	0xc0234eb0	-2.5516777
77	0xc000fa0c	-2.0152617
78	0xc000cfab	-2.012675
79	0xbfd75eb4	-1.6825776
80	0xc08e8461	-4.4536595
81	0x408c1ee9	4.378773
82	0xbdb49329	-0.08817131
83	0x3fbb4ba6	1.4632461
84	0xbfd9d126	-1.7016952
85	0xc053436d	-3.3009903
86	0x402261cf	2.5372198
87	0xbfdd0a38	-1.7268744
88	0xbfa82f89	-1.3139507
89	0x403bbf47	2.9335496
90	0xbf4fe1ae	-0.81203735
91	0xbf622f45	-0.8835338
92	0xbfa85a72	-1.3152602
93	0x404c2cb4	3.1902285
94	0xbfa7690d	-1.3078934
95	0x4039d454	2.9035845
96	0xbe7d8a6e	-0.24759838
97	0x402f7434	2.7414675
98	0xbfff366c	-1.9938483
99	0xbfdb66df	-1.7140769
100	0xbf4763ff	-0.77886957
101	0xc00ea2ad	-2.228679
102	0x3f99517f	1.1977996
103	0x3fd85618	1.6901274
104	0x407e89f1	3.9771693
105	0x3fa1f729	1.2653552
106	0xbf6313f1	-0.88702303
107	0xbfca2a4f	-1.5794162
108	0xc0826aa1	-4.075516
109	0xbef341fb	-0.47511277
110	0x3f956fe4	1.1674771
111	0x401ffcbc	2.4998007
112	0xbf9fad87	-1.2474831
113	0xbf4d0537	-0.8008608
114	0xc004894c	-2.07088
115	0xbc593779	-0.013257855
116	0x3e92f39c	0.28701484
117	0xbd078691	-0.033087317
118	0x40a531fb	5.162351
119	0xbf71a492	-0.9439174
120	0x3ea0e41c	0.31424034
121	0xbf76151f	-0.9612598
122	0xc0053916	-2.0816092
123	0x4065de7d	3.5917046
124	0xbcee7bb3	-0.029111719
125	0xbfd50503	-1.6642154
126	0xbfc866f3	-1.5656418
127	0x3fe629e6	1.7981536
128	0xbf3f4d6d	-0.7472752
129	0x3f2f03af	0.68364996
130	0xc0319e26	-2.7752776
131	0x3ff6b61e	1.9274328
132	0xbf3da532	-0.74080193
133	0xbee73117	-0.4515464
134	0xbe677c9b	-0.22606127
135	0xbfb76828	-1.4328661
136	0xbd67013a	-0.056397654
137	0xbfd2ba84	-1.646317
138	0x4036de88	2.8573322
139	0xbec864e1	-0.39139464
140	0xbec92e1b	-0.39292988
141	0xc02bfeaf	-2.6874197
142	0xc05fdeb9	-3.497969
143	0x3d26b801	0.040702824
144	0xc0410ce9	-3.016413
145	0xc02279ee	-2.538692
146	0x3f10e011	0.565919
147	0x3d4823de	0.04886233
148	0xbf9f9114	-1.2466149
149	0xc09a1c2f	-4.8159404
150	0xbeb95449	-0.36197117
151	0xc006fe6b	-2.1092784
152	0x3fa163c7	1.2608575
153	0x4038296c	2.8775282
154	0xbfa6bad2	-1.3025763
155	0xc06bacfc	-3.6824331
156	0xbda4397c	-0.08018777
157	0xbf249f49	-0.6430555
158	0xbfcc44da	-1.5958512
159	0xc08621b0	-4.1916122
160	0xbed3a615	-0.41337648
161	0xbeed604c	-0.4636253
162	0xc00b00d7	-2.1719263
163	0x40974e4e	4.7283087
164	0x3ffe270e	1.9855669
165	0x4025942e	2.5871692
166	0xbfe22063	-1.7666134
167	0xbfb9bbbb	-1.4510416
168	0x405f39f8	3.4879131
169	0xbee2d6b5	-0.44304433
170	0xbfe7a397	-1.8096799
171	0xbed3a380	-0.41335678
172	0xc0229a8e	-2.5406833
173	0xc008c73f	-2.137161
174	0xc0b34d57	-5.603191
175	0x400b532f	2.1769521
176	0xc03287c2	-2.789536
177	0xbe0d525f	-0.13800953
178	0x3cb70c80	0.022344828
179	0xbee2cfcb	-0.44299158
180	0x3e8005df	0.2500448
181	0x3de6a214	0.11261383
182	0xbe336561	-0.17519142
183	0x3f2a9af8	0.66642714
184	0x3fe2c3cc	1.7716002
185	0xbe85b892	-0.26117378
186	0x4082527c	4.072569
187	0xbe3be16f	-0.18347715
188	0x3ed08cca	0.40732414
189	0x3dcf7f81	0.10131741
190	0xc014b89d	-2.323768
191	0xbe896d4c	-0.268412
192	0xbe6a9c3d	-0.22911163
193	0xbf1e9b01	-0.6195527
194	0xbe69b51a	-0.22822991
195	0xbfabf213	-1.343325
196	0xc009b6e9	-2.151789
197	0xc06994d6	-3.6497092
198	0xc01ad8ea	-2.4194894
199	0xbcbe8ae7	-0.023259593
200	0xbe9c1c5b	-0.30490384
201	0xbfe98954	-1.8245034
202	0x3ee85aa7	0.45381662
203	0xc002956f	-2.0403707
204	0xc086cda3	-4.212602
205	0xbd898e10	-0.067165494
206	0xbfb92ea1	-1.4467355
207	0xbfa48c8f	-1.2855395
208	0x3f2d8fd5	0.67797595
209	0xc034a841	-2.8227694
210	0x3ea1925c	0.31556976
211	0xbfe758e8	-1.8074007
212	0xbfa55eb0	-1.2919521
213	0xbe1b10ef	-0.15143178
214	0x4058f1e4	3.3897638
215	0xc0799e8d	-3.9003022
216	0xbff6e291	-1.9287893
217	0xbfa960df	-1.3232688
218	0x403df520	2.9680862
219	0xbf8536cb	-1.0407346
220	0xbf574699	-0.840921
221	0xc02f4511	-2.7385905
222	0xbfc795a3	-1.559254
223	0x3f628ff6	0.88500917
224	0x4002d77a	2.0444016
225	0x3fe9053f	1.8204726
226	0xbfb9b430	-1.4508114
227	0x4080c99a	4.0246096
228	0xbe974e27	-0.29551813
229	0x3cd53172	0.026024554
230	0xc0039326	-2.0558562
231	0xbf671e47	-0.90280575
232	0x3f05ce6b	0.52268094
233	0xbe995ad0	-0.29952097
234	0x3bbe7d3b	0.0058132685
235	0xc0a82d5e	-5.255538
236	0xbf2b6511	-0.6695109
237	0xbfd81df4	-1.6884141
238	0xbf99bc43	-1.2010578
239	0x400d4e19	2.2078917
240	0xbfea60ae	-1.8310754
241	0x405d676e	3.4594378
242	0xbe7de930	-0.24795985
243	0xc0184249	-2.3790457
244	0xc0069345	-2.1027386
245	0x40321d32	2.783032
246	0xbeba94f2	-0.3644176
247	0x3efce708	0.49395013
248	0xbec21480	-0.37906265
249	0xc032bfaa	-2.7929482
250	0xbf97ad9a	-1.1849854
251	0xbc527d30	-0.01284723
252	0xc002e44a	-2.0451837
253	0xc05af037	-3.4209116
254	0x4029e179	2.6543868
255	0xbff425ed	-1.9074074

fc2.weight f4 [256, 256]
0	0xbc217c2f	-0.009856268
1	0xbf4a943d	-0.79132444
2	0x3d064768	0.032782942
3	0x3d394cf0	0.04523939
4	0xbf59310e	-0.84840477
5	0x3cf83493	0.030298507
6	0x3ebf51d0	0.37367105
7	0xbd5716e2	-0.052512057
8	0x3e1bd92c	0.15219563
9	0x3ebb6852	0.36603028
10	0xc13b5327	-11.707801
11	0x3e596f2c	0.21233815
12	0x3f03f888	0.51551104
13	0x3c9a5a5f	0.01884192
14	0x3e7852fc	0.24250406
15	0xbd8ec863	-0.069718145
16	0x3e82ce1d	0.25547877
17	0x3e34f25a	0.17670575
18	0xbd6eed93	-0.058332037
19	0xbcd2ae36	-0.025717836
20	0xbe8c7e65	-0.2744018
21	0x3e3dd985	0.18540008
22	0xbe648b71	-0.22318818
23	0xbd0c4933	-0.034249496
24	0x3dcc4f4e	0.09976064
25	0xbc954a63	-0.018223947
26	0xbd46a3c0	-0.048496008
27	0xbe01e37c	-0.12684435
28	0xbed25d26	-0.41086692
29	0xbd3be626	-0.045873784
30	0xbd950455	-0.07276217
31	0xbeed5ebc	-0.4636134
32	0x3d9ab4db	0.07554027
33	0x3db20b0c	0.08693513
34	0x3c4c934a	0.012486288
35	0xbe1cc143	-0.15308098
36	0xbce2d962	-0.027691547
37	0xbd9a9403	-0.07547762
38	0xbd40cb02	-0.047068603
39	0x3f156a83	0.5836565
40	0xbe96f587	-0.29484197
41	0xbd6669e6	-0.056253336
42	0xbcf32b56	-0.02968375
43	0x3f911657	1.1334943
44	0x3d75426c	0.059877798
45	0xbf87e5c4	-1.0616994
46	0x3b1310a4	0.0022440339
47	0xbe5c719b	-0.21527712
48	0xbfc0bba8	-1.5057268
49	0xbcdfe3ec	-0.027330361
50	0xbfc1a7f2	-1.5129378
51	0xbc995fbd	-0.01872241
52	0x3b7994a7	0.0038082988
53	0xbe2a3939	-0.16623391
54	0xbdf6ae08	-0.120449126
55	0x3e5bf8d1	0.21481635
56	0xbd6b420b	-0.05743603
57	0xbe8df039	-0.27722338
58	0x3d1bd735	0.038047034
59	0x3e4fd92e	0.20297691
60	0x3e4e97dd	0.20175119
61	0x3e3a4f7c	0.18194383
62	0x3ea84990	0.32868624
63	0xbe8963d1	-0.26833966
64	0xbd1f7c74	-0.038937047
65	0xbe68416b	-0.22681205
66	0x3e4712fd	0.19440837
67	0x3e352f4a	0.1769382
68	0x3f043c4f	0.51654524
69	0xbe3dfbad	-0.18553038
70	0xbbd9f70f	-0.006651766
71	0xbfa0d216	-1.2564113
72	0xbe3fd3a8	-0.18733084
73	0x3f3f9b2c	0.7484615
74	0x3ec5bdb1	0.38621286
75	0x3cb46f3e	0.0220257
76	0xbce956e0	-0.028483808
77	0xbe06ce6f	-0.13164686
78	0xbe505de4	-0.20348316
79	0x3e397565	0.18111189
80	0xbf050b1f	-0.51970094
81	0x3b07328a	0.002062949
82	0xbd1c5491	-0.038166586
83	0x3dac2e6e	0.08407293
84	0x3d663e2b	0.05621163
85	0xbe835c39	-0.25656298
86	0xbe59ad71	-0.21257569
87	0xbe06871a	-0.13137475
88	0xbd84689e	-0.06465267
89	0x3e1c2cfb	0.15251534
90	0x3edc89fc	0.43074024
91	0x3d9c3aa4	0.07628372
92	0xbdfb3e0a	-0.122676924
93	0x3f5f1d16	0.87153757
94	0x3e8d8475	0.2764012
95	0x3e899310	0.26870012
96	0xbc4b61a4	-0.012413416
97	0xbedf4724	-0.43608963
98	0x3e7c70d2	0.24652413
99	0xbdbbb836	-0.09165995
100	0x3d41af9f	0.047286626
101	0x3ee00b15	0.43758455
102	0xbe0cf078	-0.13763607
103	0x3cef5c68	0.029218867
104	0x3d197994	0.03746946
105	0x3e406941	0.18790151
106	0xbd8dc725	-0.069227494
107	0xbd52faf0	-0.051508844
108	0xbf71d522	-0.9446584
109	0xbd7a19fa	-0.06105993
110	0x3dd24897	0.10267752
111	0x3eae22b8	0.34010863
112	0x3e76e61f	0.24111222
113	0xbbfa1482	-0.0076318393
114	0xbcc3caa2	-0.023900334
115	0xbd7615f4	-0.06007953
116	0x3c29a0df	0.010353296
117	0xbc0680b3	-0.008209395
118	0x3f131f06	0.57469213
119	0xbd901628	-0.07035476
120	0x3de058a0	0.10954404
121	0xbc881495	-0.016611377
122	0xbe085655	-0.13314183
123	0x3c1497f0	0.009069428
124	0x3da924b1	0.082589515
125	0x3cb798ba	0.022411693
126	0x3c7b6bcb	0.015345524
127	0xbde10b85	-0.10988525
128	0xbd67887a	-0.05652664
129	0xbdfd8782	-0.12379362
130	0x3e667839	0.22506799
131	0xbe91773b	-0.28411278
132	0x3e544b87	0.20731936
133	0x3dbad417	0.09122484
134	0xbcb56d3a	-0.02214681
135	0x3cd2fb80	0.02575469
136	0x3e07ddc8	0.13268197
137	0x3db73df1	0.08947361
138	0x3ce905ff	0.028445242
139	0xbd83179f	-0.0640099
140	0xbd0a7211	-0.03380019
141	0x3c26855e	0.010163633
142	0x3dd5b4df	0.10434889
143	0x3f15f246	0.58572805
144	0xbdb49bf0	-0.08818805
145	0xbe94f372	-0.29091984
146	0xbe5d1d2e	-0.21593162
147	0x3da7ea79	0.08199019
148	0xbdc2dc86	-0.09514718
149	0xbf35cc31	-0.71014696
150	0xbdb98616	-0.09058778
151	0x3dfab0a8	0.12240726
152	0xbe3ba64e	-0.18325159
153	0xbe34b337	-0.1764649
154	0x3e2e6918	0.17032278
155	0x3d98b866	0.07457046
156	0x3d6ebc48	0.058285028
157	0x3d5c9f4a	0.053862847
158	0x3e2b5709	0.1673242
159	0xbec69ad6	-0.38790005
160	0x3ead9e40	0.33909798
161	0xbde49b61	-0.11162449
162	0x3cb3018f	0.02185133
163	0xbf2a7c37	-0.66595787
164	0x3e068401	0.13136293
165	0xbebe1927	-0.37128565
166	0xbcf5c8d5	-0.03000299
167	0x3d255578	0.040364712
168	0xbe8ef082	-0.27917868
169	0x3bdf8dee	0.0068223393
170	0x3dbc69cb	0.09199866
171	0xbd558cb6	-0.052136146
172	0xbe925a10	-0.28584337
173	0xbd80b583	-0.062846206
174	0x3f8b9524	1.0904889
175	0xbcc1b8a5	-0.023647616
176	0xbd653bd6	-0.055965267
177	0xbc89867c	-0.01678776
178	0xbe764a99	-0.24051894
179	0xbd81bbc2	-0.0633464
180	0x3e7a7d44	0.24461848
181	0x3f646ed2	0.892316
182	0x3d2b3732	0.041800685
183	0xbc1d6f1a	-0.009609008
184	0xbd77d13e	-0.060502283
185	0xbd96fbb4	-0.07372227
186	0xbe846d10	-0.25864458
187	0xbd88838c	-0.066657156
188	0xc082f066	-4.0918455
189	0x3e0b5269	0.13605656
190	0xbeb306a6	-0.3496601
191	0x3ab2d1f5	0.0013642894
192	0x3e1cd6d5	0.15316327
193	0xbdeb05cb	-0.11475714
194	0xbd9627cd	-0.0733181
195	0xbd5f8904	-0.054574028
196	0x3e25d5c6	0.1619483
197	0xbdca765d	-0.09885857
198	0xbf511280	-0.81668854
199	0xbf2c083b	-0.6720006
200	0xbdc51f4d	-0.09625111
201	0xbcc24c2f	-0.023717968
202	0x3d862a48	0.06551033
203	0xbe096adf	-0.13419674
204	0xc0a8b0d9	-5.271588
205	0xbeaab895	-0.3334395
206	0x3e4d8626	0.20070705
207	0xbd842886	-0.06453042
208	0x3e323e86	0.17406663
209	0xbd8167a6	-0.063185975
210	0x3ecf960c	0.40544164
211	0xbe734a6f	-0.23758863
212	0xbda0fa47	-0.078602366
213	0xbd4b6577	-0.04965731
214	0x3ddeb87a	0.1087503
215	0xbcf1b2fa	-0.029504288
216	0xbdb92515	-0.09040276
217	0xbd4db993	-0.050225805
218	0xbd6eb49a	-0.058277704
219	0xbd819fc4	-0.06329301
220	0xbd599d8f	-0.053128775
221	0x3d6be837	0.057594504
222	0xbd2befcc	-0.041976735
223	0x3ff9695e	1.948528
224	0x3eb92f03	0.3616868
225	0xbd4e267e	-0.050329678
226	0xbd5304af	-0.05151814
227	0xbf2cbc1c	-0.6747453
228	0x3d422713	0.047400545
229	0xbd500798	-0.050788492
230	0x3d31d823	0.043419015
231	0xbe14f836	-0.1454781
232	0x3d4e0b7f	0.050303932
233	0x3d07a01a	0.03311167
234	0x3afb98e3	0.0019195344
235	0xbd428216	-0.04748734
236	0xbf1a1548	-0.6018872
237	0x3dacf79c	0.08445665
238	0x3dc9c331	0.09851683
239	0xbeea03f5	-0.45706144
240	0x3de4fab9	0.11180634
241	0xbe6dec67	-0.23234712
242	0x3dc39f08	0.09551817
243	0xbe1c4529	-0.15260758
244	0xbd1c5509	-0.038167033
245	0x3de2ea28	0.11079818
246	0xbd0c8116	-0.034302793
247	0x3c04921d	0.008091477
248	0x3d37ba87	0.04485562
249	0xbe89d181	-0.2691765
250	0xbd10363a	-0.035207964
251	0x3d67c627	0.056585457
252	0xbe815e7f	-0.25267407
253	0xbc9e7093	-0.019340789
254	0xbe4e5a23	-0.20151572
255	0xbd49954d	-0.04921465

fc2.bias f4 [256]
0	0x3f254fbd	0.64574796
1	0xbda985d6	-0.0827748
2	0xbf42425e	-0.7588252
3	0xbd753151	-0.059861485
4	0xbf349372	-0.70537484
5	0x3f841798	1.03197
6	0x3c48597b	0.012228365
7	0xc006e3f8	-2.107664
8	0xbd60aa0c	-0.05484967
9	0xbdd399b8	-0.10332054
10	0xbc8263e7	-0.015916778
11	0xbdbf85f8	-0.093517244
12	0xbd419994	-0.047265604
13	0xbfd1c275	-1.6387469
14	0xbe9a24d0	-0.3010621
15	0xbd401618	-0.04689607
16	0xbdc41cbe	-0.09575795
17	0xbcd94658	-0.0265228
18	0xbda4cca3	-0.08046844
19	0xbd89dc1c	-0.06731436
20	0xbd2a101a	-0.041519262
21	0xbc778159	-0.0151065225
22	0xbfab6cbf	-1.3392562
23	0x3f9fdc24	1.2489057
24	0x3f910125	1.1328474
25	0xc044687c	-3.0688772
26	0x409358c2	4.6045847
27	0xbf741e8d	-0.95359117
28	0xbd9764a2	-0.07392241
29	0xbdda1ae4	-0.1064966
30	0xbcc94c5e	-0.024572548
31	0xc01f18d4	-2.4858904
32	0xbffb8272	-1.9649184
33	0xbd9dcaca	-0.077046946
34	0xbec45b92	-0.38351113
35	0xbfd125fa	-1.6339715
36	0xbfaa6611	-1.3312398
37	0x401bf9bd	2.4371178
38	0x3bc84f5c	0.006112976
39	0xbde43aec	-0.11144051
40	0xbe3001da	-0.17188206
41	0xbd149e38	-0.0362837
42	0xbdac563f	-0.08414888
43	0xbbb5cc24	-0.005548017
44	0xbd2babd3	-0.04191191
45	0x3fbb2d87	1.4623269
46	0xbc7a5e9c	-0.015281346
47	0xbb1a5689	-0.0023550114
48	0xc051be0e	-3.277225
49	0xbfee1576	-1.8600299
50	0xbd93043f	-0.07178544
51	0xbe9d9f48	-0.30785584
52	0x3fa2b05b	1.271007
53	0xbd3b86c0	-0.045782804
54	0xbd886a43	-0.06660893
55	0x3fb52e9e	1.4154851
56	0xbda5b704	-0.08091548
57	0xbdb30957	-0.08742016
58	0x3e0ae95a	0.13565579
59	0xbf83c83d	-1.0295483
60	0xbcb4005d	-0.02197283
61	0x3f76d30e	0.96415794
62	0xc00c0635	-2.1878788
63	0xbe0cdeb3	-0.13756828
64	0xbd974e39	-0.07387967
65	0xbd52140d	-0.051288653
66	0xbd7e6660	-0.06210935
67	0xbd048761	-0.03235567
68	0xbd79a5a5	-0.060948987
69	0x3c0ec9a7	0.00871507
70	0x3eb9fab4	0.36324084
71	0xbd2bbef9	-0.041930173
72	0xbcc2115f	-0.023689924
73	0xbd8a283d	-0.06745956
74	0x3fe11cad	1.7586876
75	0x3ce9773a	0.028499234
76	0xbd2e0deb	-0.042493742
77	0xbcc59e37	-0.024123294
78	0xbd319d43	-0.043362867
79	0xbcc42ea8	-0.023948029
80	0xbfe5d35a	-1.7955124
81	0xc03603c6	-2.8439803
82	0xc0455d9c	-3.0838385
83	0xbdc38ae4	-0.09547976
84	0xbce85c97	-0.028364463
85	0xbd8cd61c	-0.068767756
86	0xbdbe0df8	-0.09280008
87	0xbdd1a7f7	-0.10237115
88	0xbfd7ac32	-1.6849425
89	0xbdaf29a9	-0.08552868
90	0x3b7d14fc	0.0038617244
91	0xbf2f425e	-0.68460643
92	0xbbe5f7e2	-0.0070180753
93	0xbcc64895	-0.024204532
94	0xbd315470	-0.043293417
95	0x3cb7250a	0.022356529
96	0xbbdafe9f	-0.006683185
97	0x3d0dcdd2	0.034620114
98	0xbd80af40	-0.06283426
99	0xbc176f2e	-0.009242816
100	0x3f888e85	1.0668494
101	0x3f02d6a4	0.51108766
102	0x404d1727	3.204538
103	0x40a91afd	5.2845445
104	0xbf8d7265	-1.1050535
105	0xbcc3dbc7	-0.023908509
106	0xc0065bf9	-2.0993636
107	0xbf1240df	-0.57130235
108	0xbd80b326	-0.0628417
109	0x3fbc9a1a	1.4734528
110	0xc0908450	-4.5161514
111	0xbc131f83	-0.008979681
112	0x3e8171f2	0.25282246
113	0xbc96e9c6	-0.018422019
114	0xbf96468e	-1.1740282
115	0x3f99cc66	1.2015502
116	0x3e9a791c	0.30170524
117	0xbfd753f8	-1.68225
118	0x3f95198a	1.1648419
119	0xbdb38a65	-0.08766631
120	0xbd8729d6	-0.065997764
121	0xbf329a58	-0.6976676
122	0xbda9cab9	-0.082906194
123	0xbca1b5ad	-0.01973995
124	0xbd38fa83	-0.04516078
125	0x3e8314ae	0.25601715
126	0x3c14e3c7	0.0090875095
127	0xbdd4d0d3	-0.103913926
128	0xbd9ba549	-0.07599885
129	0xbf241645	-0.6409648
130	0xc0468377	-3.101774
131	0xbc5f3e0e	-0.013625635
132	0x3f240f28	0.64085627
133	0xbdc23891	-0.094834454
134	0x3cda804d	0.026672507
135	0xbfb96148	-1.4482813
136	0x3f844b8b	1.0335554
137	0x3f13c302	0.57719433
138	0xbc9fa3fd	-0.019487375
139	0x3d83b0bb	0.06430193
140	0xbfd4b05a	-1.6616318
141	0x3d2ac7f7	0.041694608
142	0xbcc17cbd	-0.02361905
143	0x4008446a	2.1291757
144	0x3fea2bdd	1.8294636
145	0xbe426ca7	-0.1898676
146	0x3c423186	0.011852628
147	0xbdb03cda	-0.086053565
148	0xbd91d573	-0.0712079
149	0xbfb7f26c	-1.4370856
150	0xbddcf753	-0.10789361
151	0xbdeb0aaa	-0.114766434
152	0xbdaffffc	-0.08593747
153	0xbd963b76	-0.0733556
154	0xc059ad1a	-3.4011903
155	0x3cc1338e	0.023584154
156	0xbe2f1461	-0.17097618
157	0xbec2c61a	-0.38041764
158	0x3aebf1d5	0.0018001149
159	0xbc36c4b1	-0.011155293
160	0x3ed702e8	0.41994405
161	0xba056c3f	-0.0005089677
162	0x3be69472	0.007036739
163	0xbd063d31	-0.0327732
164	0xbf11d06d	-0.5695866
165	0xbfdd9ea6	-1.7314041
166	0x4008e7e1	2.1391528
167	0xbc75f530	-0.015012071
168	0xbd2536b0	-0.040335357
169	0xbf986988	-1.1907206
170	0xbd8c611a	-0.06854458
171	0xbf63f3cd	-0.89043885
172	0xbd5e9373	-0.054339837
173	0xbc8fae31	-0.017539116
174	0x3ce9dd96	0.028548043
175	0xbdb94812	-0.090469494
176	0xbd8c9e22	-0.06866099
177	0x407fdebe	3.99797
178	0xc01885e6	-2.3831725
179	0xbe56a58c	-0.20961589
180	0xbf8991ef	-1.074766
181	0xbf281676	-0.6565927
182	0xbd57aba2	-0.052653916
183	0xbfb9348b	-1.446916
184	0x3c79fe77	0.015258423
185	0xbdbe4859	-0.09291143
186	0xbd593c28	-0.053035885
187	0xbddc4999	-0.10756225
188	0x3e29fce9	0.16600384
189	0x4014fee5	2.3280575
190	0xbdc867b6	-0.09785406
191	0xbe37bcbb	-0.17943089
192	0xbeb7cf70	-0.3590045
193	0xbdd6c575	-0.10486881
194	0xbd90e7c1	-0.070754535
195	0x3eb38cf2	0.3506847
196	0x3f8c2c80	1.095108
197	0xbd8653d8	-0.06558961
198	0xbfca9548	-1.5826807
199	0xbae760ed	-0.0017652788
200	0xbd5bcbfa	-0.053661324
201	0xbee840a8	-0.4536183
202	0xbd7e1941	-0.062035803
203	0xbc5a1c99	-0.013312482
204	0x3d12d33d	0.035845984
205	0xbdde2ab9	-0.108479924
206	0xbd44780b	-0.047966044
207	0xbd987837	-0.07444804
208	0xbda26f6c	-0.07931408
209	0xbd4e11d4	-0.05030997
210	0xbd154dd4	-0.036451176
211	0xbd09e2dd	-0.03366362
212	0xc00c9189	-2.1963828
213	0xbd8e808a	-0.06958111
214	0x3f6bc552	0.9209796
215	0x3e701069	0.2344376
216	0xbfd9ec1d	-1.7025181
217	0xbd163f81	-0.036681656
218	0xbf82ffe6	-1.0234344
219	0xbd353bbe	-0.044246428
220	0xbdfafe61	-0.1225555
221	0xbdb902dc	-0.090337485
222	0xbd11c829	-0.03559128
223	0x3fa86506	1.315583
224	0x3de16e75	0.11007396
225	0xbdd6819e	-0.10473941
226	0xbc71829e	-0.014740614
227	0xbfc481f6	-1.5352161
228	0xbe161fae	-0.14660522
229	0xbd566f09	-0.052351985
230	0xbe54a45e	-0.20765826
231	0xbdcfc5ed	-0.10145173
232	0xbcdc47c9	-0.026889699
233	0xbda70091	-0.08154405
234	0xbdba1227	-0.090854935
235	0x3b510a32	0.0031896946
236	0xbe871af4	-0.2638775
237	0x3eb3082e	0.34967178
238	0xbd6893b3	-0.056781482
239	0xbcde390c	-0.027126811
240	0xc00c8080	-2.195343
241	0xbe0e3071	-0.13885666
242	0xbdb08d47	-0.086206965
243	0xbdac67f8	-0.08418268
244	0x4029b572	2.6516995
245	0x3ea6f315	0.32607332
246	0xbd9ed500	-0.0775547
247	0xbd9fd60e	-0.078044996
248	0xbd3cdad5	-0.046107132
249	0x400b61c9	2.1778433
250	0xbfe15d4c	-1.7606597
251	0xbefe0012	-0.4960943
252	0xbdbc21b7	-0.09186118
253	0x40181a4d	2.3766053
254	0xbd3b7a4e	-0.045770936
255	0xbd9fbd8f	-0.07799827

fc3.weight f4 [162, 256]
0	0xbe923dce	-0.28562778
1	0xbd9f6c43	-0.07784321
2	0xbf8344b0	-1.0255337
3	0x3daeb2e2	0.08530213
4	0xbf09e692	-0.5386745
5	0xbd1a1b1c	-0.03762351
6	0xbdcd2617	-0.10017031
7	0xbdda6a33	-0.10664787
8	0xbd9170fa	-0.07101627
9	0xbe375113	-0.17902021
10	0xbc641a83	-0.0139223365
11	0xbc3faa3c	-0.011698302
12	0x3f109559	0.56477886
13	0xbe47bf3f	-0.19506548
14	0xbe45d0e4	-0.19317967
15	0x3d5beee5	0.053694624
16	0x3d168620	0.036749005
17	0x3aa1158c	0.0012289747
18	0x3cdf4a4f	0.027257113
19	0xbc6215bc	-0.013799127
20	0x3cd10107	0.025513185
21	0xbe184ec3	-0.14873795
22	0xc10b235d	-8.696134
23	0x3c899e32	0.016799066
24	0xbe1d9a67	-0.15390931
25	0x3e471bf7	0.19444261
26	0xbd1712fb	-0.036883336
27	0xc024bcaa	-2.5740151
28	0xbd71dfa0	-0.059051156
29	0x3cee97df	0.029125152
30	0xbd3806a6	-0.044928215
31	0xbddd67fe	-0.108108506
32	0x3e0b7324	0.13618141
33	0xbca679f3	-0.020321822
34	0xc07adb7b	-3.919646
35	0xc175dac8	-15.365913
36	0xbe77777a	-0.2416667
37	0xbd54a03c	-0.051910624
38	0xbc9d622b	-0.01921185
39	0xbd994295	-0.07483403
40	0x3d51df2c	0.051238224
41	0xbd4d6c2f	-0.050152
42	0xbcd29dd8	-0.025710031
43	0x3c9b8ffd	0.018989557
44	0xbcb7ba2c	-0.02242764
45	0xc1d1e7d1	-26.238192
46	0xbda5cd5e	-0.08095811
47	0x3d171506	0.036885284
48	0x3e070caa	0.13188425
49	0xbf45dfc7	-0.7729458
50	0xbc8454fe	-0.016153809
51	0xbdfd716a	-0.12375148
52	0xc153fd59	-13.249352
53	0xbcc92f38	-0.024558648
54	0x3a8348a8	0.001001616
55	0x3e860a0a	0.26179534
56	0xbbed1710	-0.0072354153
57	0xbe197288	-0.14985096
58	0x3e7cd3ba	0.24690142
59	0x3cd26ec9	0.025687592
60	0x3e3c73c9	0.18403544
61	0xbd689144	-0.05677916
62	0x3d65f494	0.05614145
63	0xbced3ede	-0.028960641
64	0xbd80f809	-0.06297309
65	0xbc441eb3	-0.01197021
66	0xbe3f17ad	-0.18661375
67	0xbd03d6b9	-0.032187197
68	0xbd20f20c	-0.039293334
69	0x3c867688	0.016413942
70	0xbcf6adff	-0.030112265
71	0xbc403735	-0.011731912
72	0xbd493645	-0.04912402
73	0x3b883abd	0.004157393
74	0xbec2b7f7	-0.3803098
75	0x3d59dd29	0.05318943
76	0xbd7217cc	-0.059104726
77	0xbd317038	-0.04331991
78	0xbd1a0d93	-0.0376106
79	0xbc873a43	-0.016507274
80	0xbf49a2b5	-0.78763896
81	0xbd6021d6	-0.05471977
82	0x3f68f218	0.90994406
83	0xbd97146f	-0.07376944
84	0x3bfea057	0.007770579
85	0x3d483286	0.048876308
86	0xbd02776b	-0.031852167
87	0xbdb83e69	-0.08996279
88	0xbf185783	-0.5950853
89	0xbd5c32b0	-0.053759277
90	0x3cac10e6	0.021004152
91	0x3c435e63	0.011924359
92	0x39812f03	0.00024639824
93	0x3c26895f	0.010164588
94	0xbd9bf211	-0.0761453
95	0xbc83370d	-0.016017461
96	0xbbe88faf	-0.0070972065
97	0xbd3ee2fe	-0.046603195
98	0xbdda8461	-0.106697805
99	0xbdbb80b2	-0.09155406
100	0x3e906958	0.2820537
101	0x3c200bf7	0.009768478
102	0x3a241517	0.0006259246
103	0xbd53bd0a	-0.051693954
104	0x3c3a38e2	0.011366101
105	0xbdab09b8	-0.08351463
106	0xbe325fd7	-0.17419372
107	0x3ba45a52	0.00501565
108	0x3d4d0881	0.050056938
109	0xbe0f1a1c	-0.13974804
110	0xc2267366	-41.612694
111	0xbd28ebde	-0.041240565
112	0xc2165936	-37.58712
113	0xbd8033cb	-0.06259879
114	0xbda27021	-0.07931543
115	0x3d6acd66	0.05732479
116	0xbebbfa8a	-0.36714584
117	0xbeb4f086	-0.35339755
118	0xc1960094	-18.750282
119	0xbdc678c4	-0.09691003
120	0xbd9cf11a	-0.07663174
121	0x3dc9c2c0	0.09851599
122	0xbc0b2a03	-0.008493903
123	0xbc86b1df	-0.016442237
124	0xbca39b74	-0.019971587
125	0xbd0a033c	-0.03369449
126	0x3d59b862	0.053154357
127	0xbe1838c9	-0.14865412
128	0xbcad00eb	-0.021118602
129	0xbd3f873c	-0.04675983
130	0xbc9853a7	-0.018594576
131	0x3c2928eb	0.010324697
132	0xc1d5ef10	-26.74173
133	0xbc06483c	-0.008195933
134	0xbd66d240	-0.056352854
135	0x3f529906	0.82264745
136	0xbe9c64b3	-0.30545577
137	0xbfa97eab	-1.3241781
138	0xbd4fd77d	-0.050742615
139	0xbe9bde5f	-0.30443093
140	0xbe10ecb1	-0.1415279
141	0xbddc19ab	-0.10747083
142	0xbd03ca8d	-0.03217559
143	0xbe93431c	-0.28762138
144	0x3d889291	0.0666858
145	0xbe82d09d	-0.25549784
146	0xbd9ddaec	-0.07707772
147	0x3d314055	0.043274242
148	0xbdc628d9	-0.0967576
149	0xbe2357be	-0.1595144
150	0xbbccdaa7	-0.0062516513
151	0xbc7435c0	-0.014905393
152	0xbb74264c	-0.0037254272
153	0x3d4e5773	0.050376367
154	0xc16b2f56	-14.699057
155	0x3c1e6b1b	0.009669091
156	0x3cb86ffb	0.022514334
157	0xbde23266	-0.11044769
158	0xbc973776	-0.018459063
159	0xbd74ad05	-0.059735317
160	0xbea36078	-0.31909537
161	0x3ac193cf	0.0014768782
162	0x3c496680	0.012292504
163	0xbcfc0eb5	-0.030768732
164	0xc1bfb30a	-23.962421
165	0x3e8e6a58	0.2781551
166	0x3f1ad9fb	0.6048886
167	0xbbd0f95d	-0.0063773827
168	0xbd92b957	-0.07164257
169	0xbee5e56b	-0.44901595
170	0x3d2ba6f3	0.041907262
171	0xc09f8c43	-4.985872
172	0xbc34602e	-0.011009259
173	0x3cefe1a1	0.029282393
174	0x3d3feed1	0.046858612
175	0xbdba27d9	-0.090896316
176	0xbcfc96e8	-0.030833676
177	0xbe4c7244	-0.19965464
178	0x3ee673b8	0.4501016
179	0x3d24f4df	0.04027259
180	0xc1880603	-17.002935
181	0xbef7457a	-0.48295194
182	0x3c359025	0.01108173
183	0xbe69ab3a	-0.22819224
184	0xbd1ff47b	-0.039051514
185	0xbc7755df	-0.015096157
186	0xbc369f48	-0.011146374
187	0xbb0542f6	-0.0020334101
188	0xbf38e6ab	-0.7222697
189	0x3e96541f	0.29361054
190	0xbd8a00c8	-0.0673843
191	0xbc4f3817	-0.01264765
192	0xc1a1634f	-20.17349
193	0xbda26c1a	-0.07930775
194	0x3cbca143	0.023026114
195	0xbf916330	-1.1358395
196	0xbe97c420	-0.2964182
197	0xbd2770ae	-0.040878944
198	0x3e293374	0.16523534
199	0x3ca05f16	0.01957659
200	0x3ca8c807	0.020603193
201	0xbeb5c133	-0.35498962
202	0x3d50e5bc	0.05100034
203	0x3c491b36	0.012274554
204	0xbd7cb93b	-0.061700087
205	0xbb95a1b7	-0.004566397
206	0x3cba058e	0.022707727
207	0xbdb09296	-0.08621709
208	0xbd8c7709	-0.06858642
209	0xbde5653a	-0.11200948
210	0xbd40aad7	-0.047037926
211	0xbc0ed5b8	-0.008717947
212	0xbf264975	-0.64955837
213	0x3cdf53c1	0.027261617
214	0xbd07e2ac	-0.033175156
215	0x3e101e21	0.14073993
216	0xbfc979e3	-1.5740322
217	0xbd2523fa	-0.040317513
218	0xbdb4708d	-0.0881053
219	0xbd600dba	-0.05470059
220	0xbc4b5464	-0.012410257
221	0x3c4b19a4	0.01239625
222	0x3d02e664	0.031958
223	0xc1a4ddab	-20.608236
224	0xbf2fbf77	-0.6865153
225	0xbd3db39c	-0.046313867
226	0x3d67906d	0.05653422
227	0xbe164199	-0.14673461
228	0xbe9d62c0	-0.30739403
229	0xbd957171	-0.07297028
230	0xbd486247	-0.04892185
231	0xbd82e878	-0.06391996
232	0xbd8d6dfb	-0.06905743
233	0xbd88a56f	-0.06672179
234	0xc11ca45c	-9.790127
235	0xbdf3ce53	-0.119045876
236	0xbeac5e93	-0.33665904
237	0xbdd3a760	-0.103346586
238	0xbcb477ef	-0.022029845
239	0xbada951a	-0.0016676516
240	0xbf11135e	-0.56670177
241	0xbeb6ef6f	-0.35729548
242	0xbcb090ef	-0.021553485
243	0xbd9e5601	-0.07731248
244	0xbdba14eb	-0.09086021
245	0x3e0fbd2b	0.14037006
246	0x3b4d1582	0.0031293337
247	0xbdd0d3d1	-0.10196651
248	0xbc491952	-0.012274103
249	0x3d9c0041	0.07617236
250	0xbe530236	-0.20606312
251	0x3d3ae8ee	0.045632295
252	0xbdc96642	-0.09833957
253	0xbf373d25	-0.71577674
254	0x3d06a780	0.032874584
255	0x3d1bdcf8	0.03805253

fc3.bias f4 [162]
0	0xbe6a2dfc	-0.22869104
1	0xc0b3e46b	-5.621633
2	0xc011974a	-2.274859
3	0xc003b549	-2.0579398
4	0xc0cd9f52	-6.4256983
5	0xc13a92df	-11.660857
6	0xc046e66c	-3.1078138
7	0xc0a08a7e	-5.016906
8	0xc001368c	-2.0189543
9	0xc0745233	-3.817517
10	0xbf9c1be0	-1.2196007
11	0xc00f310f	-2.2373693
12	0xc0bcb0fe	-5.8966055
13	0xc096090f	-4.688606
14	0xbfe121b7	-1.7588414
15	0xc0aca7dc	-5.3954906
16	0xc0f27f71	-7.578057
17	0xc0dd814e	-6.9220343
18	0xc07e59ed	-3.9742386
19	0xc0dea4c6	-6.957614
20	0xc04ae404	-3.170167
21	0xbfff8aa6	-1.9964187
22	0xc103ffba	-8.249933
23	0xc10dec60	-8.870209
24	0xbff54055	-1.9160258
25	0xbfc9ac5f	-1.5755728
26	0xbf9be198	-1.2178221
27	0xbfcae1e2	-1.5850184
28	0xbe40822e	-0.1879966
29	0xc087ec27	-4.247577
30	0xc0d16abe	-6.54428
31	0xc076c963	-3.8560417
32	0xc065acf2	-3.5886807
33	0xc041a886	-3.0259109
34	0xc0dd9fa0	-6.9257355
35	0xc081cf6d	-4.0565705
36	0x3edc85df	0.43070886
37	0xbf53d69e	-0.82749355
38	0xc02607fb	-2.594237
39	0xbf9f3352	-1.2437537
40	0xc082de84	-4.0896626
41	0xbdd0092f	-0.10158002
42	0xc09ed05b	-4.962934
43	0xc0926b0e	-4.575568
44	0xbfe5c94c	-1.7952056
45	0xbff92f3f	-1.9467543
46	0xbb78ae9c	-0.0037945872
47	0xbee4f0be	-0.44714922
48	0xc0d45a6e	-6.636039
49	0xc0992981	-4.7863164
50	0xc05cd0bd	-3.4502404
51	0xc1404ac2	-12.018251
52	0xc05782ab	-3.3673503
53	0xc03de9f9	-2.9674056
54	0x4015d1fe	2.340942
55	0xbf01d44d	-0.5071457
56	0x3e73306c	0.2374894
57	0x3cc62f67	0.024192525
58	0xbfaa6f6d	-1.3315254
59	0xbea96df2	-0.33091694
60	0x3864dd9f	5.4565837e-05
61	0xc01e1438	-2.469984
62	0x3f8169ef	1.0110453
63	0xbe5e52dd	-0.21711297
64	0xbf263db6	-0.64937913
65	0xbf9fd35d	-1.2486378
66	0xbfc74130	-1.5566769
67	0xbf4c3b75	-0.79778224
68	0xbf3319a4	-0.69961
69	0xbf800b3a	-1.0003426
70	0xc03132a9	-2.768717
71	0xbf610318	-0.87895346
72	0xbdc1d6e1	-0.09464813
73	0xbf326360	-0.69682884
74	0x3e81d078	0.25354362
75	0x3fcd6243	1.6045612
76	0xbf94c74e	-1.1623323
77	0x3c3e8aa8	0.011629738
78	0x3fe9ca73	1.8264908
79	0xbee7a2ca	-0.45241386
80	0x3f92f1f9	1.1480094
81	0x3f75da14	0.96035886
82	0xbf29892f	-0.6622495
83	0x3f4e105e	0.80493724
84	0xbf2c8356	-0.673879
85	0xbfdd835c	-1.7305713
86	0xbebfb997	-0.3744628
87	0xbfaef9df	-1.3670005
88	0xbf92b545	-1.1461569
89	0xbfda4499	-1.7052184
90	0x4003fb78	2.0622234
91	0xbc9e959f	-0.019358454
92	0x401d143c	2.45436
93	0x3fd25755	1.6432902
94	0x3f2aedba	0.6676899
95	0x40020432	2.031506
96	0xbf536102	-0.825699
97	0xbfd098d3	-1.6296638
98	0xbf5f1ae8	-0.8715043
99	0xbeddd227	-0.43324396
100	0xc0180252	-2.3751416
101	0xbe9b146a	-0.30289012
102	0xc0995584	-4.791689
103	0xc0aaa164	-5.332201
104	0xbf8d7f69	-1.1054507
105	0xbfcb0641	-1.5861284
106	0xc081f8c4	-4.061617
107	0xc001a80f	-2.0258825
108	0xbfd16377	-1.6358479
109	0xc0982276	-4.7542067
110	0x3f268e06	0.6506046
111	0x3f39423d	0.72366697
112	0xbf4758bc	-0.7786977
113	0x3fa3454d	1.2755524
114	0xbee60257	-0.4492366
115	0x3f8b63a8	1.0889788
116	0x3f4e7a48	0.80655336
117	0x3ee73ff5	0.45165983
118	0x3fb4a7b3	1.4113678
119	0x3fc282e2	1.5196192
120	0xc073aba2	-3.8073506
121	0xc09398ed	-4.6124177
122	0xbfb8e74a	-1.4445584
123	0xc0198b8c	-2.3991423
124	0xbeee1a1c	-0.46504295
125	0x3f84ab8c	1.0364852
126	0xbf2a3feb	-0.6650378
127	0xc023e333	-2.5607421
128	0x3d094eba	0.033522345
129	0x3fdfd04e	1.7485445
130	0x3f8ea16f	1.1143016
131	0x403f55db	2.9896152
132	0xbf84b030	-1.0366268
133	0x3fd7f51d	1.6871678
134	0x3fa586a4	1.2931714
135	0x3e2b0202	0.16699985
136	0x3faa1791	1.3288442
137	0x3feff6df	1.8747214
138	0xc021f6e1	-2.5306933
139	0xc08da334	-4.4261723
140	0xbee655a1	-0.44987205
141	0xbf196eb9	-0.59934574
142	0x3ed461f8	0.41480994
143	0x402d6a28	2.7096043
144	0xc02111a6	-2.5167022
145	0xbff54fc7	-1.9164971
146	0x400092ac	2.0089521
147	0x3ffddf8e	1.9833848
148	0x40397e35	2.898328
149	0x4046e4f1	3.1077235
150	0xc025c2cb	-2.5900142
151	0xc053cd82	-3.3094182
152	0x3edbb84c	0.42914045
153	0x3f40a2ee	0.7524861
154	0x3fa0ff69	1.2577945
155	0x3fee4e9c	1.861774
156	0xc15bbabd	-13.73309
157	0xc067349b	-3.6125858
158	0xc066f6e8	-3.60882
159	0xbfa50359	-1.2891647
160	0xbfff5f7e	-1.9951017
161	0xbe338b69	-0.1753365
