models/generator.pth (torch, 328348 bytes, 6 tensors)

fc1.weight f4 [256, 36]
0	0x41dff008	27.992203
1	0xbfbec480	-1.4903717
2	0x3df4c3ad	0.11951385
3	0xbb01472f	-0.0019726267
4	0x3db2677a	0.08711143
5	0x3d9788e2	0.07399155
6	0xbe862e3a	-0.26207143
7	0xbfd3f46f	-1.655897
8	0xbfa87136	-1.3159549
9	0x401c985c	2.4467993
10	0x3f749c7a	0.95551264
11	0xbe06ceae	-0.1316478
12	0x3ce2549c	0.027628236
13	0x3dad083b	0.084488355
14	0xbe634cef	-0.22197317
15	0x406e1b7c	3.7204275
16	0xbf2bf97a	-0.67177546
17	0x3f846540	1.0343399
18	0x3fa23f70	1.267561
19	0xbde36100	-0.11102486
20	0x3db0c54a	0.0863138
21	0x3d57b29d	0.052660573
22	0xbe3c37d2	-0.18380669
23	0x409f0895	4.9697976
24	0xbf97afd9	-1.185054
25	0x3fb17266	1.3863037
26	0x3f855e9c	1.0419497
27	0x3df45c76	0.11931698
28	0x3d42fd0c	0.047604606
29	0x3d04f009	0.032455478
30	0xbda65d2a	-0.081232384
31	0x40f7b41a	7.740735
32	0xc0012c67	-2.018335
33	0x40821885	4.065493
34	0x3f920fee	1.1411111
35	0xbd5805cc	-0.052739903
36	0x41b496de	22.573666
37	0x3fa55cb5	1.2918917
38	0xbe239d91	-0.15978076
39	0xc03d3334	-2.9562502
40	0xbf7deeaf	-0.9919233
41	0x3f1987ca	0.5997282
42	0x3f0ab2c7	0.5417904
43	0x41918f25	18.194895
44	0xc0e418d4	-7.128031
45	0x401edda9	2.482279
46	0x400695c2	2.1028905
47	0xbe25870b	-0.16164796
48	0xbfb01c27	-1.3758591
49	0x3f200ddf	0.62521166
50	0x3e7e1d5b	0.24815886
51	0x3da5b8e3	0.08091905
52	0xc0bb6013	-5.855478
53	0x3f804ed5	1.0024058
54	0x40059083	2.0869453
55	0x3db2a75e	0.08723329
56	0xbebc728d	-0.36806145
57	0x3e53fb9d	0.20701452
58	0x3f1c7362	0.6111356
59	0x40edabc1	7.427216
60	0xc01ca2aa	-2.4474282
61	0xbe90a94b	-0.2825416
62	0x3ffd205e	1.9775503
63	0x38dc6800	0.00010509789
64	0xbf6f6cab	-0.9352519
65	0x3e67e485	0.22645767
66	0x3f1a1084	0.6018145
67	0x41538fc1	13.222596
68	0xbfe6f1a7	-1.8042496
69	0xbfbf071e	-1.4924047
70	0x400acca0	2.1687393
71	0xbaeca600	-0.0018054843
72	0xc19f0a32	-19.879978
73	0xbf30531e	-0.68876827
74	0x3fb4cab9	1.4124366
75	0xbebe62a9	-0.37184647
76	0x3ed80035	0.42187658
77	0x3d8ccc19	0.06874866
78	0xbeb9942a	-0.36245853
79	0xc1837b3e	-16.435177
80	0x3f26dbbd	0.65179044
81	0xbd6be6e3	-0.057593238
82	0x3feef740	1.8669205
83	0x3d94f54e	0.07273351
84	0x3f5220ba	0.82081187
85	0x3f202a1a	0.6256424
86	0x3e46faec	0.19431657
87	0xc067e06f	-3.6230733
88	0xbedfa32b	-0.43679175
89	0xbf53774b	-0.826039
90	0x3feedcd1	1.8661138
91	0x3e06bedd	0.13158746
92	0xc00a9383	-2.1652534
93	0xbeedcff9	-0.46447733
94	0xbf1ab89a	-0.6043793
95	0x40255028	2.5830173
96	0x3f79d8b8	0.9759631
97	0x4016f3e5	2.3586361
98	0x40073667	2.1126955
99	0x3d1d3f6c	0.038390562
100	0xbb64be0a	-0.0034903311
101	0xbf8bc249	-1.0918666
102	0xbcb96576	-0.022631388
103	0xc0726a34	-3.7877321
104	0x400aa0b8	2.1660595
105	0x3f7b565a	0.9817864
106	0x3ff9fd76	1.9530475
107	0x3db281da	0.087161735
108	0xbe38ed27	-0.18059216
109	0xc083a64c	-4.11405
110	0xc08f03a6	-4.4691954
111	0xc08262c2	-4.0745554
112	0xc09894cc	-4.7681637
113	0xc08caeef	-4.396354
114	0x3ea44db9	0.32090548
115	0xbde747f6	-0.11293022
116	0xc09416e2	-4.6277933
117	0xbfabe453	-1.3429054
118	0xc095bb01	-4.6790776
119	0x3ad7c580	0.0016462058
120	0xc081785d	-4.045943
121	0xc093ebd5	-4.622538
122	0xc054e2e6	-3.3263488
123	0xbdfe19e9	-0.12407286
124	0xc0942bb5	-4.6303353
125	0xbfbe4a29	-1.4866382
126	0xc0934e01	-4.603272
127	0xbd8d4cf0	-0.0689944
128	0xc09f41f8	-4.976803
129	0xc083a217	-4.1135364
130	0xc0920f92	-4.5644007
131	0xbdcad121	-0.099031694
132	0xc0973d20	-4.7262115
133	0xbfacab9d	-1.3489872
134	0xc08faede	-4.490096
135	0x3dac8da2	0.08425452
136	0xc0817be9	-4.0463758
137	0xc09c3bc0	-4.8822937
138	0xc0956729	-4.668843
139	0x3c749794	0.014928717
140	0xc096742d	-4.7016816
141	0xbfaef51f	-1.3668555
142	0xc094ec06	-4.6538115
143	0x3db518b2	0.08842601
144	0xc17a7b0d	-15.655042
145	0x3fef4d79	1.8695518
146	0xbe19be0a	-0.150139
147	0x3f9e9824	1.239018
148	0xbc83a0d7	-0.016067905
149	0xbbf0659e	-0.0073363325
150	0xbea487a8	-0.32134748
151	0xbf10c7cc	-0.56554866
152	0xbe200659	-0.15627421
153	0x3e6ef736	0.23336491
154	0xbfcd2e1a	-1.6029694
155	0xbd8e06f8	-0.06934923
156	0xbc118095	-0.008880754
157	0xbb59e132	-0.00332458
158	0xbe891f67	-0.2678177
159	0xbf387e7e	-0.7206801
160	0xbd32e2da	-0.043673374
161	0x3d0db593	0.03459699
162	0xbfe09861	-1.7546502
163	0xbc68fbf0	-0.014220223
164	0xbca8aa93	-0.020589149
165	0xbb8f7a96	-0.004378627
166	0xbe6e2e8a	-0.2325994
167	0xbe5820d9	-0.2110628
168	0xbcabcc51	-0.02097145
169	0x3dd02464	0.10163191
170	0xbfd0704c	-1.628427
171	0x3db781ea	0.08960326
172	0xbc67b720	-0.0141427815
173	0xbb94cec7	-0.0045412513
174	0xbe98df03	-0.29857644
175	0xbdc3150b	-0.09525498
176	0xbe517d36	-0.2045792
177	0x3ea775ae	0.3270697
178	0xbff523f7	-1.9151601
179	0x3e13a7a3	0.14419417
180	0x404afd81	3.1717227
181	0xc061b67a	-3.5267625
182	0xc02b87d5	-2.6801655
183	0xc02a6b6b	-2.6628063
184	0x3e2e2401	0.17005922
185	0xc0218d3a	-2.5242448
186	0xc033b40b	-2.807864
187	0xc0e3efea	-7.1230364
188	0xc0336d98	-2.803564
189	0xc082f267	-4.09209
190	0xc031141f	-2.766853
191	0xbe009ec0	-0.12560558
192	0x3e9c9f15	0.3059012
193	0xc008ea81	-2.139313
194	0xc03891c4	-2.8838968
195	0xc0e701c3	-7.218965
196	0xc030b995	-2.761327
197	0xc0784a73	-3.879544
198	0xc03b6c10	-2.9284706
199	0x3e1d3fd5	0.15356381
200	0xbfef97e7	-1.8718232
201	0xc0277a13	-2.6168258
202	0xc0156a64	-2.3346186
203	0xc0e8319e	-7.256057
204	0xc0315e84	-2.7713938
205	0xc080980f	-4.018562
206	0xc03d3de5	-2.9569027
207	0xbda6e3f3	-0.081489466
208	0x3f0c3769	0.5477205
209	0xc01dc3ce	-2.465076
210	0xc01781e9	-2.367304
211	0xc0e41d10	-7.1285477
212	0xc02dc463	-2.7151115
213	0xc075bea2	-3.8397603
214	0xc02b5097	-2.6767938
215	0xbdf7eabe	-0.121053204
216	0xbf227eb4	-0.63474584
217	0xbfa6d321	-1.3033181
218	0x3e902ebd	0.28160658
219	0x3f782315	0.9692853
220	0x3e99e6ce	0.30058903
221	0xbd6d506a	-0.057938017
222	0xbe343346	-0.17597684
223	0xbfa47344	-1.2847676
224	0xbef69da5	-0.48167148
225	0xbf6c207f	-0.92237085
226	0xbed3354d	-0.41251603
227	0xbd8e1926	-0.069383904
228	0x3e3673c3	0.17817597
229	0xbd096bc9	-0.033550058
230	0xbd5d88ca	-0.05408553
231	0x3e5bf2e0	0.21479368
232	0xbe3ecdc6	-0.18633184
233	0xbf463b15	-0.774339
234	0xbe98539f	-0.29751298
235	0xbdb85f53	-0.09002557
236	0x3e567b9f	0.20945595
237	0xbcdd582c	-0.027019583
238	0xbda1989e	-0.078904375
239	0xbfa744b0	-1.3067837
240	0xbebc0125	-0.36719623
241	0xbf1c5628	-0.61068964
242	0xbe76e30f	-0.24110053
243	0xbdd8121b	-0.10550328
244	0x3e93b68c	0.2885021
245	0xbd182a3f	-0.037149664
246	0xbe0bdb5e	-0.136579
247	0xbf44a1e5	-0.7680953
248	0xbe37336a	-0.17890707
249	0xc0049de9	-2.072138
250	0xbdbf32bb	-0.09335848
251	0xbdff59be	-0.12468289
252	0x3fc85cf6	1.565337
253	0x3c423105	0.0118525075
254	0x3f916bb1	1.136099
255	0x3f0b3dec	0.5439136

fc1.bias f4 [256]
0	0x3f80ed8a	1.0072491
1	0x3ff9b413	1.9508079
2	0x3fea4a84	1.830399
3	0xc08e65ef	-4.449943
4	0xbfda4f86	-1.7055519
5	0xc0296e5d	-2.647361
6	0xbea5bb20	-0.32369328
7	0x3fbf8a81	1.4964143
8	0xbfcba27c	-1.5908961
9	0xbfb397d7	-1.4030713
10	0xc09761ad	-4.7306733
11	0xc010aa9a	-2.2604127
12	0xbec6da8d	-0.38838616
13	0x4092c99f	4.587112
14	0xc012d394	-2.2941637
15	0xc0979cba	-4.7378817
16	0xbf5b1fec	-0.85595584
17	0x3dd7a1fc	0.10528943
18	0xc041060e	-3.0159945
19	0xbec52a7a	-0.3850897
20	0xbea71759	-0.32635
21	0x4017ce65	2.3719723
22	0xc068bd7a	-3.6365647
23	0xbf19084e	-0.59778297
24	0xbd3b338d	-0.04570346
25	0xc037f040	-2.8740387
26	0xbf8f3d39	-1.1190559
27	0xbe53c903	-0.20682149
28	0xbfac3258	-1.3452864
29	0x3f805253	1.0025123
30	0xc03cecb0	-2.9519463
31	0xc02071d6	-2.506948
32	0xc06e918f	-3.7276342
33	0xbfcfa2a1	-1.6221505
34	0xbfcb9cc9	-1.5907222
35	0xc03eccd0	-2.9812508
36	0xc0b506a4	-5.6570606
37	0xbedd4063	-0.43213186
38	0xc04582d4	-3.08611
39	0x401cab32	2.447949
40	0xbfe8ff0e	-1.8202837
41	0x404c685b	3.1938694
42	0xbf463655	-0.77426654
43	0x40ae7369	5.451588
44	0x3d96caf8	0.07362932
45	0xc0187d2a	-2.3826394
46	0xc0055485	-2.0832837
47	0x3ec7b5e5	0.39005962
48	0x3e6dbc7f	0.23216437
49	0x40659b2c	3.587596
50	0x3f6d9c8e	0.9281701
51	0xbff2e9ef	-1.8977641
52	0x402820ba	2.6269975
53	0xc024b8f3	-2.5737884
54	0xc060fabc	-3.5153036
55	0xc00d5c6a	-2.2087655
56	0x40187608	2.382204
57	0x3f9bda77	1.2176045
58	0x3fe73c71	1.806532
59	0xc0b8c0b5	-5.773524
60	0x40dd87bb	6.9228187
61	0xc0077e9c	-2.1171026
62	0xc02a5c42	-2.661881
63	0xbfdd99ed	-1.73126
64	0xbfa613bd	-1.2974774
65	0x40a2afe7	5.0839725
66	0x3fd10db8	1.6332312
67	0xc0161877	-2.3452432
68	0x3dcb67c3	0.099319
69	0x4082c3ae	4.0863867
70	0xbe8754f2	-0.26431996
71	0xc0195f01	-2.3964236
72	0x40069d92	2.1033673
73	0xbf0668c4	-0.5250361
74	0xc07ab0c2	-3.9170384
75	0xc0c5a393	-6.1762176
76	0xbfb61f67	-1.4228333
77	0x3f9ee23c	1.2412791
78	0x3fff88a7	1.9963578
79	0xbdd79fcf	-0.10528528
80	0xc021f043	-2.5302894
81	0xbfc2d206	-1.5220344
82	0xc01f74a0	-2.4914932
83	0x405c36cd	3.4408448
84	0x409e7c74	4.952692
85	0xbf187547	-0.5955395
86	0xbe030ca0	-0.12797785
87	0xc08f17e0	-4.4716644
88	0xc047c527	-3.1214082
89	0xc05f60d2	-3.4902844
90	0xc09c44b0	-4.8833847
91	0xbe6da28c	-0.23206538
92	0xbfe390be	-1.7778547
93	0x4034cd63	2.8250358
94	0x40605ad8	3.5055447
95	0x3f9a4344	1.2051778
96	0xbde42112	-0.1113912
97	0xc09566e4	-4.66881
98	0xc047aaa2	-3.1197896
99	0xc0855047	-4.1660495
100	0xc04d443d	-3.20729
101	0x4040217c	3.0020437
102	0xbde3e26d	-0.11127172
103	0x3fa5b23b	1.2945017
104	0xbfa0b41a	-1.2554963
105	0x3d7d2482	0.061802395
106	0x402bdc93	2.6853378
107	0x408ef7d3	4.467752
108	0xbf68403c	-0.90723014
109	0xc072867c	-3.7894583
110	0x404f6faf	3.2411916
111	0x3f596933	0.84926146
112	0xbe819a37	-0.2531297
113	0xc019b2fb	-2.401549
114	0xc055a303	-3.3380744
115	0x3ef21940	0.4728489
116	0xc079513b	-3.895583
117	0xbf9700fb	-1.1797174
118	0xc08f07e9	-4.4697156
119	0x3f948120	1.1601906
120	0xc0943f7a	-4.6327486
121	0xbf4ed906	-0.807999
122	0x3d406894	0.046974733
123	0x40c8d87c	6.2764263
124	0xbf6556fe	-0.89585865
125	0xc06007a6	-3.5004668
126	0xc04d0287	-3.2032793
127	0xbf8f0d1c	-1.1175876
128	0xbfb4bcf9	-1.412017
129	0xc0a01c84	-5.003481
130	0xc0b9ae70	-5.8025436
131	0x4051c75e	3.2777934
132	0x3ea30a25	0.31843677
133	0xc02c067b	-2.6878955
134	0x4090a931	4.5206532
135	0xc047a303	-3.1193244
136	0xc07bd738	-3.935011
137	0x40752c7e	3.8308406
138	0xbeb28cc8	-0.34873033
139	0xc07bd11e	-3.9346385
140	0x3fd97230	1.6987972
141	0x40c3823c	6.1096478
142	0x4083a730	4.1141586
143	0xc0352991	-2.830662
144	0x408e5e2f	4.448997
145	0x403ab8de	2.9175334
146	0xbf8c9d7b	-1.0985559
147	0x400e3f83	2.2226264
148	0xc094db62	-4.65178
149	0x3f8c418c	1.0957503
150	0xbeabe706	-0.33574694
151	0x40909557	4.51823
152	0xbef89fa4	-0.48559296
153	0xc05f7a87	-3.4918535
154	0xc032829f	-2.7892225
155	0xc0418ca6	-3.0242095
156	0x40543c04	3.316163
157	0xbd892fd5	-0.06698576
158	0xbfd11841	-1.6335527
159	0xc01d24e3	-2.4553764
160	0xc09959a8	-4.7921944
161	0x3edf70c3	0.43640718
162	0x408c9ab5	4.393885
163	0xc01aa6e8	-2.4164371
164	0xc030a0a5	-2.759805
165	0x3ef197f7	0.47186252
166	0xc039e0f8	-2.904356
167	0xbfc3a76c	-1.5285468
168	0x40ac0640	5.375763
169	0xbfa48609	-1.2853404
170	0xbf97df3a	-1.1864998
171	0xbff1acf7	-1.888091
172	0xbf696340	-0.9116707
173	0x408907fc	4.2822247
174	0xbee5715b	-0.44813046
175	0xbb4192b0	-0.0029536895
176	0xbf9cb27f	-1.2241973
177	0xc088256e	-4.254569
178	0x403aaabf	2.9166715
179	0x3fa9e465	1.3272825
180	0xbe0269b2	-0.12735632
181	0xc00f480c	-2.2387724
182	0x40910229	4.5315137
183	0xbe1effe0	-0.15527296
184	0x40a6749d	5.201735
185	0xc0481ed8	-3.1268826
186	0x3f352c5f	0.7077083
187	0xc0d81de8	-6.7536507
188	0xbeb442ff	-0.35207364
189	0xbfce590c	-1.6120925
190	0xbf42d3ec	-0.7610462
191	0x4056f903	3.3589485
192	0xc09cd72b	-4.9012656
193	0xc016bbe7	-2.3552186
194	0xc00f2d93	-2.2371566
195	0x3f5d2d98	0.86397696
196	0x3f5b61b0	0.85695934
197	0xc083b6ba	-4.1160555
198	0x3fc54f49	1.5414821
199	0x3d858c1e	0.06520866
200	0x3fdb3088	1.7124186
201	0x4058dddb	3.388541
202	0x40656953	3.5845535
203	0xbef79acd	-0.4836029
204	0x4086b0bb	4.2090735
205	0xbf37a01c	-0.7172868
206	0xbe7ca44b	-0.24672048
207	0xc0a994ad	-5.299399
208	0xbff22dec	-1.8920264
209	0x3e054247	0.13013564
210	0xbf6fdfa1	-0.93700606
211	0xbfcbf052	-1.5932715
212	0xc0202b1a	-2.5026307
213	0xc086c959	-4.2120786
214	0xbfc836bd	-1.5641705
215	0xbeb348df	-0.35016534
216	0xc0635f5b	-3.552695
217	0x400c9a2b	2.1969097
218	0x409e2f84	4.9433002
219	0xc04a2538	-3.1585217
220	0xc0529128	-3.2901096
221	0x402a1753	2.6576736
222	0x3e34b00a	0.17645279
223	0x3fbe91bb	1.4888223
224	0xbff7aecf	-1.9350222
225	0xbfeea5be	-1.864433
226	0xc03a7370	-2.9132957
227	0xc07d67bb	-3.9594562
228	0x4017a531	2.3694575
229	0xc051f87b	-3.280791
230	0x400d0ed1	2.2040293
231	0xbd947a59	-0.072498985
232	0x3fed809a	1.8554871
233	0xc0471d50	-3.111164
234	0xbf35f873	-0.7108223
235	0x3f349a6a	0.7054812
236	0xc0090de5	-2.141473
237	0xc003ac3a	-2.0573869
238	0x3ec76560	0.3894453
239	0xc005b095	-2.0889027
240	0xc059aec8	-3.4012928
241	0xc042cb35	-3.0436528
242	0x408cd111	4.400521
243	0x3fd02bf3	1.6263412
244	0xc032594c	-2.7867002
245	0x3fad88f1	1.3557416
246	0x3fb0bb9a	1.3807251
247	0xc03dc7cc	-2.9653196
248	0xbfbf8e33	-1.4965271
249	0xc0329cc6	-2.7908187
250	0xc0bbd9fa	-5.8703585
251	0xc01d7319	-2.46015
252	0xbe9eee35	-0.31041113
253	0xc0e60b7f	-7.1889033
254	0x401184ab	2.2737224
255	0x3c83333b	0.01601564

fc2.weight f4 [256, 256]
0	0x3f4b5fb3	0.794429
1	0xc17b843f	-15.719787
2	0xbe590de9	-0.21196713
3	0xbd7e506b	-0.06208841
4	0x3d94353e	0.07236718
5	0xbea0e5cb	-0.31425318
6	0xbdf50e4c	-0.119656175
7	0xbd88a9f5	-0.06673042
8	0xbea99e08	-0.3312838
9	0xbe6d4c46	-0.23173627
10	0xbe9118bc	-0.28339183
11	0xbba1529f	-0.0049231793
12	0x3c3187ea	0.010835627
13	0xbdb74b87	-0.089499526
14	0xbd6b4f01	-0.05744839
15	0xbd7b1be9	-0.061305914
16	0xbf52cec0	-0.82346725
17	0xbf8d5e07	-1.104432
18	0x3e441a08	0.19150555
19	0xbd419853	-0.04726441
20	0xbcbf8b47	-0.023381842
21	0x3df54a69	0.11977083
22	0x3e5a890a	0.21341339
23	0xbd6a216c	-0.05716078
24	0x3cb0ea9a	0.021596242
25	0xbce09744	-0.02741588
26	0xbda28d9e	-0.079371676
27	0xc08bf3ce	-4.3735113
28	0x3c4cb77b	0.012494917
29	0xc128b3c0	-10.543884
30	0xbd4a454e	-0.0493825
31	0xbfd8e316	-1.6944301
32	0xbda51857	-0.08061283
33	0x3dd62807	0.10456853
34	0x3edde20c	0.43336523
35	0xbdad458b	-0.0846053
36	0x3f15b558	0.58479834
37	0x3fe1b779	1.7634116
38	0xbd8c7eb8	-0.06860107
39	0xbda61526	-0.081095025
40	0x3fc72223	1.5557293
41	0xc1bc5c12	-23.544956
42	0xbd49f21c	-0.04930316
43	0xbcb9d6d4	-0.022685446
44	0xbeaf90a2	-0.34290034
45	0xbc602421	-0.013680489
46	0xbcaefd00	-0.021360874
47	0xbef7201f	-0.48266694
48	0x3d300ab7	0.04297897
49	0xbf86f9e8	-1.0545015
50	0x3e249827	0.16073667
51	0x3ed255b2	0.41081005
52	0xbed468ed	-0.41486302
53	0xbbe0007f	-0.0068359966
54	0x3f462a7b	0.7740857
55	0xbc64d723	-0.013967308
56	0xbe7210ab	-0.23639171
57	0xbf78f350	-0.97246265
58	0xbf0746db	-0.5284249
59	0x3e9ea0c8	0.3098204
60	0x3fe940fe	1.8222959
61	0xbdbdbd5c	-0.09264633
62	0xbf54315b	-0.8288781
63	0xbe18a645	-0.14907177
64	0xbe8e8bc7	-0.27841017
65	0xc0181ae6	-2.3766418
66	0x3e650a63	0.22367243
67	0xbc283661	-0.010266871
68	0x3fb7204e	1.4306734
69	0xbf938ada	-1.1526749
70	0xbe0e4956	-0.13895163
71	0x3eec26e5	0.46123424
72	0x3e3d26b2	0.18471792
73	0x3d281208	0.04103282
74	0xbdcce0b7	-0.100037985
75	0xbddee211	-0.108829625
76	0xbcb1bb5f	-0.02169579
77	0x3cd1f141	0.025627734
78	0xbfd2da3b	-1.6472849
79	0xbd517889	-0.051140342
80	0x3e809a4e	0.25117725
81	0x3fb4f08f	1.4135913
82	0xbd505c19	-0.05086908
83	0x3cec9e78	0.028884158
84	0xbfd8fe80	-1.6952667
85	0xbe3e0f14	-0.1856044
86	0x3a28ca73	0.00064388587
87	0x4003bed0	2.0585213
88	0xbc1ffcae	-0.009764833
89	0x3d29ac26	0.04142394
90	0xbeb0706c	-0.3446077
91	0x3d24eeaf	0.04026669
92	0xc0056d5b	-2.0847995
93	0x3e84d2a2	0.2594195
94	0x3f8304e5	1.0235869
95	0xbebba98d	-0.36652794
96	0xbb97047c	-0.004608689
97	0x3f374263	0.71585673
98	0xbd93f00f	-0.07223522
99	0xbd3438e1	-0.043999556
100	0x3d3a4259	0.04547343
101	0xc1a7cce5	-20.975046
102	0xbd66abf3	-0.056316327
103	0x3efaf9ce	0.4901871
104	0xbda163c3	-0.07880356
105	0xbcb6c243	-0.022309428
106	0xbf51b581	-0.8191758
107	0x3e9af3e5	0.30264202
108	0xbe4bad8d	-0.19890423
109	0xbd59c76f	-0.05316871
110	0x3f065f5e	0.5248927
111	0x3e2b2807	0.16714488
112	0x3b6c3331	0.0036041255
113	0xbd12e7f2	-0.03586573
114	0x3e8dca71	0.27693513
115	0x3dff929e	0.12479137
116	0xbda31762	-0.07963444
117	0xbe26edb2	-0.16301611
118	0x3e8ef642	0.27922255
119	0xbe999337	-0.2999513
120	0xbf0b072f	-0.54307836
121	0x3eac1614	0.33610594
122	0xbc9f3ffc	-0.01943969
123	0xbf6c81f9	-0.9238582
124	0xbd557ec3	-0.052122843
125	0xbf768e1b	-0.96310586
126	0xbdc3bccb	-0.09557494
127	0xbe4cce6b	-0.20000617
128	0xbea7a07c	-0.32739627
129	0xbe87447d	-0.2641944
130	0x3ec2e24b	0.38063273
131	0x3c908a60	0.017644107
132	0x3e42c924	0.19022042
133	0x3e5ba192	0.21448353
134	0xbf8db084	-1.1069493
135	0xbce12364	-0.027482696
136	0xbe2a5600	-0.16634369
137	0xbf1ff161	-0.6247769
138	0xbd3771ac	-0.04478614
139	0xbd446912	-0.047951765
140	0xbff44bb1	-1.9085599
141	0xbd1efb00	-0.03881359
142	0x3e35d438	0.17756736
143	0x3f0c410b	0.5478675
144	0x40353d5f	2.8318708
145	0xbcf382a1	-0.029725375
146	0xbefbcf9e	-0.49181837
147	0x3e323f96	0.17407069
148	0x3f08023b	0.53128403
149	0xbed42ff8	-0.41442847
150	0x3d768074	0.060181096
151	0x3ebc6039	0.36792162
152	0x3d1098a1	0.03530181
153	0xbca19c06	-0.019727718
154	0x3b661588	0.0035108048
155	0x3d1480e3	0.03625573
156	0xbec5126e	-0.38490623
157	0x3f9aac99	1.2083923
158	0x3c569a13	0.013098258
159	0x3f1968f0	0.59925747
160	0x3bc73f44	0.00608054
161	0xbf770009	-0.9648443
162	0xbe57fa42	-0.2109156
163	0xbd824d0d	-0.063623525
164	0x3d288a0f	0.041147288
165	0xbe85e1d9	-0.2614887
166	0x3ce97b8c	0.028501295
167	0xbc0d0513	-0.008607167
168	0xc0284f07	-2.6298234
169	0x3f4ab838	0.79187346
170	0x3dadfa6f	0.08495032
171	0x3eace70b	0.33770022
172	0xbe437464	-0.19087368
173	0x3e477750	0.19479108
174	0x3f6ec1e0	0.9326458
175	0x3f0b9949	0.5453077
176	0xbc9e64c0	-0.01933515
177	0xbdb28e0c	-0.087184995
178	0xc134facd	-11.311231
179	0x3ed1f2d7	0.41005585
180	0x3ec7b0fc	0.39002216
181	0x3e3447e9	0.17605557
182	0xbec022c3	-0.3752652
183	0xbe7c700c	-0.24652117
184	0xbf9b75f7	-1.2145375
185	0xbe3f490c	-0.18680209
186	0x3eef5fbd	0.4675273
187	0x3e786b55	0.24259694
188	0xbe460edf	-0.1934161
189	0xbe94ea4b	-0.29085
190	0x3ff3f822	1.9060099
191	0xc0277988	-2.6167927
192	0x3e29cff9	0.16583242
193	0xbc80815d	-0.015686685
194	0xbd0209ed	-0.031747747
195	0x3d98bcd3	0.0745789
196	0xc1043e7e	-8.265257
197	0x3e4fccba	0.2029294
198	0xbebca007	-0.3684084
199	0x3d5ff2df	0.05467498
200	0x3eaaff8c	0.33398092
201	0x3e9238cd	0.2855896
202	0x3e211484	0.15730482
203	0x3d63d5e1	0.055623893
204	0x3fea9330	1.8326168
205	0x3d226fd8	0.039657444
206	0xbf4f43ed	-0.8096302
207	0x3f2ba17d	0.67043287
208	0xbe03ec3d	-0.12883087
209	0x3def5127	0.116854005
210	0x3b2aec9e	0.0026080976
211	0xbf042361	-0.51616484
212	0xbd2876b6	-0.041128837
213	0xbf8fa406	-1.1221931
214	0x3f7329b5	0.94985515
215	0xba0dc18e	-0.0005407565
216	0xbe6bdcf9	-0.23033513
217	0xbec9e410	-0.3943181
218	0xbe086ac1	-0.13321973
219	0xbd91e65d	-0.071240164
220	0xbe8b419b	-0.2719849
221	0x3b848cc2	0.0040451
222	0x3e6fb0a4	0.23407227
223	0x3cec74c2	0.028864268
224	0xbda6486e	-0.081192836
225	0x3f35820f	0.7090158
226	0xbb6b8d71	-0.003594246
227	0xbe4a70f1	-0.19769646
228	0xbe83b486	-0.25723666
229	0x3cec5e32	0.02885351
230	0xbedfa455	-0.43680063
231	0x40241351	2.563679
232	0x3f14068f	0.5782251
233	0xbe5a6601	-0.21327974
234	0x3f5b1ab5	0.85587627
235	0x3e5dbd73	0.216543
236	0x3ee860d3	0.4538637
237	0x3dc46370	0.09589279
238	0xbbf833a5	-0.007574516
239	0xbd904e5a	-0.070461944
240	0x3d3b7ac0	0.04577136
241	0xbd425dbb	-0.04745267
242	0xbe129cf3	-0.14317684
243	0x3dea7d79	0.11449713
244	0xbda06cd5	-0.07833258
245	0x3e456e6d	0.19280405
246	0x3e9fddd4	0.3122393
247	0xbf06ce3d	-0.52658445
248	0x3ea34e46	0.31895655
249	0x3d87ede7	0.06637173
250	0x3efc3ecb	0.49266657
251	0x3ed284b1	0.4111686
252	0xbe802515	-0.2502829
253	0xbef6b86b	-0.48187575
254	0xbe85a9fd	-0.26106253
255	0x3ee89d55	0.45432535

fc2.bias f4 [256]
0	0xbfe31277	-1.774001
1	0xbd058d97	-0.032605734
2	0x3ffad036	1.9594791
3	0x3f0948bc	0.5362661
4	0xbc288be7	-0.010287262
5	0xc008c1cf	-2.1368291
6	0xbf8039f9	-1.0017692
7	0xbdb317a9	-0.08744747
8	0xbdc0bbb6	-0.09410803
9	0x3ca24d7e	0.019812342
10	0xbbf54b9f	-0.0074858214
11	0xbd412e7f	-0.047163483
12	0x3ba3ae46	0.0049951402
13	0xbc89813b	-0.016785255
14	0xbfbdb92d	-1.4822136
15	0xc00a1900	-2.1577759
16	0xbdbc40a9	-0.091920204
17	0x3fc7517c	1.5571742
18	0xbdc690e2	-0.09695603
19	0xbdb9884f	-0.09059202
20	0xbdc9bd9b	-0.098506175
21	0xbd7ad311	-0.061236445
22	0xbd1ab0d2	-0.037766285
23	0x3ccf3796	0.02529506
24	0xbe089881	-0.13339426
25	0xc0dad740	-6.8387756
26	0x3f98bf3d	1.1933361
27	0xbd153b36	-0.03643342
28	0xbc921445	-0.01783193
29	0x40538b69	3.305384
30	0xbcebb617	-0.02877335
31	0x3b82f507	0.0039964947
32	0xbd2a2b08	-0.041544944
33	0xbc343afe	-0.011000393
34	0x3cfe19c2	0.031018142
35	0x3b5aed24	0.0033405507
36	0xbbd47443	-0.006483586
37	0x40665b01	3.5993044
38	0x3c60b017	0.013713858
39	0xbc98c933	-0.018650627
40	0x400365fb	2.0530994
41	0xbd3b9930	-0.045800388
42	0xbe750d42	-0.23930839
43	0xc071af22	-3.7763143
44	0xbd94245f	-0.072335
45	0xbe1511a5	-0.14557512
46	0xbd0a02ec	-0.033694193
47	0xbf98f5b9	-1.1949989
48	0x3bf90fcc	0.00760076
49	0xbfa280b1	-1.2695524
50	0x3a7f313e	0.00097348157
51	0xbd893a21	-0.0670054
52	0x3d41d249	0.047319684
53	0x3e2c6756	0.16836295
54	0xbe4f1b93	-0.20225362
55	0x3ccbe405	0.024889002
56	0x3d14cb29	0.03632656
57	0xbd177a31	-0.036981765
58	0x404186b4	3.0238466
59	0x3fe0fdc3	1.7577442
60	0xbd6b4418	-0.057437986
61	0x3e065ae4	0.1312061
62	0x3be3a425	0.006947058
63	0xc037fd91	-2.8748515
64	0xbfc60f42	-1.5473406
65	0x409bcd84	4.8688374
66	0xbdf7a562	-0.12092091
67	0xbdca3585	-0.09873489
68	0xbdb983cd	-0.09058342
69	0xbbf360b7	-0.007427301
70	0xbe0ef8c4	-0.13962084
71	0xbe143c81	-0.14476205
72	0xbbe18d54	-0.0068833027
73	0xc000a46b	-2.0100353
74	0x3d077541	0.033070806
75	0xbfec86db	-1.8478655
76	0x3b1392f0	0.0022518001
77	0xbd294f0e	-0.041335158
78	0xbda43b84	-0.08019164
79	0xbf9b086e	-1.2111948
80	0x3fbc8391	1.4727651
81	0xbffafe14	-1.9608788
82	0xbe18d107	-0.14923488
83	0xbd7eb745	-0.0621865
84	0x3fdd51b7	1.7290562
85	0xbd560f0f	-0.052260455
86	0x4050b340	3.2609406
87	0xbd0dbb8e	-0.034602694
88	0xc09c4ff5	-4.8847604
89	0x3baa05aa	0.0051886635
90	0xbd03fe94	-0.032225206
91	0xbc8c21c2	-0.01710594
92	0xbc36406f	-0.011123761
93	0x401c2339	2.4396498
94	0xbd34a428	-0.044101864
95	0xbd91eb11	-0.071249135
96	0xbd36ea77	-0.044657197
97	0x3df923e4	0.12165049
98	0xbd88b757	-0.06675594
99	0xbd6f2836	-0.058387958
100	0xbde65ed0	-0.11248553
101	0xbcf1cb18	-0.029515788
102	0xbdeb8217	-0.11499422
103	0xbdf72fc5	-0.12069658
104	0xbf75e8ce	-0.96058357
105	0xbcb2765f	-0.02178496
106	0x3cf7b651	0.030238302
107	0xc0af622e	-5.480735
108	0x40baeb79	5.841244
109	0xbc739035	-0.014865925
110	0x3ccceb4d	0.025014544
111	0xc0675d2e	-3.6150622
112	0xbdcc5bc8	-0.099784434
113	0xbf68d5c2	-0.9095117
114	0xbf1fad5d	-0.62373906
115	0xbfd56ce0	-1.6673851
116	0xbf12657a	-0.5718609
117	0xbfa55f88	-1.2919779
118	0xbbeb02bd	-0.0071719573
119	0xbf45964b	-0.77182454
120	0xbe1113c9	-0.14167704
121	0xbed583cc	-0.41702116
122	0x3f9c12c4	1.2193227
123	0xbd48707a	-0.04893539
124	0xc0160f3a	-2.3446794
125	0xc0c0a1c4	-6.019747
126	0x3e8be9af	0.27326724
127	0xc0112be3	-2.2683036
128	0xbdbd70be	-0.092500195
129	0xbbb270a4	-0.0054455567
130	0xbf089738	-0.5335574
131	0x3d0d2575	0.03445955
132	0xbd5cb7e0	-0.053886294
133	0x3e23c3f3	0.15992717
134	0xbdfac1a7	-0.122439675
135	0x3c5b8b76	0.013399949
136	0xbd916b1c	-0.071005076
137	0xbfab3855	-1.3376566
138	0x3eb10a34	0.34578097
139	0xc094ed27	-4.6539493
140	0xbdabfeae	-0.08398186
141	0xbe2d383b	-0.16915981
142	0x401a773a	2.413527
143	0x40186996	2.3814445
144	0xbcb859a0	-0.022503674
145	0xbeb4d3c2	-0.35317808
146	0xbdbed344	-0.093176395
147	0x3ea35f50	0.31908655
148	0xbdddb063	-0.10824659
149	0xbc810207	-0.015748037
150	0x3fbf2e7b	1.493606
151	0xbf38e78a	-0.722283
152	0x400e4e64	2.2235346
153	0x3caf2e28	0.021384314
154	0xba7cfbbf	-0.000965055
155	0xbf9523ea	-1.1651585
156	0xbd905f0d	-0.070493795
157	0xbf3afe83	-0.73044604
158	0xbff72921	-1.9309427
159	0x3bfe27bf	0.007756203
160	0x3cd59f92	0.026077066
161	0x3f98a001	1.1923829
162	0xc01637f9	-2.3471663
163	0x4033abfd	2.8073723
164	0xbdf4a8b8	-0.11946243
165	0x3e039b66	0.12852249
166	0x40434462	3.0510488
167	0xbf1dd758	-0.61656713
168	0xbdd50a8e	-0.10402404
169	0xbdc25aae	-0.09489952
170	0x3cba33dc	0.022729807
171	0x3cbefed7	0.023314876
172	0x3fa74039	1.3066474
173	0x407742c7	3.8634508
174	0x3c570f9f	0.013126283
175	0x3cbf2953	0.023335135
176	0xbfa9bcc8	-1.3260736
177	0xbbc9c01a	-0.0061569335
178	0xbf906f2f	-1.128393
179	0xc08e30a0	-4.4434357
180	0xbfb40b3d	-1.406593
181	0xbfe89100	-1.816925
182	0xbdba2824	-0.090896875
183	0xbbf2a265	-0.007404613
184	0xbe05c4a9	-0.13063301
185	0x3fe7818e	1.8086412
186	0x3f6dcaec	0.9288776
187	0xbd16c4bf	-0.036808725
188	0xbd8e87c3	-0.06959488
189	0x3fbe3de0	1.4862633
190	0xbc781870	-0.015142545
191	0xbc365810	-0.011129394
192	0xc0a974e1	-5.2955174
193	0x3f8382ed	1.027433
194	0x408ffdb7	4.499721
195	0x3c93953c	0.018015496
196	0x3f924bbe	1.1429365
197	0xbdd85d6c	-0.10564694
198	0xbe914422	-0.28372294
199	0xbdac3b0a	-0.08409698
200	0xbfe58c1a	-1.7933381
201	0xbdbd2d19	-0.09237117
202	0xbe6f3a59	-0.23362102
203	0xbda0f8dd	-0.07859967
204	0xbd21baca	-0.039484777
205	0xbdab1738	-0.08354038
206	0xbbd381d2	-0.006454685
207	0xbff7cffd	-1.9360348
208	0xc00f45b8	-2.2386303
209	0xc02b8c93	-2.680455
210	0x3f9b1347	1.2115258
211	0xbf8c3459	-1.0953475
212	0xbd91f85e	-0.071274504
213	0xc0867283	-4.2014785
214	0x3d27a190	0.040925562
215	0x40311607	2.7669694
216	0x403f196f	2.9859273
217	0xbdcf80a7	-0.1013196
218	0xc0ff2a81	-7.9739385
219	0x404464d2	3.0686536
220	0x3af0edcd	0.0018381417
221	0xbf01652d	-0.50545007
222	0xbd3c29af	-0.04593819
223	0x3c81f71a	0.015864898
224	0xbcc2defa	-0.023787964
225	0x3b70847e	0.0036700065
226	0x3fcb881a	1.590091
227	0xbd3d0d65	-0.046155352
228	0xbe2ef6ac	-0.17086285
229	0xbc5155cc	-0.012776803
230	0xbb9b242c	-0.0047345366
231	0x3edd2a3b	0.43196282
232	0xbe08c26d	-0.13355418
233	0xbd92dd9a	-0.071711734
234	0xc020ff21	-2.5155718
235	0xbd8adc3d	-0.06780288
236	0x3f3d360a	0.7391058
237	0xbd6997ad	-0.057029415
238	0x3c61d988	0.013784774
239	0x3cb59906	0.022167694
240	0xbd3ba839	-0.045814727
241	0xbc9c4e74	-0.019080378
242	0xbf0be722	-0.54649556
243	0xbd9cecb3	-0.07662334
244	0xbda4f272	-0.08054055
245	0xc0234190	-2.5508766
246	0x3c866414	0.016405143
247	0xbf70432d	-0.938525
248	0x3ce0887b	0.027408829
249	0x3c97a4bc	0.018511169
250	0xbd770417	-0.060306635
251	0xbe765c4f	-0.2405865
252	0xbd98e8e8	-0.07466298
253	0x3f753452	0.9578296
254	0x3f011e63	0.5043699
255	0xbda9e291	-0.08295167

fc3.weight f4 [24, 256]
0	0x3e4e5217	0.20148502
1	0xba9f128c	-0.0012136265
2	0x3e288167	0.16455613
3	0x3e09f7e6	0.13473472
4	0x3d26f979	0.04076526
5	0x3e2363a5	0.1595598
6	0x3e00e04a	0.1258556
7	0x3d089e7d	0.03335427
8	0xbdabfdab	-0.08397993
9	0xbd16784e	-0.036735825
10	0x3c26c5ea	0.010179022
11	0xbd9b955b	-0.07596847
12	0x3c949931	0.018139454
13	0xbc7383a1	-0.014862926
14	0x3e26271b	0.16225855
15	0x3ed99bce	0.42501682
16	0xbde1738b	-0.11008366
17	0x3e5e4fd0	0.21710134
18	0xbcef5744	-0.029216416
19	0xbdf77987	-0.120837264
20	0xbcb3c5e6	-0.021944951
21	0x3cd07a8e	0.025449064
22	0xbd0b59ec	-0.034021303
23	0xbff8761b	-1.9411043
24	0x3d1251eb	0.035722654
25	0x3eaa4e5d	0.3326291
26	0x3bd52ec6	0.00650582
27	0xbd336df2	-0.043806024
28	0xbd37581f	-0.044761773
29	0x3d9ab616	0.075542614
30	0x3d2976ef	0.04137319
31	0xbd1950b0	-0.037430465
32	0xbcb88362	-0.022523586
33	0x3d13607e	0.035980694
34	0x3c0f4a16	0.008745691
35	0xbd22a426	-0.039707325
36	0xbce8ea84	-0.028432138
37	0x3d90841a	0.070564464
38	0xbd154e43	-0.03645159
39	0xbde2c464	-0.11072615
40	0x3dce85a2	0.10084082
41	0x3c6cb5e3	0.014447662
42	0xbe55d421	-0.20881702
43	0xbe749a66	-0.23887023
44	0xbc905f8f	-0.01762369
45	0x3d93f0cf	0.07223665
46	0xbdc42453	-0.09577241
47	0x3e3c54f9	0.1839179
48	0x3ced8a74	0.028996684
49	0x3e350034	0.17675859
50	0x3d2020a5	0.039093632
51	0xbdb0a2f7	-0.08624833
52	0xbd04a4a6	-0.032383583
53	0xbdefe730	-0.117140174
54	0x3cd3b9a5	0.025845358
55	0x3c9ba72d	0.019000614
56	0x3d2421f0	0.040071428
57	0x3d5bebcd	0.053691674
58	0x3e16fa06	0.14743814
59	0xbd889720	-0.0666945
60	0xbd8c7a09	-0.06859214
61	0xbbe7c16f	-0.0070726196
62	0x3d6ad827	0.057335045
63	0x3de0688e	0.10957442
64	0x3d35d7c2	0.044395216
65	0x3e9a1ef1	0.3010173
66	0x3d61fa26	0.0551702
67	0xbd170fca	-0.036880292
68	0x3cae7c6a	0.02129956
69	0xbd2ec440	-0.042667627
70	0x3d3dd970	0.046349943
71	0xbdac9ba5	-0.08428124
72	0xbb6b537c	-0.0035907915
73	0xbf286a48	-0.6578717
74	0x3d268c46	0.04066112
75	0xbd7c287d	-0.06156205
76	0xbc5d04d0	-0.013489917
77	0xbce5ce3e	-0.028052446
78	0xbd3e597d	-0.04647206
79	0xbf1d4eef	-0.6144857
80	0xbdfd005d	-0.12353585
81	0x3e4cc4a8	0.19996893
82	0xbdc4888e	-0.09596358
83	0xbcaa121b	-0.020760586
84	0x3bb56751	0.005535998
85	0xbd85733d	-0.065161206
86	0x3ca611ad	0.0202721
87	0xbd22e2ef	-0.039767202
88	0xbd5253de	-0.051349513
89	0xbc490f63	-0.012271735
90	0xbd2d0031	-0.04223651
91	0xbdad690d	-0.084673025
92	0x3bf38e54	0.0074327383
93	0x3e58f1be	0.21185967
94	0xbd1422c4	-0.036165968
95	0x3d727605	0.059194583
96	0xbc690e5d	-0.014224616
97	0xbe93271a	-0.2874077
98	0xbc596900	-0.013269663
99	0xbd6f57ff	-0.05843353
100	0x3d52e270	0.05148548
101	0x3ce84c48	0.028356686
102	0x3d351dee	0.044217996
103	0xbd895a51	-0.067066796
104	0xbd9a6fca	-0.07540853
105	0xbe335349	-0.1751224
106	0x3d8265c9	0.0636707
107	0x3f1464b2	0.5796615
108	0x3e1054b0	0.14094806
109	0xbc521cc0	-0.012824237
110	0x3df7ebf0	0.121055484
111	0x3d07ee7c	0.03318642
112	0xbc2df9e5	-0.0106186615
113	0x3de64720	0.11244035
114	0x3d89434b	0.06702288
115	0xbbb7654f	-0.0055967937
116	0x3da08cc3	0.07839348
117	0xbe2e6ee2	-0.17034486
118	0xbc795d58	-0.015220009
119	0xbd62edca	-0.055402555
120	0x3ca903a2	0.020631615
121	0xbd10e488	-0.035374194
122	0xbe66585b	-0.22494642
123	0xb8dc082e	-0.00010491941
124	0x3e638422	0.22218373
125	0x3e0edfa0	0.13952494
126	0xbe153787	-0.14571963
127	0x3da4b3ab	0.080420814
128	0xbc3534c0	-0.01105994
129	0x3b215443	0.0024616874
130	0x3e3b42a5	0.18287142
131	0x3d81a135	0.06329576
132	0x3c2fc17b	0.010727282
133	0xbd92d051	-0.071686395
134	0xbcc050f3	-0.0234761
135	0x3d014e08	0.031568557
136	0xbcac23f2	-0.021013234
137	0x3e2c9ae3	0.1685596
138	0x3cbd6369	0.023118692
139	0xbdb0727a	-0.08615585
140	0x3d02bbdc	0.031917438
141	0xbd9452ff	-0.07242393
142	0x3da03d99	0.07824249
143	0xbdc39f49	-0.095518656
144	0x3c4e4680	0.012590051
145	0x3e1a9abf	0.15098093
146	0xbd9e58b0	-0.077317595
147	0x3ea55a99	0.32295683
148	0xbd397a29	-0.045282517
149	0x3d01c54c	0.031682298
150	0xbe27ea12	-0.16397884
151	0x3d322473	0.043491792
152	0xbd3346b1	-0.04376859
153	0x3cccbc09	0.024992006
154	0x3b189657	0.002328297
155	0x3d0829e9	0.033243094
156	0xbc07abd1	-0.00828071
157	0xbd04eb98	-0.032451242
158	0x3e1b335b	0.1515631
159	0xbcf1960c	-0.029490493
160	0x3bfe7880	0.0077658296
161	0xbe15d0a0	-0.14630365
162	0x3e90558a	0.2819026
163	0x3e68db09	0.22739805
164	0x3aca70d2	0.0015445
165	0xbe02484a	-0.12722889
166	0x3cec6722	0.028857771
167	0x3dab922b	0.08377489
168	0xbcbf564e	-0.023356583
169	0xbd9cf8c1	-0.076646335
170	0x3cee5c4f	0.02909675
171	0xbcd37da3	-0.025816744
172	0xbea15263	-0.3150817
173	0xbe338d6e	-0.1753442
174	0x3baf29d8	0.0053455643
175	0x3d29db67	0.041469004
176	0x3de98873	0.11402979
177	0xbbcf1d55	-0.0063206353
178	0xbced9bca	-0.02900495
179	0x3dd68a40	0.10475588
180	0x3e6c7a6f	0.2309358
181	0x3e046416	0.12928805
182	0xbd449d50	-0.048001587
183	0xbd0c4595	-0.034246046
184	0x3b8546bb	0.0040672696
185	0x3e0bae6e	0.13640758
186	0xbe4a19ed	-0.19736452
187	0x3d74ebfb	0.05979536
188	0x3c597f75	0.013275017
189	0xbd4f46c9	-0.050604615
190	0xbd2628f9	-0.04056642
191	0xbc042782	-0.00806606
192	0x3e1075fc	0.14107507
193	0xbcfa8e14	-0.030585326
194	0x3d72e471	0.05929989
195	0xbc9db373	-0.019250607
196	0x3dc1eb57	0.09468716
197	0xbda25b42	-0.07927562
198	0xbb8f577b	-0.004374442
199	0xbcd8750c	-0.026423
200	0xbce65167	-0.028114988
201	0xbc6d920a	-0.01450015
202	0x3e5c800a	0.21533218
203	0xbc3815a0	-0.011235625
204	0x3d8b139d	0.0679085
205	0xbcd03bc0	-0.025419116
206	0x3d611942	0.05495573
207	0xbe9d5136	-0.30726022
208	0x3ec05e52	0.3757196
209	0x3c99e704	0.018786915
210	0xbd9f3f42	-0.07775737
211	0xbe073ed5	-0.13207562
212	0xbdacd1c8	-0.0843845
213	0x3d2dcba8	0.04243055
214	0xbd7c3422	-0.061573155
215	0xbe376e4c	-0.17913169
216	0xbde28071	-0.110596545
217	0xbd14825e	-0.03625714
218	0xbd03b256	-0.032152496
219	0xbdd9f28a	-0.10641964
220	0xbd391f0a	-0.045195617
221	0xbd8d4ad9	-0.06899042
222	0xba5826b9	-0.0008245516
223	0x3d1e90e2	0.03871239
224	0xbc1d714b	-0.009609531
225	0xbd34ca59	-0.044138286
226	0x3df5fa7c	0.12010667
227	0x3d21aed6	0.039473377
228	0xbddc1260	-0.10745692
229	0x3d26f9e8	0.040765673
230	0xbda1632b	-0.07880243
231	0xbee7fa7d	-0.45308295
232	0xbde626ad	-0.112378456
233	0xbcae63c5	-0.021287808
234	0x3c032288	0.008003838
235	0xb913c9e5	-0.00014094224
236	0x3d2c748f	0.042103346
237	0x3b8e5067	0.004343081
238	0x3d4b20f8	0.04959199
239	0xbd78a5c4	-0.06070496
240	0xbd86bf76	-0.06579487
241	0xbd35e738	-0.04440996
242	0xbe0b1c51	-0.1358502
243	0x3cc6b1e0	0.02425474
244	0xbd7fc807	-0.06244662
245	0xbd5845c3	-0.052800905
246	0x3c7d07b0	0.015443727
247	0x3e082f92	0.13299397
248	0x3d406416	0.04697045
249	0xbc8acd35	-0.016943553
250	0xbc298afa	-0.010348076
251	0x3e5dc84e	0.21658441
252	0xbd1ae117	-0.03781232
253	0xbd8567a6	-0.0651391
254	0xbe02a2e6	-0.12757453
255	0x3d94cf70	0.07266128

fc3.bias f4 [24]
0	0x3f996cfc	1.1986384
1	0xbf42ef72	-0.76146615
2	0x3f5a4173	0.8525612
3	0x3f09c1e1	0.5381146
4	0x3c896526	0.016771864
5	0xbe168b04	-0.14701468
6	0x3f16e4fb	0.58943146
7	0x3f806b29	1.0032703
8	0x3f94fc51	1.1639501
9	0xbfae36c0	-1.3610458
10	0xbf82db52	-1.0223181
11	0xbfca84e9	-1.5821811
12	0x3eee84ee	0.46585792
13	0x3eb4f0d8	0.3534
14	0xbf32841b	-0.69732827
15	0x3e194ce5	0.14970739
16	0x3e123897	0.142794
17	0xbefc6a70	-0.49299955
18	0xbf959c35	-1.1688296
19	0xbf06aa08	-0.526032
20	0x3f1315ef	0.57455343
21	0xbf6b23db	-0.91851586
22	0xc00971df	-2.1475751
23	0xbe50f837	-0.20407186
