models/generator copy.pth (torch, 328348 bytes, 6 tensors)

fc1.weight f4 [256, 36]
0	0x412d6387	10.836799
1	0xbf9d1661	-1.2272455
2	0xbdafc551	-0.08582557
3	0x3ec17ae2	0.37789065
4	0x3d63152a	0.055440105
5	0x3d61e8b4	0.055153564
6	0xbeefe17a	-0.46851712
7	0x3f98f45f	1.1949576
8	0xbfdd8b8b	-1.730821
9	0x4022e200	2.545044
10	0xbea43a37	-0.32075664
11	0xbe06ceae	-0.1316478
12	0x3d074f04	0.03303434
13	0xbc10707c	-0.008815881
14	0xbdb2ca97	-0.08730047
15	0x404e0bd6	3.2194724
16	0xbf587536	-0.8455385
17	0xbf3b7477	-0.73224586
18	0xbc0f3843	-0.008741441
19	0xbde36100	-0.11102486
20	0x3d6e619c	0.058198556
21	0x3c5f2069	0.013618567
22	0x3c8d8066	0.01727314
23	0x40b98e76	5.7986403
24	0xbf83178e	-1.0241563
25	0x3f95c8a0	1.1701851
26	0xbe6ff080	-0.23431587
27	0x3df45c76	0.11931698
28	0x3e449fff	0.19201659
29	0xbbb1740d	-0.0054154457
30	0xbcc1fb7d	-0.02367949
31	0x40aada4b	5.339147
32	0xc005117f	-2.0791929
33	0x4091cc44	4.556185
34	0xbe0a6c69	-0.13517918
35	0xbd5805cc	-0.052739903
36	0x40c811a2	6.2521524
37	0x3f674212	0.9033519
38	0x3cac744c	0.021051548
39	0xc01c8abe	-2.4459682
40	0xbf8b817b	-1.0898889
41	0x3f0733c3	0.5281336
42	0x3e9b5e89	0.30345562
43	0x417ef4f9	15.934808
44	0xc08debe0	-4.4350433
45	0x3fb6a4ea	1.4269078
46	0x3fb543e4	1.4161344
47	0xbe25870b	-0.16164796
48	0xbf82dc6d	-1.0223519
49	0x3eeb1c04	0.45919812
50	0x3e9fcd5a	0.31211358
51	0x40b6c473	5.7114806
52	0xc0b4c3c0	-5.6488953
53	0x3ec5efb2	0.38659436
54	0x3fb3391e	1.4001806
55	0x3db2a75e	0.08723329
56	0xbedb2007	-0.42797872
57	0x3e76688b	0.24063317
58	0x3ef069bc	0.4695567
59	0x40bf0303	5.9691176
60	0xbff4d4b8	-1.9127417
61	0x3f091132	0.5354186
62	0x3fa535a7	1.2906998
63	0x38dc6800	0.00010509789
64	0xbf1b5673	-0.60678786
65	0x3e66bb02	0.22532275
66	0x3f16d022	0.58911335
67	0x40e1d496	7.0572004
68	0xbfd359ac	-1.6511741
69	0xbf2944ba	-0.66120493
70	0x3fbdb1f8	1.4819937
71	0xbaeca600	-0.0018054843
72	0xc1916075	-18.172098
73	0xbf3306c7	-0.69932216
74	0x3f60ee14	0.8786328
75	0xbe92d834	-0.28680575
76	0x3ef7c44d	0.48391953
77	0x3d8eb5af	0.06968247
78	0xbe9c2b23	-0.3050166
79	0xc0c13345	-6.0375085
80	0x3fcfe521	1.62418
81	0xbf6f024e	-0.9336289
82	0x3f7995c9	0.9749418
83	0x3d94f54e	0.07273351
84	0x3f4e6266	0.80618894
85	0x3f1c38b4	0.6102402
86	0x3d347d21	0.044064645
87	0xc081bfcf	-4.054664
88	0xbd80953a	-0.06278463
89	0xbfad2b3f	-1.3528823
90	0x3f7960f7	0.9741358
91	0x3e06bedd	0.13158746
92	0xbfe9c1d2	-1.8262274
93	0xbdfe6aa1	-0.124226816
94	0xbee8d586	-0.45475405
95	0xc051e8b9	-3.2798293
96	0x3dfa0951	0.12208808
97	0x4017e629	2.3734229
98	0x3f9c3e1a	1.2206452
99	0x3d1d3f6c	0.038390562
100	0xbebef90a	-0.37299377
101	0xbf82a3da	-1.0206254
102	0x3d59f91a	0.053216077
103	0xc05c1d01	-3.4392703
104	0x3f882795	1.063708
105	0x401f9de3	2.4940116
106	0x3f87d04a	1.061044
107	0x3db281da	0.087161735
108	0xbf1887d9	-0.5958229
109	0xc0639947	-3.5562303
110	0xc075de83	-3.841706
111	0xc06317f9	-3.5483382
112	0xc0835cb3	-4.105066
113	0xc070c4db	-3.762015
114	0x3efccf47	0.4937689
115	0xbf07359e	-0.5281619
116	0xc07df8d6	-3.9683127
117	0xbfb44e8a	-1.4086468
118	0xc082d44b	-4.0884147
119	0x3ad7c580	0.0016462058
120	0xc0566742	-3.3500524
121	0xc07f00c6	-3.9844222
122	0xc02ae149	-2.6700003
123	0xbf0a0fd5	-0.5393041
124	0xc07e227b	-3.9708545
125	0xbfc6b4a6	-1.552388
126	0xc080674b	-4.012609
127	0xbd8d4cf0	-0.0689944
128	0xc0877a05	-4.233645
129	0xc056e3e5	-3.3576596
130	0xc0798a43	-3.8990638
131	0xbf03a6bf	-0.5142631
132	0xc08222a2	-4.0667276
133	0xbfb515d6	-1.4147289
134	0xc0798fc4	-3.8993998
135	0x3dac8da2	0.08425452
136	0xc052cf53	-3.293904
137	0xc08241cb	-4.0705314
138	0xc07facb2	-3.9949155
139	0xbeccf464	-0.40030205
140	0xc08159af	-4.0421977
141	0xbfb83361	-1.439068
142	0xc0820550	-4.0631485
143	0x3db518b2	0.08842601
144	0xc13d32d8	-11.824913
145	0x3fb60c58	1.4222517
146	0x3e22037d	0.15821643
147	0x3f61cdd9	0.88204724
148	0xbc1934f5	-0.009351005
149	0x3bae0f8d	0.0053119124
150	0xbea022f3	-0.31276664
151	0xbf38280d	-0.7193611
152	0x3d1335bd	0.03593992
153	0x3e64c844	0.2234202
154	0xbf4778c9	-0.7791868
155	0xbd8e06f8	-0.06934923
156	0xbc862a6c	-0.01637765
157	0x3bbab33d	0.0056976364
158	0xbe8497c1	-0.2589703
159	0xbf28cde6	-0.65939176
160	0x3d8621ca	0.065494135
161	0x3df23326	0.11826162
162	0xbf659544	-0.89680886
163	0xbc68fbf0	-0.014220223
164	0xbc272434	-0.010201503
165	0xb9a121ce	-0.000307335
166	0xbe748273	-0.23877887
167	0xbf07ed81	-0.5309678
168	0x3d1a61c9	0.03769091
169	0x3d8d6e4e	0.069058046
170	0xbf454616	-0.7706007
171	0x3db781ea	0.08960326
172	0xbc22e5af	-0.009942456
173	0x3b836ff2	0.0040111477
174	0xbe98b823	-0.29827985
175	0xbe47cbaf	-0.19511293
176	0xbd8995be	-0.06718014
177	0x3e7e326d	0.24823923
178	0xbf87566f	-1.0573252
179	0x3e13a7a3	0.14419417
180	0x3fe7bdad	1.810476
181	0xc01bc822	-2.4340901
182	0xbfe06138	-1.7529669
183	0xbfd991b5	-1.6997591
184	0x3e1a08fd	0.15042491
185	0xbfe2a042	-1.7705157
186	0xbffa03f0	-1.9532452
187	0xc096b4dd	-4.709578
188	0xbff5eaf9	-1.9212333
189	0xc0370853	-2.859883
190	0xbff09821	-1.8796426
191	0xbe009ec0	-0.12560558
192	0x3e68636e	0.2269418
193	0xbfc120f1	-1.5088178
194	0xc001c547	-2.0276659
195	0xc099c6b6	-4.8055067
196	0xbff082f9	-1.878997
197	0xc02b9eb0	-2.6815605
198	0xc002a40b	-2.0412624
199	0x3e1d3fd5	0.15356381
200	0xbfad0575	-1.351729
201	0xbff2e865	-1.8977171
202	0xbfbc7bf2	-1.4725325
203	0xc09af691	-4.8425984
204	0xbff1ccd4	-1.8890634
205	0xc0348461	-2.8205798
206	0xc00475e0	-2.0696945
207	0xbda6e3f3	-0.081489466
208	0x3eb45898	0.35223842
209	0xbfd755e6	-1.6823089
210	0xbfc065d0	-1.5031071
211	0xc096e203	-4.7150893
212	0xbfea9879	-1.8327781
213	0xc02912df	-2.6417768
214	0xbfe510e3	-1.7895778
215	0xbdf7eabe	-0.121053204
216	0x3b66fef1	0.0035247172
217	0xbf9fa32e	-1.2471673
218	0x3f07aef3	0.53001326
219	0x3f415665	0.7552245
220	0x3e8978be	0.2684993
221	0xbd73dbfb	-0.05953596
222	0xbe646f19	-0.22308005
223	0xbf16d657	-0.58920807
224	0xbefafed6	-0.4902255
225	0xbf552914	-0.83265805
226	0x3e3a54a3	0.18196349
227	0xbd8e1926	-0.069383904
228	0x3e2ef4ae	0.17085525
229	0xbd167cde	-0.036740176
230	0xbdda6df7	-0.106655054
231	0x3e07eac7	0.13273154
232	0xbc94260f	-0.018084554
233	0xbf201dfa	-0.6254574
234	0x3e97873c	0.29595363
235	0xbdb85f53	-0.09002557
236	0x3e5028b8	0.20328033
237	0xbcfaa8e7	-0.030598117
238	0xbdf539f4	-0.11973944
239	0xbf67adee	-0.9049977
240	0xbe72edff	-0.23723601
241	0xbf293a00	-0.66104126
242	0x3eb4697b	0.35236725
243	0xbdd8121b	-0.10550328
244	0x3e8766cb	0.26445612
245	0xbcc3390a	-0.02383091
246	0xbe119771	-0.14217927
247	0xbfbfcc1c	-1.4984164
248	0x3cd01257	0.02539937
249	0xbfe9947e	-1.8248441
250	0x3f00070b	0.50010747
251	0xbdff59be	-0.12468289
252	0x407ad44a	3.919207
253	0xbd261631	-0.040548507
254	0x3f54d86d	0.8314274
255	0x3eecb5cc	0.4623245

fc1.bias f4 [256]
0	0xbe89bc92	-0.2690168
1	0x3fa1c96b	1.2639593
2	0x3f703ce8	0.93842936
3	0xc076fdde	-3.8592448
4	0xbf590393	-0.8477108
5	0xbfe14c60	-1.7601433
6	0x3e8a1f20	0.26976871
7	0x3f8f33d7	1.1187695
8	0xbfc3d429	-1.5299121
9	0xbf53ca6c	-0.82730746
10	0xc04398f7	-3.0562112
11	0xbfc6ead0	-1.5540409
12	0xbec6da8d	-0.38838616
13	0x4030ab9c	2.7604742
14	0xbfd5a9e2	-1.6692469
15	0xc08322cf	-4.097999
16	0xbf01c4d6	-0.5069097
17	0xbf4e92e1	-0.8069287
18	0xc0041f2b	-2.0644023
19	0xbec52a7a	-0.3850897
20	0xbea71759	-0.32635
21	0x3f776637	0.9664034
22	0xc00d5b60	-2.208702
23	0xbf19084e	-0.59778297
24	0xbd3b338d	-0.04570346
25	0xbff9a16a	-1.9502385
26	0xbfc6cd52	-1.5531409
27	0xbf1533cc	-0.5828216
28	0xbfb58745	-1.4181906
29	0xbe8af7fe	-0.27142328
30	0xc0061fc2	-2.0956883
31	0xc039e8c5	-2.9048321
32	0xbff73e93	-1.9315971
33	0xbfc58714	-1.5431848
34	0xbf12bb09	-0.57316643
35	0xc0047dfb	-2.0701892
36	0xc07526a0	-3.8304825
37	0xbb0922ba	-0.002092524
38	0xc007f2aa	-2.124186
39	0x3ee167d1	0.44024518
40	0xbfd23e5b	-1.6425279
41	0x3f8e54bb	1.1119608
42	0xbf922af2	-1.1419356
43	0x406593dc	3.5871496
44	0xbf265bb8	-0.649837
45	0xbfe4d44e	-1.787729
46	0xc03f0313	-2.9845626
47	0x3ea23bf8	0.31686378
48	0x3ed4cb90	0.41561556
49	0x400d011c	2.2031927
50	0x3f31149e	0.69172084
51	0xbf931ff6	-1.1494129
52	0x3fa31801	1.27417
53	0xbff28e22	-1.8949625
54	0xc01cabcb	-2.4479854
55	0xbfd14b27	-1.635106
56	0x401d40f6	2.45709
57	0xbf798858	-0.9747367
58	0x3f83fe2e	1.0311944
59	0xc0390ca9	-2.8913977
60	0x40950357	4.6566577
61	0xbfad093c	-1.3518443
62	0xbfcf6ade	-1.6204488
63	0xbfb07473	-1.3785537
64	0xbfb38e95	-1.4027888
65	0x405d6228	3.459116
66	0x3f364094	0.7119229
67	0xbfd9fa29	-1.7029468
68	0xbf63c8c6	-0.8897823
69	0x403df343	2.9679725
70	0xbf8a17c9	-1.0788509
71	0xbfe235a8	-1.7672625
72	0x3f77afad	0.96752435
73	0xbf0668c4	-0.5250361
74	0xbfc87949	-1.5662013
75	0xc089c694	-4.3054905
76	0xbf8fc58f	-1.1232165
77	0x3ebe3fc2	0.37158018
78	0x3f9064f3	1.1280807
79	0xbdd79fcf	-0.10528528
80	0xbf8c62b2	-1.096762
81	0xbffad346	-1.9595726
82	0xbfdb6874	-1.7141252
83	0x3fbb5cf8	1.4637747
84	0x40638ed8	3.5555935
85	0xbf465c13	-0.77484244
86	0xbe030ca0	-0.12797785
87	0xbf8c0afd	-1.0940853
88	0xc007db70	-2.1227684
89	0xc02b14b7	-2.6731393
90	0xc0273058	-2.6123257
91	0xbe6da28c	-0.23206538
92	0xbe770e67	-0.24126588
93	0x4008eb6e	2.1393695
94	0x404d17df	3.204582
95	0x3f50e1e1	0.81594664
96	0xbde42112	-0.1113912
97	0xc0282eb2	-2.62785
98	0xc0085aa1	-2.1305315
99	0xc061cf2e	-3.5282702
100	0xbfab7bee	-1.3397195
101	0x3f8f0d89	1.1176006
102	0xbde3e26d	-0.11127172
103	0x3f9eec56	1.2415874
104	0xbfd2b086	-1.6460121
105	0x3d7d2482	0.061802395
106	0x3f9793d3	1.1841987
107	0x3f939d1b	1.153232
108	0xbf6275a5	-0.8846076
109	0xc031a98a	-2.7759728
110	0x400fef41	2.248978
111	0x3e9c42ab	0.30519614
112	0xbe819a37	-0.2531297
113	0xbfabed87	-1.3431863
114	0xc012d628	-2.294321
115	0x3b733e10	0.003711585
116	0xc01bf11a	-2.4365907
117	0xbf3b9851	-0.7327929
118	0xc048af6d	-3.1357071
119	0x3e9855aa	0.29752856
120	0xc081b91c	-4.0538464
121	0x3ea595a0	0.32340717
122	0x3d4c51c0	0.04988265
123	0x405935f2	3.3939176
124	0xbfb053f4	-1.377562
125	0xc0055211	-2.083134
126	0xc0007149	-2.0069144
127	0xbfbe891f	-1.4885596
128	0x3e387629	0.18013825
129	0xbfe3c08f	-1.7793139
130	0xc085c1f2	-4.179925
131	0x3ecece18	0.40391612
132	0xbf920fe6	-1.1411102
133	0xc018aba0	-2.3854752
134	0x40453b2e	3.081737
135	0xc01082e8	-2.25799
136	0xc03a1e13	-2.9080856
137	0x40227192	2.5381818
138	0xbeb28cc8	-0.34873033
139	0xc036bd05	-2.8552868
140	0x3fc8c3f1	1.5684797
141	0x40840460	4.125534
142	0x402ec74a	2.7309136
143	0xbddcab0f	-0.10774814
144	0x4030babd	2.7613976
145	0x3ff2aef7	1.8959645
146	0xbf659729	-0.8968378
147	0x3f9b0d68	1.2113466
148	0xc0432275	-3.048978
149	0x3f93b0e5	1.1538359
150	0xbeabe706	-0.33574694
151	0x40337a61	2.8043444
152	0xbfdf02f2	-1.7422774
153	0xbf45b3d3	-0.77227515
154	0xc01d6d02	-2.4597783
155	0xc0163b77	-2.3473794
156	0x3ff67023	1.9252971
157	0xbf977047	-1.1831139
158	0xbf8fdcbc	-1.1239238
159	0xbf8c3c74	-1.0955949
160	0xc086819e	-4.2033224
161	0x3f4f0b91	0.80877024
162	0x40321e77	2.7831094
163	0xbfe6d3f7	-1.8033437
164	0xbfe3d500	-1.7799377
165	0x3fc354b1	1.5260221
166	0xbffe9056	-1.9887798
167	0xbe66287b	-0.2247638
168	0x407bff0a	3.9374413
169	0xbf816f08	-1.0112009
170	0xbf56a7bd	-0.838497
171	0xbf0b8b5d	-0.54509526
172	0xbeb19636	-0.34684914
173	0x401b0317	2.4220636
174	0xbcb749e0	-0.022374094
175	0xbe9467bf	-0.28985402
176	0xbf9163e5	-1.135861
177	0xc06ff0cf	-3.7490728
178	0x3f998570	1.1993847
179	0x3f287e66	0.6581787
180	0xbf8bedf4	-1.0931993
181	0xbf554931	-0.83314806
182	0x4056cdbf	3.3563077
183	0xbfa9caf0	-1.3265057
184	0x407e8b5c	3.9772558
185	0xc00a4c8a	-2.1609216
186	0x3f6eb20d	0.93240434
187	0xc097cc44	-4.743685
188	0xbf11665b	-0.5679681
189	0xbe2259b8	-0.15854537
190	0xbe77985a	-0.24179211
191	0x3fabfb7e	1.3436124
192	0xc05937a0	-3.39402
193	0xbff3c279	-1.9043723
194	0xbfba4267	-1.4551514
195	0x3f11a898	0.5689788
196	0x3fe152a1	1.7603341
197	0xc03697f9	-2.8530257
198	0x3fb694f5	1.4264208
199	0x3d858c1e	0.06520866
200	0x3f9ce2e9	1.2256747
201	0x40141ef3	2.314389
202	0x402fdff1	2.7480433
203	0xbef79acd	-0.4836029
204	0x40208837	2.508314
205	0xbf37a01c	-0.7172868
206	0xbf0d36fa	-0.5516201
207	0xc0526369	-3.2873175
208	0xbf90204d	-1.1259857
209	0xbedaff27	-0.4277279
210	0xc002e7ee	-2.0454059
211	0xbf99d55c	-1.2018237
212	0xbffaf775	-1.9606768
213	0xc0045fa5	-2.0683377
214	0xbfa34be2	-1.2757533
215	0xbeb348df	-0.35016534
216	0xbfb5b2b4	-1.4195161
217	0x3fe9d889	1.8269206
218	0x405b3a66	3.4254394
219	0xc007cd49	-2.1219046
220	0xc00c5cd4	-2.1931658
221	0x3fe8cfbc	1.8188396
222	0x3e99b0d9	0.30017737
223	0xbf511240	-0.8166847
224	0xbfceb1bc	-1.614799
225	0xbfb4f843	-1.4138263
226	0xbff91785	-1.9460303
227	0xc0333c54	-2.8005571
228	0x3fa8fc76	1.3202045
229	0xc00cdea1	-2.2010882
230	0x3f906b8a	1.1282818
231	0xbe817589	-0.25284985
232	0x3fbad6e2	1.4596827
233	0xbfebacc6	-1.8412101
234	0xbf67e742	-0.90587246
235	0xbe97d3c5	-0.29653755
236	0xbffa6bb8	-1.9564123
237	0xbfb4e830	-1.4133358
238	0x3d4f0abc	0.050547346
239	0xbfa7d05b	-1.311046
240	0xbfa1f3dd	-1.2652546
241	0xc01ec13b	-2.4805439
242	0x4078d0ac	3.8877363
243	0x3fdeaccc	1.7396483
244	0xbfe73665	-1.8063475
245	0xbd823261	-0.06357265
246	0x3f21d049	0.6320844
247	0xc01f547a	-2.489531
248	0xbfc41819	-1.5319854
249	0xc00bc42f	-2.183849
250	0xc0828399	-4.078564
251	0xbf8b487c	-1.0881495
252	0xbf3045a2	-0.6885625
253	0xc098fce1	-4.780869
254	0x3ffcf65d	1.9762684
255	0x3ddfc569	0.10926325

fc2.weight f4 [256, 256]
0	0x3f161dc7	0.58639187
1	0xc117e9d1	-9.494584
2	0xbf69c3d5	-0.9131444
3	0xbd7e506b	-0.06208841
4	0xbb829889	-0.0039854688
5	0xbe805e9b	-0.25072178
6	0xbe0c582d	-0.13705511
7	0xbc9e6682	-0.019335989
8	0x3ed30347	0.41213438
9	0xbe15fcbe	-0.14647195
10	0xbd0157a4	-0.03157772
11	0xbba1529f	-0.0049231793
12	0x3c3187ea	0.010835627
13	0xbd0334ee	-0.0320329
14	0xbd6b4f01	-0.05744839
15	0xbd7b1be9	-0.061305914
16	0xbf7cfb56	-0.9882101
17	0xbe1eeacc	-0.15519255
18	0x3d9ce16c	0.07660183
19	0xbd419853	-0.04726441
20	0xbcbf8b47	-0.023381842
21	0x3da50a54	0.080586106
22	0x3ea3289f	0.3186693
23	0xbd6a216c	-0.05716078
24	0x3cb0ea9a	0.021596242
25	0xbce09744	-0.02741588
26	0xbe80dcb7	-0.25168392
27	0xc0316ecf	-2.7723882
28	0x3d527347	0.05137947
29	0xc00abc1b	-2.167731
30	0xbd4a454e	-0.0493825
31	0xc017f2cb	-2.374194
32	0xbc9c266f	-0.019061295
33	0x3e9bbcae	0.3041739
34	0x3ea476e1	0.32121947
35	0xbdad458b	-0.0846053
36	0x3ea9dbb8	0.33175445
37	0x3e7d4edb	0.24737112
38	0xbd8c7eb8	-0.06860107
39	0xbdd2cdb3	-0.1029314
40	0x4006cf3e	2.106399
41	0xc16ca221	-14.789582
42	0xbd49f21c	-0.04930316
43	0xbd58e9a3	-0.05295719
44	0xbd092ae3	-0.033488166
45	0xbe4af647	-0.1982051
46	0xbcaefd00	-0.021360874
47	0xbe6fa443	-0.23402505
48	0xbe277d2d	-0.16356345
49	0xbfa0f906	-1.2575996
50	0x3e94799b	0.28999028
51	0x3ebfead6	0.37483853
52	0xbea62053	-0.32446536
53	0xbbe0007f	-0.0068359966
54	0x3e9a8368	0.3017838
55	0xbc64d723	-0.013967308
56	0xbf1110e0	-0.56666374
57	0xbe7d844d	-0.247575
58	0xbedd13b0	-0.43179083
59	0x3e6630a2	0.2247949
60	0x3f0e9a4c	0.5570419
61	0xbdbdbd5c	-0.09264633
62	0xbf0366a9	-0.5132852
63	0xbe18a645	-0.14907177
64	0xbee7db87	-0.45284674
65	0xbfb34059	-1.4004012
66	0x3ed4a828	0.41534543
67	0xbc283661	-0.010266871
68	0x3e975062	0.29553515
69	0xc0271862	-2.6108632
70	0xbe127bb4	-0.14305001
71	0x3f484dc9	0.7824369
72	0x3dcc68c3	0.09980919
73	0x3d281208	0.04103282
74	0x3b54943b	0.0032436985
75	0xbe50ecd1	-0.20402838
76	0xbcb1bb5f	-0.02169579
77	0x3cc41e0a	0.023940105
78	0xc00fcd7b	-2.2469165
79	0xbd517889	-0.051140342
80	0x3eb48865	0.3526031
81	0x3f514eaf	0.81760687
82	0xbd505c19	-0.05086908
83	0xbebadd3a	-0.36496907
84	0xbfa6e29b	-1.3037905
85	0xbe2f9e01	-0.17150117
86	0x3a28ca73	0.00064388587
87	0x405e8907	3.4771135
88	0xbc1ffcae	-0.009764833
89	0x3d29ac26	0.04142394
90	0xbe1e87a3	-0.15481429
91	0x3d24eeaf	0.04026669
92	0xbfac3bd2	-1.3455756
93	0x3eab2485	0.334263
94	0x3f61febb	0.8827931
95	0xbf21c2fa	-0.63188136
96	0xbb97047c	-0.004608689
97	0x3f3d8864	0.7403624
98	0xbdb01a28	-0.08598739
99	0xbd3438e1	-0.043999556
100	0x3c48ea07	0.012262828
101	0xc04cba68	-3.1988773
102	0xbd66abf3	-0.056316327
103	0xbdf01cc1	-0.11724234
104	0xbe80a221	-0.25123695
105	0xbcb6c243	-0.022309428
106	0xbf301e47	-0.687962
107	0x3ecb97c5	0.39764228
108	0xbe05ab95	-0.13053735
109	0xbd59c76f	-0.05316871
110	0x3f41df0a	0.75730956
111	0xbec29891	-0.38007024
112	0x3b6c3331	0.0036041255
113	0xbd12e7f2	-0.03586573
114	0x3d30ec2c	0.04319398
115	0xbd0ab76a	-0.033866324
116	0x3e10b0f4	0.14130002
117	0xbe1dd421	-0.15412952
118	0x3e792e03	0.24333958
119	0xbe209ccb	-0.15684812
120	0xbf3df41c	-0.74200606
121	0x3ea04e17	0.31309578
122	0xbd3d9849	-0.04628781
123	0xbe1f0bcf	-0.15531848
124	0xbd557ec3	-0.052122843
125	0xbee4bb54	-0.4467417
126	0xbe93e6fc	-0.28887165
127	0xbd0106bd	-0.031500567
128	0xbebbd714	-0.3668753
129	0x3d73a4df	0.059483405
130	0x3ee1cfc1	0.44103816
131	0xbdf956a6	-0.1217473
132	0x3e80b5f8	0.2513883
133	0x3d4795b6	0.04872676
134	0xbf949242	-1.1607134
135	0xbce12364	-0.027482696
136	0xbe4e26dc	-0.20132011
137	0xbf16f7ed	-0.58972055
138	0xbd3771ac	-0.04478614
139	0xbd446912	-0.047951765
140	0xc01b68a0	-2.4282608
141	0xbddd557a	-0.10807319
142	0xbdce5676	-0.10075085
143	0xbf372162	-0.71535313
144	0x4033a615	2.8070118
145	0xbd6d92f3	-0.05800147
146	0x3c898436	0.016786676
147	0x3f2d0aa0	0.6759434
148	0x3f146e2a	0.57980597
149	0xbf3abebe	-0.729473
150	0x3d768074	0.060181096
151	0x3da26431	0.07929266
152	0x3d1098a1	0.03530181
153	0xbe323219	-0.17401923
154	0x3b661588	0.0035108048
155	0x3d1480e3	0.03625573
156	0xbee45f73	-0.44604072
157	0x3f783036	0.96948564
158	0x3c569a13	0.013098258
159	0x3f047209	0.51736504
160	0x3bc73f44	0.00608054
161	0xbf382f03	-0.71946734
162	0xbe682ab1	-0.22672535
163	0xbd824d0d	-0.063623525
164	0x3d288a0f	0.041147288
165	0xbdde290b	-0.10847672
166	0x3ce97b8c	0.028501295
167	0xbd08f7dd	-0.033439506
168	0xbffcb554	-1.9742837
169	0xbf3dd482	-0.74152386
170	0x3d4f249b	0.05057202
171	0x3e9e4d02	0.30918127
172	0xbe12663c	-0.14296812
173	0x3f364809	0.71203667
174	0x3f191021	0.59790236
175	0x3f993e55	1.1972147
176	0xbc9e64c0	-0.01933515
177	0xbdb28e0c	-0.087184995
178	0x402051cb	2.5049922
179	0xbe8c06b0	-0.27348852
180	0x3d59589c	0.05306302
181	0x3dfec2a1	0.12439466
182	0xbd612eb3	-0.054976176
183	0xbe69a1d3	-0.22815637
184	0x3e3ccab6	0.18436703
185	0xbebbc9ed	-0.36677495
186	0x3ee02590	0.43778658
187	0x3e6f6d98	0.2338165
188	0x3d31aa66	0.043375395
189	0xbe7dc588	-0.24782383
190	0x3fb74e96	1.4320858
191	0x3f0f24f0	0.5591574
192	0x3d31225f	0.04324567
193	0xbe477d9e	-0.19481513
194	0xbd0209ed	-0.031747747
195	0x3e154b01	0.14579393
196	0xc08636e4	-4.1942005
197	0x3e404dd5	0.1877969
198	0xbf04fa09	-0.51944023
199	0x3d5ff2df	0.05467498
200	0x3e7de319	0.24793662
201	0x3f0d93b1	0.55303484
202	0x3cdf613b	0.027268043
203	0x3d63d5e1	0.055623893
204	0x3fd2854d	1.644693
205	0x3d226fd8	0.039657444
206	0x3d0cc039	0.034363005
207	0x3eeefc11	0.46676686
208	0xbe03ec3d	-0.12883087
209	0xbdab762f	-0.08372151
210	0x3b2aec9e	0.0026080976
211	0xbed7cbd8	-0.42147708
212	0xbe64d793	-0.2234786
213	0xbfb2bc1e	-1.3963659
214	0x3f30eb89	0.691094
215	0xba0dc18e	-0.0005407565
216	0xbd3b414f	-0.04571658
217	0xbf0898c2	-0.5335809
218	0xbe455097	-0.19269024
219	0xbd91e65d	-0.071240164
220	0xbd0f1d41	-0.034940008
221	0xbebe15e6	-0.37126082
222	0x3e8fdc4d	0.28097764
223	0xbde5f828	-0.11228973
224	0xbda6486e	-0.081192836
225	0x3f091412	0.5354625
226	0xbb6b8d71	-0.003594246
227	0xbdf21534	-0.118204504
228	0x3e7c570b	0.2464258
229	0x3cec5e32	0.02885351
230	0xbeaea2b7	-0.34108517
231	0x403a99c9	2.9156363
232	0x3f2822cd	0.656781
233	0xbec8e474	-0.39236796
234	0xbd6891d1	-0.056779686
235	0x3db1fabc	0.08690402
236	0x3f00edc3	0.50362796
237	0xbd8b0167	-0.06787377
238	0xbcbd1d24	-0.023085184
239	0xbd904e5a	-0.070461944
240	0xbd1d7c8f	-0.038448866
241	0xbd425dbb	-0.04745267
242	0xbf1faa66	-0.6236938
243	0x3db05edd	0.08611844
244	0xbda06cd5	-0.07833258
245	0xbd9e10b1	-0.077180274
246	0x3f0ce1f9	0.55032307
247	0xbe7febf1	-0.24992348
248	0x3e249254	0.16071445
249	0x3e9a4c1c	0.30136192
250	0x3e999b03	0.30001077
251	0x3e403373	0.18769626
252	0xbefcc7ec	-0.49371278
253	0xbf103d6a	-0.5634371
254	0xbe866858	-0.26251483
255	0x3ebc6fec	0.3680414

fc2.bias f4 [256]
0	0xbfd90a31	-1.6956235
1	0xbd058d97	-0.032605734
2	0x3efe3e7e	0.49657053
3	0x3e2a159c	0.16609806
4	0x3c99cd17	0.018774552
5	0xbfa754b6	-1.3072727
6	0xbec7cb3d	-0.39022246
7	0xbdb317a9	-0.08744747
8	0xbdc0bbb6	-0.09410803
9	0x3ca24d7e	0.019812342
10	0xbbf54b9f	-0.0074858214
11	0xbd412e7f	-0.047163483
12	0x3ba3ae46	0.0049951402
13	0xbc89813b	-0.016785255
14	0xbf020ae9	-0.507979
15	0xbfaf8f35	-1.3715578
16	0xbdbc40a9	-0.091920204
17	0x3fd39a89	1.6531535
18	0xbdc690e2	-0.09695603
19	0xbd9b2d6a	-0.075770214
20	0xbdc9bd9b	-0.098506175
21	0xbd7ad311	-0.061236445
22	0xbd1ab0d2	-0.037766285
23	0xbbb179a2	-0.005416111
24	0xbe089881	-0.13339426
25	0xc049932b	-3.1496074
26	0x3f20f557	0.6287436
27	0xbd153b36	-0.03643342
28	0xbc921445	-0.01783193
29	0x401f790e	2.4917636
30	0x3ec10323	0.37697706
31	0x3b82f507	0.0039964947
32	0xbd2a2b08	-0.041544944
33	0xbc343afe	-0.011000393
34	0xbe37d65a	-0.17952862
35	0x3b5aed24	0.0033405507
36	0xbbd47443	-0.006483586
37	0x400c07c9	2.1879752
38	0x3c60b017	0.013713858
39	0xbc98c933	-0.018650627
40	0x3f89ea52	1.0774634
41	0xbc7b17af	-0.015325471
42	0xbf1b2b31	-0.6061278
43	0xc02e71d1	-2.7256968
44	0xbd94245f	-0.072335
45	0xbe1511a5	-0.14557512
46	0xbd0a02ec	-0.033694193
47	0xbf3556a0	-0.70835304
48	0x3d1e4dfe	0.038648598
49	0xbfc1f5cc	-1.5153136
50	0x3a7f313e	0.00097348157
51	0xbd893a21	-0.0670054
52	0xbd8f6a9f	-0.07002758
53	0xbf55fe02	-0.8359071
54	0x3b41c6a0	0.0029567853
55	0x3ccbe405	0.024889002
56	0x3d14cb29	0.03632656
57	0xbd177a31	-0.036981765
58	0x400052a4	2.005044
59	0x3f26e60b	0.6519477
60	0xbd6b4418	-0.057437986
61	0x3e065ae4	0.1312061
62	0x3be3a425	0.006947058
63	0xbf5eb7d1	-0.8699923
64	0xbf97f09e	-1.1870306
65	0x400f46d7	2.2386987
66	0xbdf7a562	-0.12092091
67	0xbdca3585	-0.09873489
68	0xbdb983cd	-0.09058342
69	0xbbf360b7	-0.007427301
70	0xbe0ef8c4	-0.13962084
71	0xbdb27e12	-0.08715452
72	0xbbe18d54	-0.0068833027
73	0xbf9b8d16	-1.2152431
74	0x3d077541	0.033070806
75	0xbf55f581	-0.83577734
76	0x3b1392f0	0.0022518001
77	0xbd294f0e	-0.041335158
78	0xbda43b84	-0.08019164
79	0xbd51270f	-0.05106264
80	0x3f03f2d7	0.5154242
81	0xbf839780	-1.0280609
82	0xbe18d107	-0.14923488
83	0xbd7eb745	-0.0621865
84	0x3f01d24a	0.507115
85	0xbd560f0f	-0.052260455
86	0x3fe192d6	1.7622936
87	0xbd0dbb8e	-0.034602694
88	0xc00cd5ef	-2.2005575
89	0x3baa05aa	0.0051886635
90	0xbd03fe94	-0.032225206
91	0xbc8c21c2	-0.01710594
92	0xbc36406f	-0.011123761
93	0x3e6879d9	0.22702731
94	0xbc8eb064	-0.017418094
95	0xbd91eb11	-0.071249135
96	0xbd36ea77	-0.044657197
97	0x3ec316c5	0.3810331
98	0xbd88b757	-0.06675594
99	0xbd6f2836	-0.058387958
100	0xbde65ed0	-0.11248553
101	0x3ae0ff89	0.0017165999
102	0xbdeb8217	-0.11499422
103	0xbdf72fc5	-0.12069658
104	0xbf689aa2	-0.9086095
105	0xbcb2765f	-0.02178496
106	0x3cf7b651	0.030238302
107	0xc0474682	-3.1136785
108	0x402773a6	2.6164336
109	0xbc739035	-0.014865925
110	0x3f62acdf	0.8854503
111	0xbf8e9b75	-1.1141192
112	0xbdcc5bc8	-0.099784434
113	0xbf8c128f	-1.0943164
114	0xbe78e528	-0.24306166
115	0x3d5ce452	0.05392868
116	0xbe812cd2	-0.25229508
117	0xbfc5fb6b	-1.5467352
118	0xbbeb02bd	-0.0071719573
119	0xbdd3513c	-0.103182286
120	0xbe1113c9	-0.14167704
121	0x3f350126	0.7070488
122	0x3e842ab1	0.2581382
123	0xbd48707a	-0.04893539
124	0xbfc0c02b	-1.5058645
125	0xc0372401	-2.8615725
126	0xbeefb41a	-0.46817094
127	0xbfb9c7e2	-1.4514124
128	0xbdbd70be	-0.092500195
129	0xbbb270a4	-0.0054455567
130	0xbd0cdc21	-0.03438962
131	0x3d0d2575	0.03445955
132	0xbd5cb7e0	-0.053886294
133	0x3e867f76	0.2626912
134	0xbdfac1a7	-0.122439675
135	0x3c5b8b76	0.013399949
136	0xbd916b1c	-0.071005076
137	0xbedfad28	-0.43686795
138	0xbe51b53d	-0.20479293
139	0xc001e7c3	-2.0297706
140	0xbdabfeae	-0.08398186
141	0xbe2d383b	-0.16915981
142	0x3f616701	0.88047796
143	0x3df24eea	0.11831458
144	0xbcb859a0	-0.022503674
145	0xbf03538b	-0.5129935
146	0xbdbed344	-0.093176395
147	0x3f206100	0.6264801
148	0xbdddb063	-0.10824659
149	0xbc810207	-0.015748037
150	0x3f3863af	0.72027105
151	0xbed8ab53	-0.4231821
152	0x3f94311f	1.157749
153	0x3caf2e28	0.021384314
154	0xba7cfbbf	-0.000965055
155	0x3f1e88ba	0.6192738
156	0xbd905f0d	-0.070493795
157	0xbf271d34	-0.65278935
158	0xbfd2749e	-1.6441839
159	0x3bfe27bf	0.007756203
160	0x3cd59f92	0.026077066
161	0x3fbab798	1.4587278
162	0xbf9ccd24	-1.2250104
163	0x3fa86306	1.315522
164	0xbdf4a8b8	-0.11946243
165	0xbdb7c29c	-0.08972666
166	0x40075ed9	2.115164
167	0x3bddae0a	0.006765132
168	0xbdd50a8e	-0.10402404
169	0xbdc25aae	-0.09489952
170	0x3cba33dc	0.022729807
171	0x3cbefed7	0.023314876
172	0x3b8ce535	0.0042997845
173	0x3f514273	0.8174202
174	0x3c570f9f	0.013126283
175	0x3cbf2953	0.023335135
176	0xbe9d6662	-0.30742174
177	0xbbc9c01a	-0.0061569335
178	0xbf83b421	-1.0289346
179	0xbfff8b6a	-1.9964421
180	0xbf9b9a9b	-1.2156557
181	0xbffa3930	-1.9548702
182	0xbd312361	-0.04324663
183	0xbbf2a265	-0.007404613
184	0xbdcd35a4	-0.10019997
185	0x3f149e73	0.58054274
186	0x3f8b5caf	1.088766
187	0xbd16c4bf	-0.036808725
188	0xbd8e87c3	-0.06959488
189	0x3faf8b82	1.371445
190	0x3c854470	0.016267985
191	0xbc365810	-0.011129394
192	0xbfe1b65f	-1.763378
193	0x3fc6f985	1.5544897
194	0x4004d51e	2.0755076
195	0x3c93953c	0.018015496
196	0x3e236cc2	0.15959457
197	0xbdd85d6c	-0.10564694
198	0xbe0b727d	-0.13617893
199	0xbdac3b0a	-0.08409698
200	0xbf4ce11a	-0.8003098
201	0xbdbd2d19	-0.09237117
202	0xbf36af87	-0.71361583
203	0xbda0f8dd	-0.07859967
204	0xbd21baca	-0.039484777
205	0xbdab1738	-0.08354038
206	0xbbd381d2	-0.006454685
207	0xbcb96cc8	-0.022634879
208	0xbf8fca0f	-1.1233538
209	0xc00a4a0b	-2.1607692
210	0x3f455184	0.7707751
211	0xbe925945	-0.28583732
212	0xbd91f85e	-0.071274504
213	0xbfcd20a6	-1.6025589
214	0x3eecc196	0.46241444
215	0x3fb4b011	1.4116231
216	0x3fe5997b	1.7937464
217	0xbdcf80a7	-0.1013196
218	0xc080e4f2	-4.0279474
219	0x4017f1cd	2.3741333
220	0x3af0edcd	0.0018381417
221	0x3c95174f	0.018199591
222	0xbd3c29af	-0.04593819
223	0x3c81f71a	0.015864898
224	0x3ba7b7df	0.0051183547
225	0x3b70847e	0.0036700065
226	0x3faba965	1.341107
227	0xbd3d0d65	-0.046155352
228	0xbe179652	-0.14803436
229	0x3c934a89	0.017979877
230	0xbb9b242c	-0.0047345366
231	0xbc60e192	-0.013725655
232	0x3e654d50	0.22392774
233	0xbd92dd9a	-0.071711734
234	0xbf5c2ce2	-0.86005986
235	0xbd8adc3d	-0.06780288
236	0x3f3b4a57	0.7316031
237	0xbd6997ad	-0.057029415
238	0x3c61d988	0.013784774
239	0x3cb59906	0.022167694
240	0xbd3ba839	-0.045814727
241	0xbc9c4e74	-0.019080378
242	0xbe92432c	-0.28566873
243	0xbd9cecb3	-0.07662334
244	0xbda4f272	-0.08054055
245	0xbfafd716	-1.3737514
246	0x3c866414	0.016405143
247	0xbe89f3c8	-0.26943803
248	0x3ce0887b	0.027408829
249	0x3c97a4bc	0.018511169
250	0xbd770417	-0.060306635
251	0xbe3077b5	-0.17233165
252	0xbd98e8e8	-0.07466298
253	0x3f4a124a	0.78934157
254	0x3f2c0eda	0.6721016
255	0xbd547bc5	-0.05187585

fc3.weight f4 [24, 256]
0	0x3db3818f	0.08764946
1	0xba9f128c	-0.0012136265
2	0x3e1c2617	0.15248905
3	0x3cea31c5	0.028588185
4	0x3d26f979	0.04076526
5	0x3e3751a9	0.17902245
6	0x3deb9396	0.11502759
7	0x3d089e7d	0.03335427
8	0xbdabfdab	-0.08397993
9	0xbd16784e	-0.036735825
10	0x3c26c5ea	0.010179022
11	0xbd9b955b	-0.07596847
12	0x3c949931	0.018139454
13	0xbc7383a1	-0.014862926
14	0x3e2cb46c	0.168657
15	0x3ebbc55e	0.36674017
16	0xbde1738b	-0.11008366
17	0x3e748444	0.2387858
18	0xbcef5744	-0.029216416
19	0xbdf77987	-0.120837264
20	0xbcb3c5e6	-0.021944951
21	0x3cd07a8e	0.025449064
22	0xbd0b59ec	-0.034021303
23	0xbced656c	-0.028979026
24	0x3d1251eb	0.035722654
25	0x3e00e9c8	0.1258918
26	0x3ccf090f	0.025272874
27	0xbd336df2	-0.043806024
28	0xbd37581f	-0.044761773
29	0x3d9787e6	0.073989674
30	0x3d4eaa43	0.050455343
31	0xbd1950b0	-0.037430465
32	0xbcb88362	-0.022523586
33	0x3d13607e	0.035980694
34	0x3d073d20	0.033017278
35	0xbd22a426	-0.039707325
36	0xbce8ea84	-0.028432138
37	0x3dcd240f	0.10016643
38	0xbd154e43	-0.03645159
39	0xbde2c464	-0.11072615
40	0x3db6f953	0.089342736
41	0x3c6cb5e3	0.014447662
42	0xbe87692e	-0.26447433
43	0xbe35b28a	-0.17743888
44	0xbc905f8f	-0.01762369
45	0x3d93f0cf	0.07223665
46	0xbdc42453	-0.09577241
47	0x3e640d82	0.22270778
48	0x3d78df29	0.060759697
49	0x3e827b0f	0.2548451
50	0x3d2020a5	0.039093632
51	0xbdb0a2f7	-0.08624833
52	0xbcdbab8b	-0.026815196
53	0xbd1d42d5	-0.038393814
54	0x3d835b7e	0.06413935
55	0x3c9ba72d	0.019000614
56	0x3d2421f0	0.040071428
57	0x3d5bebcd	0.053691674
58	0x3d171442	0.036884554
59	0xbd129db9	-0.035794947
60	0xbd8c7a09	-0.06859214
61	0xbbe7c16f	-0.0070726196
62	0x3d6ad827	0.057335045
63	0x3de9f9cb	0.11424597
64	0x3d563f62	0.05230654
65	0x3e8ce007	0.2751467
66	0x3d61fa26	0.0551702
67	0xbd170fca	-0.036880292
68	0x3cae7c6a	0.02129956
69	0xbd2ec440	-0.042667627
70	0x3d3dd970	0.046349943
71	0xbc960f32	-0.018317793
72	0xbb6b537c	-0.0035907915
73	0xbe817ef3	-0.25292167
74	0x3d268c46	0.04066112
75	0xbe01d69f	-0.12679528
76	0xbc5d04d0	-0.013489917
77	0xbce5ce3e	-0.028052446
78	0xbd3e597d	-0.04647206
79	0xbc43a8f3	-0.011942136
80	0xbcfc173e	-0.030772801
81	0x3e068443	0.13136391
82	0xbdc4888e	-0.09596358
83	0xbcaa121b	-0.020760586
84	0x3da17c84	0.078850776
85	0xbd85733d	-0.065161206
86	0x3c284584	0.01027048
87	0xbd22e2ef	-0.039767202
88	0xbd9c7402	-0.07639314
89	0xbc490f63	-0.012271735
90	0xbd2d0031	-0.04223651
91	0xbdad690d	-0.084673025
92	0x3bf38e54	0.0074327383
93	0x3e8b33da	0.27187997
94	0x3c399320	0.011326581
95	0x3d727605	0.059194583
96	0xbc690e5d	-0.014224616
97	0xbe8de223	-0.2771159
98	0xbc596900	-0.013269663
99	0xbd6f57ff	-0.05843353
100	0x3d52e270	0.05148548
101	0x3ce84c48	0.028356686
102	0x3d351dee	0.044217996
103	0xbd895a51	-0.067066796
104	0xbda41a52	-0.08012833
105	0xbe335349	-0.1751224
106	0x3d8265c9	0.0636707
107	0x3ebbc995	0.36677232
108	0x3e093f0b	0.13402955
109	0xbc521cc0	-0.012824237
110	0x3e19f424	0.15034539
111	0x3cf13cb9	0.0294479
112	0xbc2df9e5	-0.0106186615
113	0x3de68047	0.11254936
114	0x3d27da52	0.04097969
115	0xbd24d552	-0.0402425
116	0x3d075e7d	0.033049095
117	0xbd8be94f	-0.068316095
118	0xbc795d58	-0.015220009
119	0xbd837f1b	-0.06420728
120	0x3ca903a2	0.020631615
121	0xbcfd5c1d	-0.030927712
122	0xbe8423bc	-0.25808513
123	0xb8dc082e	-0.00010491941
124	0x3e2d32fd	0.16913982
125	0x3decec35	0.115684904
126	0xbe0a008d	-0.13476773
127	0x3d31d848	0.043419152
128	0xbc3534c0	-0.01105994
129	0x3b215443	0.0024616874
130	0x3e065e02	0.13121799
131	0x3d81a135	0.06329576
132	0x3c2fc17b	0.010727282
133	0xbe10d8ea	-0.14145246
134	0xbcc050f3	-0.0234761
135	0x3d014e08	0.031568557
136	0xbcac23f2	-0.021013234
137	0x3d93110e	0.07180987
138	0x3d0add67	0.033902552
139	0xbd9bf1ff	-0.076145165
140	0x3d02bbdc	0.031917438
141	0xbd9452ff	-0.07242393
142	0x3da284e7	0.07935505
143	0xbda525ba	-0.080638364
144	0x3c4e4680	0.012590051
145	0x3e00726d	0.1254365
146	0xbd9e58b0	-0.077317595
147	0x3e8ba4bb	0.27274117
148	0xbd397a29	-0.045282517
149	0x3d01c54c	0.031682298
150	0xbe1ae028	-0.15124571
151	0x3d10095c	0.035165176
152	0x3d032a94	0.032023028
153	0x3cccbc09	0.024992006
154	0x3b189657	0.002328297
155	0x3d427273	0.04747243
156	0xbc07abd1	-0.00828071
157	0xbce29cb7	-0.027662618
158	0x3e68ab08	0.22721493
159	0xbcf1960c	-0.029490493
160	0x3bfe7880	0.0077658296
161	0xbdb638c1	-0.08897544
162	0x3e52446b	0.20533912
163	0x3dd2a642	0.102856174
164	0x3aca70d2	0.0015445
165	0xbe9cf046	-0.30652064
166	0xbca6b2c3	-0.020348912
167	0x3d178de8	0.037000567
168	0xbcbf564e	-0.023356583
169	0xbd9cf8c1	-0.076646335
170	0x3cee5c4f	0.02909675
171	0xbcd37da3	-0.025816744
172	0xbec43885	-0.3832437
173	0xbe51a5e1	-0.20473434
174	0x3baf29d8	0.0053455643
175	0x3d29db67	0.041469004
176	0x3debe720	0.11518693
177	0xbbcf1d55	-0.0063206353
178	0x3d8367d8	0.06416291
179	0x3d2f071f	0.0427314
180	0x3e4d7e18	0.20067632
181	0x3dce0a2e	0.10060535
182	0xbd9c6380	-0.076361656
183	0xbd0c4595	-0.034246046
184	0x3b8546bb	0.0040672696
185	0x3e02e3c3	0.12782197
186	0xbe178626	-0.14797267
187	0x3d74ebfb	0.05979536
188	0x3c597f75	0.013275017
189	0xbd3258d1	-0.043541733
190	0xbd9422d2	-0.07233204
191	0xbc042782	-0.00806606
192	0x3e227376	0.15864357
193	0xbca7ca55	-0.020482222
194	0x3d3aff14	0.045653418
195	0xbc9db373	-0.019250607
196	0x3d941e8c	0.07232389
197	0xbda25b42	-0.07927562
198	0x3d8e0d01	0.06936074
199	0xbcd8750c	-0.026423
200	0xbdbf7b4a	-0.093496874
201	0xbc6d920a	-0.01450015
202	0x3e409264	0.18805844
203	0xbc3815a0	-0.011235625
204	0x3d8b139d	0.0679085
205	0xbcd03bc0	-0.025419116
206	0x3d611942	0.05495573
207	0xbdb59038	-0.08865398
208	0x3e77e5b0	0.24208713
209	0x3d0a40e2	0.033753283
210	0xbdbab620	-0.09116769
211	0xbdd4377d	-0.10362146
212	0xbdacd1c8	-0.0843845
213	0x3dd62de5	0.104579724
214	0xbd97664e	-0.0739256
215	0xbe0dfd99	-0.13866271
216	0xbe0a119c	-0.1348328
217	0xbd14825e	-0.03625714
218	0xbd3d4d94	-0.046216562
219	0xbe2a66b3	-0.16640739
220	0xbd391f0a	-0.045195617
221	0xbdf67424	-0.12033871
222	0xba5826b9	-0.0008245516
223	0x3d1e90e2	0.03871239
224	0xbc1d714b	-0.009609531
225	0xbd34ca59	-0.044138286
226	0x3df47a1f	0.11937355
227	0x3d21aed6	0.039473377
228	0xbe237c3c	-0.1596536
229	0x3c13743f	0.008999883
230	0xbda1632b	-0.07880243
231	0x3cd8c0d2	0.026459131
232	0xbde846d7	-0.11341637
233	0xbcae63c5	-0.021287808
234	0xbdf3e6ca	-0.11909254
235	0xb913c9e5	-0.00014094224
236	0x3d185b62	0.037196524
237	0x3b8e5067	0.004343081
238	0x3d4b20f8	0.04959199
239	0xbd78a5c4	-0.06070496
240	0xbd86bf76	-0.06579487
241	0xbd35e738	-0.04440996
242	0xbdeafa5f	-0.11473536
243	0x3cc6b1e0	0.02425474
244	0xbd7fc807	-0.06244662
245	0x3dd38773	0.10328569
246	0x3c7d07b0	0.015443727
247	0x3e217f36	0.15771183
248	0x3d406416	0.04697045
249	0xbc8acd35	-0.016943553
250	0xbc298afa	-0.010348076
251	0x3e9d9492	0.30777413
252	0xbd1ae117	-0.03781232
253	0xbe5655cd	-0.20931168
254	0xbded4d14	-0.11586967
255	0x3d94cf70	0.07266128

fc3.bias f4 [24]
0	0x3f7d8619	0.9903274
1	0xbf32ef63	-0.69896525
2	0x3fb2a8a4	1.3957715
3	0x3ec256ff	0.37956998
4	0xbeaeba2d	-0.34126416
5	0xbf89b2e9	-1.0757724
6	0x3f74a9ab	0.9557139
7	0x3f3267b2	0.69689476
8	0x3f827b93	1.0193962
9	0xbfe6c595	-1.8029047
10	0xbf20cba5	-0.62810737
11	0xbfe57eef	-1.7929362
12	0x3eef327e	0.4671821
13	0x3ef239c5	0.473097
14	0xbeeaf282	-0.45888144
15	0x3e1b6ad5	0.15177472
16	0x3eff6e63	0.49888906
17	0xbf731be2	-0.9496442
18	0xbfc279a2	-1.5193369
19	0xbe10fd5d	-0.1415915
20	0x3f1f2a90	0.6217432
21	0xbf387d09	-0.7206579
22	0xc0051dad	-2.0799363
23	0x3c434325	0.011917864
