models/generator.pth (torch, 466140 bytes, 6 tensors)

fc1.weight f4 [256, 32]
-0.17279014 -0.25708658 -0.13895072 -0.33217764 -0.33096743 -0.24791329 -0.32300797 -0.068448514
-0.16047142 -0.21343037 0.017115965 -0.32432717 0.008911009 0.009336776 -0.112188905 -0.19437893
-0.31476188 -0.100993164 -0.16871695 0.044965066 0.1000316 -0.121317126 -0.05953685 -0.2506244
-0.035669297 -0.26461402 -0.17264861 -0.025101693 -0.1738899 0.058361284 -0.19946519 0.15868752
-0.31299922 0.0339299 -0.048050936 -0.0752567 0.038284183 0.094564356 0.040240407 -0.029638961
0.086875245 0.08377349 -0.16012079 -0.05303962 -0.027250336 -0.088647276 -0.028732173 -0.0046298313
-0.14847784 -0.11356778 -0.030149229 -0.15171516 -0.17965502 -0.09263093 0.1744326 0.1399188
0.04245621 0.047779232 0.053492665 0.13899055 -0.06806138 0.041047405 -0.09984726 0.15987109
0.15416394 -0.11946153 0.007590676 0.08915935 -0.16091116 -0.057176057 0.13494052 -0.02030836
-0.10781173 0.16221741 -0.14490329 -0.12252079 -0.03179508 -0.18122424 0.1159631 0.062326353
0.16373271 0.04351963 -0.08263019 -0.07708705 0.103954665 -0.16565275 0.1521599 -0.11832741
0.06850703 -0.10230775 0.11223414 -0.031053679 -0.117993124 -0.11426316 -0.023496106 0.018159091
-0.033230256 -0.2246567 -0.07426743 -0.13132767 -0.09543782 0.13287872 -0.2528034 -0.24268462
-0.0691579 -0.15725955 0.077707276 0.044663824 -0.0032208548 -0.18245123 -0.14253686 0.1020028
0.028065886 0.16641004 -0.16550246 -0.164006 0.019701876 -0.16892701 -0.07591996 -0.10056654
0.0077020973 -0.09134039 0.023447441 -0.17893054 0.07259148 0.07802565 -0.18512538 -0.11384449
0.40987635 -0.041100033 -0.13779582 0.2252137 0.07474675 -0.1740024 0.029886471 0.12007715
0.20920014 -0.093734615 0.091443226 -0.1560398 0.03432146 0.12257583 0.041581854 0.33224326
0.015685398 0.16397338 0.06391359 0.034901217 0.05815203 0.04018586 0.25335285 -0.2249857
-0.016679361 -0.089764155 -0.1683225 0.05506433 -0.095591865 0.29561 -0.11056186 -0.1762766
-0.34001434 -0.16001022 0.012529401 -0.20804028 -0.05022264 -0.1641262 -0.033406686 -0.016158795
-0.25603253 -0.27121186 0.09067695 -0.24209213 -0.28497875 -0.20237496 -0.092768006 0.03030392
-0.07581581 0.085421756 -0.20222436 0.060835905 0.1312532 -0.26010248 0.011024844 -0.20934689
-0.026136398 0.070427045 -0.12243225 -0.24240993 -0.0036570297 -0.095785975 -0.025241297 -0.14821732
0.12669757 -0.015838087 0.101966396 0.06560916 -0.0036597336 -0.047243062 -0.0415006 -0.13168818
-0.13320987 -0.20845643 0.09237088 -0.08637199 0.028786803 -0.06983478 0.14250009 0.1385583
0.05918366 0.0035302788 0.07257662 -0.04454732 -0.0056941365 -0.14943002 -0.06612155 -0.12156209
0.09558533 -0.06635834 -0.18864134 0.11594234 0.13190135 0.22699127 -0.025336789 -0.020161003
-0.49319458 -0.18939497 0.05952512 -0.19714448 0.07790016 0.11638235 0.10422604 -0.100354396
-0.19466554 -0.09151 -0.10546741 0.066334866 0.06832699 -0.20084485 -0.11821763 -0.12381158
-0.10335613 0.014786392 0.112764545 -0.013387993 0.060189854 0.111075364 -0.009944311 0.022849068
0.1358531 -0.027342876 -0.18856981 -0.0038326266 -0.038671706 -0.2686367 0.15303822 -0.11305003
00000000: e6ef 30be daa0 83be 1949 0ebe 3013 aabe
00000010: 9074 a9be fbdc 7dbe 4d61 a5be bc2e 8cbd
00000020: 9f52 24be 7e8d 5abe c836 8c3c 360e a6be
00000030: 7bff 113c 47f9 183c 4cc3 e5bd 450b 47be
00000040: 7828 a1be 81d5 cebd 23c4 2cbe 4a2d 383d
00000050: 5edd cc3d 1d75 f8bd e9dc 73bd d751 80be
00000060: f819 12bd 7d7b 87be ccca 30be 11a2 cdbc
00000070: 3210 32be 3e0c 6f3d 9a40 4cbe fb7e 223e
00000080: 6f41 a0be 14fa 0a3d 0fd1 44bd 2f20 9abd
00000090: e0cf 1c3d f5aa c13d 20d3 243d 68cd f2bc
000000a0: a6eb b13d 6f91 ab3d b4f6 23be 1340 59bd
000000b0: 193c dfbc b48c b5bd bc5f ebbc d7b5 97bb
000000c0: 930a 18be 3996 e8bd 84fb f6bc 385b 1bbe
000000d0: 7cf7 37be 49b5 bdbd 769e 323e e046 0f3e
000000e0: 90e6 2d3d 28b4 433d 201b 5b3d 8a53 0e3e
000000f0: c463 8bbd 5321 283d b87c ccbd 3fb5 233e
00000100: 27dd 1d3e 3fa8 f4bd 35bb f83b 2d99 b63d
00000110: e5c5 24be 7131 6abd d92d 0a3e b85d a6bc
00000120: 65cc dcbd 521c 263e 8761 14be 2eec fabd
00000130: 8f3b 02bd d992 39be 107e ed3d eb49 7f3d
00000140: 8ca9 273e a441 323d 043a a9bd d1df 9dbd
00000150: 2fe6 d43d e0a0 29be cecf 1b3e a455 f2bd
00000160: 6a4d 8c3d ba86 d1bd 03db e53d 4964 febc
00000170: 61a6 f1bd ce02 eabd e87a c0bc 60c2 943c
00000180: 731c 08bd 680c 66be 8619 98bd c37a 06be
00000190: e774 c3bd 5c11 083e 726f 81be 5182 78be
000001a0: a8a2 8dbd a608 21be fe24 9f3d 6af1 363d
000001b0: fa14 53bb 7fd4 3abe 2ff5 11be d8e6 d03d
000001c0: 6eea e53c 6567 2a3e 7a79 29be 30f1 27be
000001d0: d465 a13c 34fb 2cbe ed7b 9bbd d5f5 cdbd
000001e0: e061 fc3b ac10 bbbd d914 c03c 9139 37be
000001f0: d8aa 943d e9cb 9f3d 8291 3dbe 4d27 e9bd
00000200: 50db d13e 8258 28bd 591a 0dbe 6c9e 663e
00000210: d314 993d af2d 32be 79d4 f43c 02eb f53d
00000220: 9038 563e eff7 bfbd 9646 bb3d e6c8 1fbe
00000230: a994 0c3d 0909 fb3d bc51 2a3d ca1b aa3e
00000240: aa7e 803c a3e8 273e 21e5 823d 94f4 0e3d
00000250: d330 6e3d ee99 243d 77b7 813e a762 66be
00000260: 28a3 88bc 45d6 b7bd bc5c 2cbe 238b 613d
00000270: abc5 c3bd 325a 973e 426e e2bd da81 34be
00000280: 5c16 aebe b8d9 23be 1e48 4d3c 8308 55be
00000290: 41b6 4dbd b310 28be 73d5 08bd 735f 84bc
000002a0: b216 83be 48dc 8abe d6b4 b93d 00e7 77be
000002b0: bce8 91be 623b 4fbe 27fd bdbd ed3f f83c
000002c0: 5245 9bbd 9af1 ae3d e713 4fbe 122f 793d
000002d0: 3d67 063e 272c 85be 8ca1 343c 085f 56be
000002e0: 001c d6bc 0e3c 903d c2bd fabd 4f3a 78be
000002f0: c7aa 6fbb 702b c4bd d6c6 cebc 48c6 17be
00000300: 02bd 013e e0be 81bc c2d3 d03d 185e 863d
00000310: 24d8 6fbb f181 41bd 88fc 29bd 44d9 06be
00000320: 2b68 08be 9a75 55be f22c bd3d cce3 b0bd
00000330: 4dd2 eb3c 8a05 8fbd 8beb 113e 3ae2 0d3e
00000340: 916a 723d 405c 673b 0da3 943d 4077 36bd
00000350: e195 babb 2f04 19be bc6a 87bd 8cf5 f8bd
00000360: 3ec2 c33d e2e6 87bd 322b 41be 2d73 ed3d
00000370: 2611 073e 6670 683e 198f cfbc b028 a5bc
00000380: 0084 fcbe c1f0 41be 9dd0 733d 3ee0 49be
00000390: 1e8a 9f3d df59 ee3d 7674 d53d 9b86 cdbd
000003a0: 6756 47be 9869 bbbd 4cff d7bd 93da 873d
000003b0: 05ef 8b3d 46aa 4dbe 161c f2bd ed90 fdbd
000003c0: 61ac d3bd a042 723c 19f1 e63d 5059 5bbc
000003d0: a389 763d 7b7b e33d 77ed 22bc f82d bb3c
000003e0: 131d 0b3e 2bfe dfbc 7218 41be ce2c 7bbb
000003f0: 3966 1ebd c08a 89be 0db6 1c3e c686 e7bd

fc1.bias f4 [256]
-0.08288829 0.13240816 0.10289083 0.070763 -0.0108635025 -0.24722423 0.10205468 -0.13927877
-0.07704056 -0.2159966 0.061713368 -0.09160394 -0.04413873 -0.039351594 -0.058717526 0.057037435
-0.1662695 -0.001689043 0.14830476 -0.122880004 -0.028970568 0.14537884 0.017277623 -0.054691166
-0.029418854 -0.12298838 0.35506606 -0.090022095 -0.039403725 -0.035831306 -0.20308903 -0.12283093
-0.24868214 -0.039795972 -0.14983122 -0.025331382 -0.027229065 -0.04531802 -0.30773112 -0.15782678
-0.13257575 -0.11906055 -0.15264702 -0.21586652 0.24598756 0.11004795 -0.14950223 0.0025693404
0.023442827 0.017760918 0.038316462 -0.07211676 -0.22701147 0.06887738 -0.13637605 -0.25957754
-0.004009416 -0.03455155 -0.0753708 -0.047107678 -0.032821096 -0.26620373 0.2521744 -0.00030207963
-0.068570405 -0.012982917 0.03365564 0.17416638 -0.14878215 -0.13873945 -0.21141657 0.1056302
-0.035201307 0.16178195 -0.03451615 0.037139185 0.038320728 0.13422787 -0.05199653 0.033860967
0.017671106 -0.26460105 -0.21991265 0.07150582 0.027260369 -0.057655964 -0.038882516 -0.095174946
-0.25367513 0.14052717 0.19864629 -0.027030673 -0.19015384 0.13379371 0.06980591 0.14865118
0.046039503 0.1028781 -0.03960154 -0.18006925 -0.20715244 -0.08031889 -0.18197529 0.054921985
0.0051276446 -0.083197154 -0.26262975 0.038759142 -0.08066021 -0.075889364 0.09474864 -0.0128635615
-0.19904116 -0.17170553 0.048018117 -0.109018624 -0.048688106 0.04974686 0.08088863 -0.104439944
-0.14163554 -0.10854993 0.115271516 0.1561304 -0.06917598 0.023348708 0.112658896 -0.24284299
0.18243937 0.11699188 -0.21736404 -0.06488244 0.114578456 0.016313996 0.22108157 -0.09697904
-0.17708053 -0.03548377 -0.13773611 0.0820329 0.032352343 -0.19700295 -0.13015626 -0.13397554
0.20910357 0.047413215 0.18220134 -0.01645041 0.010486579 0.25837114 0.08831032 -0.13395461
-0.2723695 0.054125927 -0.112959616 -0.010450691 0.011608957 -0.10963352 0.12037946 -0.16450638
-0.32362893 -0.019459836 -0.38997638 -0.22934866 -0.07145246 -0.062053017 -0.15221861 -0.0646301
-0.1874128 0.113786094 0.18704283 0.05786891 0.05239086 0.07324326 -0.029943671 0.09419358
0.13941278 -0.1847484 -0.17480831 0.05622784 0.21605848 -0.046683215 0.081296936 -0.115967944
0.043226585 0.034585897 -0.22659527 0.20168681 -0.021718701 -0.10167446 0.09203982 0.06375601
0.09461115 -0.1034682 -0.101924874 0.11154391 -0.045631852 0.038871005 -0.24528503 0.16665623
-0.14431542 -0.14215973 -0.12010995 0.08271971 0.0897895 -0.14798938 -0.08409728 0.0014382708
0.12302884 -0.20207787 -0.2629981 -0.27876717 -0.012856188 -0.2534436 -0.19102313 -0.07893414
-0.04203691 0.09931663 -0.092314325 0.07669818 -0.22071923 0.019335428 -0.1282219 0.067284346
0.10869162 0.08979604 -0.088533215 -0.09176135 -0.0541924 -0.06460107 0.05408665 -0.21337228
0.015381291 -0.029715793 0.058342747 0.04130001 -0.15641424 -0.2940798 -0.15909144 0.04367283
0.057856135 -0.061377365 -0.18505737 0.0632427 -0.12070065 0.11564697 -0.23381062 0.010272363
-0.20879087 -0.06392697 -0.0441268 -0.016141912 -0.11300058 0.040251132 -0.031123025 -0.25191212
00000000: 56c1 a9bd 0196 073e 6db8 d23d 31ec 903d
00000010: d5fc 31bc 5928 7dbe 0b02 d13d 189f 0ebe
00000020: 71c7 9dbd 362e 5dbe 28c7 7c3d d99a bbbd
00000030: d0ca 34bd 232f 21bd ca81 70bd 16a0 693d
00000040: 8d42 2abe e162 ddba 34dd 173e 83a8 fbbd
00000050: af53 edbc 31de 143e cd89 8d3c d803 60bd
00000060: cfff f0bc 55e1 fbbd 38cb b53e 815d b8bd
00000070: cd65 21bd d9c3 12bd 92f6 4fbe c88e fbbd
00000080: 88a6 7ebe 1a01 23bd 5b6d 19be c283 cfbc
00000090: 7d0f dfbc 639f 39bd ef8e 9dbe 589d 21be
000000a0: f0c1 07be 05d6 f3bd 804f 1cbe 1d0c 5dbe
000000b0: 2ae4 7b3e d260 e13d 1d17 19be 6162 283b
000000c0: 2c0b c03c 587f 913c b9f1 1c3d f4b1 93bd
000000d0: b275 68be 950f 8d3d 2aa6 0bbe 59e7 84be
000000e0: 6b61 83bb ed85 0dbd 025c 9abd fbf3 40bd
000000f0: 6a6f 06bd db4b 88be 011d 813e 7160 9eb9
00000100: a46e 8cbd 4db6 54bc 7fda 093d ac58 323e
00000110: 595a 18be b711 0ebe 967d 58be a554 d83d
00000120: 3f2f 10bd 2baa 253e ce60 0dbd 421f 183d
00000130: 32f6 1c3d 0873 093e 50fa 54bd ccb1 0a3d
00000140: ffc2 903c ca79 87be c830 61be a571 923d
00000150: 2351 df3c a928 6cbd 4643 1fbd 15eb c2bd
00000160: b5e1 81be 5be6 0f3e ef69 4b3e 6e6f ddbc
00000170: b0b7 42be 3801 093e 67f6 8e3d 0438 183e
00000180: eb93 3c3d c1b1 d23d 3935 22bd 1364 38be
00000190: c51f 54be 3b7e a4bd bb57 3abe e0f5 603d
000001a0: cd05 a83b 4563 aabd 6877 86be e8c1 1e3d
000001b0: 2e31 a5bd e26b 9bbd 930b c23d b0c1 52bc
000001c0: 72d1 4bbe 93d3 2fbe a5ae 443d 2845 dfbd
000001d0: 2e6d 47bd 5dc3 4b3d f0a8 a53d 9ce4 d5bd
000001e0: e808 11be 6d4f debd 7913 ec3d a6e0 1f3e
000001f0: 23ac 8dbd ca45 bf3c b5b9 e63d d5ab 78be
00000200: 63d1 3a3e 7099 ef3d ae94 5ebe 16e1 84bd
00000210: 1ca8 ea3d eea4 853c 3563 623e f29c c6bd
00000220: 9954 35be 6e57 11bd b20a 0dbe dd00 a83d
00000230: e483 043d 24bb 49be af47 05be e230 09be
00000240: 3f1f 563e 5c34 423d fd92 3a3e 03c3 86bc
00000250: e6cf 2b3c 3949 843e 0bdc b43d 662b 09be
00000260: 0474 8bbe 26b3 5d3d 5f57 e7bd 6039 2bbc
00000270: 7f33 3e3c 8a87 e0bd 8289 f63d 5c74 28be
00000280: b1b2 a5be 3c6a 9fbc fcaa c7be 60da 6abe
00000290: ab55 92bd 4e2b 7ebd 32df 1bbe c95c 84bd
000002a0: 24e9 3fbe af08 e93d 2888 3f3e f307 6d3d
000002b0: cc97 563d 9000 963d 6e4c f5bc 90e8 c03d
000002c0: 39c2 0e3e af2e 3dbe f300 33be 2a4f 663d
000002d0: 6f3e 5d3e e636 3fbd 027f a63d 9a80 edbd
000002e0: 5c0e 313d f1a9 0d3d 9708 68be fd86 4e3e
000002f0: 6beb b1bc b33a d0bd 607f bc3d 8392 823d
00000300: 7ec3 c13d 23e7 d3bd fdbd d0bd 2271 e43d
00000310: 77e8 3abd 3437 1f3d 002c 7bbe eea7 2a3e
00000320: 6cc7 13be 5292 11be 35fc f5bd f468 a93d
00000330: 8fe3 b73d 878a 17be 323b acbd 5c84 bc3a
00000340: 8bf6 fb3d 80ed 4ebe b0a7 86be 92ba 8ebe
00000350: c3a2 52bc 5cc3 81be 919b 43be 39a8 a1bd
00000360: e52e 2cbd 8466 cb3d 4b0f bdbd ef13 9d3d
00000370: 3904 62be 5565 9e3c 9a4c 03be 60cc 893d
00000380: b699 de3d fce6 b73d e750 b5bd 60ed bbbd
00000390: daf8 5dbd 914d 84bd f789 5d3d 437e 5abe
000003a0: cf01 7c3c 896e f3bc cef8 6e3d 332a 293d
000003b0: 0e2b 20be a191 96be dee8 22be 48e2 323d
000003c0: 8efa 6c3d d566 7bbd ae7f 3dbe 6485 813d
000003d0: e731 f7bd 52d8 ec3d 0d6c 6fbe 6a4d 283c
000003e0: 46cd 55be 25ec 82bd 4ebe 34bd 0b3c 84bc
000003f0: d96c e7bd 5fde 243d b7f5 febc a0fa 80be

fc2.weight f4 [256, 256]
-0.029726945 0.03857754 -0.039741654 0.03064225 0.05837199 -0.07260538 -0.05550204 0.021735562
0.0034408215 0.038247842 -0.001348667 0.06133845 -0.059327908 -0.08736172 -0.051593047 0.045512147
-0.024266232 -0.06122624 -0.022100609 -0.07986798 -0.062155124 -0.008013451 0.0037574947 -0.036213197
-0.010904283 0.056103967 0.14268216 0.033177428 0.028848805 0.0047121877 -0.0140452 -0.034820035
-0.057393495 0.015661526 -0.0994657 -0.06293303 0.03514582 -0.05232888 0.010407357 -0.032809507
0.0184608 -0.009291903 -0.00011595474 -0.024977252 0.14987098 -0.028272454 0.022885837 0.029831944
-0.029536728 0.0064780004 0.03726409 -0.021829084 0.030770006 -0.05503506 0.0039915773 -0.065930836
0.004359074 -0.034003817 -0.017638413 -0.043791663 -0.056584433 0.013977307 -0.053468693 -0.045917656
-0.054157723 -0.03266421 0.011875554 0.030609176 -0.023806624 -0.06263123 -0.012968759 0.003292027
-0.00057968125 -0.05051911 -0.046417683 0.07579831 0.011270226 0.1027634 -0.05072911 -0.03244248
-0.055992097 -0.055969372 0.03948604 -0.11480665 0.011121255 0.003007391 0.03111856 -0.06392006
-0.058200784 0.045535676 -0.03694764 -0.09034953 -0.030074084 -0.024153063 -0.006817921 0.0014441793
0.03138076 -0.06863219 0.028383827 0.03791421 -0.11094088 -0.080605865 0.043934446 0.023385564
-0.004639501 0.009566342 -0.025095658 -0.054121718 -0.15134613 -0.025420865 -0.08933319 -0.01459379
0.0021511624 0.07151918 -0.009058986 -0.011321155 -0.07591738 0.013056826 0.0093541825 -0.004777197
-0.20990106 -0.07596193 -0.058058202 0.029374879 0.011040799 0.044407096 0.0061030546 -0.03737483
0.01810862 -0.06162828 0.0050129187 -0.11148943 -0.0032801093 -0.02353232 -0.016768984 -0.03276706
0.024236182 -0.0019947551 -0.030543651 -0.09428315 -0.022812849 0.012551143 0.026336139 0.040576644
0.052177843 0.02335135 0.029384276 -0.051536262 0.02363953 0.08368522 0.020122288 -0.0029375146
0.067465685 -0.029539824 -0.038046207 0.062088016 -0.022965156 -0.0717052 0.013941828 -0.08733076
-0.04073501 -0.017925393 -0.10736319 -0.06921531 0.13509077 -0.015879447 -0.034068376 0.04439296
-0.0012786586 -0.059174612 -0.0857828 -0.039643303 -0.06144634 0.0058173453 0.037536997 -0.016758434
-0.039396692 0.043261286 -0.011102535 0.05598687 -0.044054423 0.032528162 -0.033127237 0.037942506
-0.0037513191 0.010935651 0.01629177 -0.006376231 -0.018238235 -0.022923931 -0.011689567 0.032935917
0.021259386 -0.08555044 -0.06872603 -0.019766595 0.0052297357 -0.021849293 0.032973744 0.012585285
-0.079289086 -0.063727126 -0.018337803 -0.06357765 0.04373588 -0.073977895 -0.030539129 0.084917076
-0.046301555 -0.05583784 -0.06438802 0.04058536 0.015581841 -0.05698192 -0.0654424 0.032172754
0.014982491 0.03637195 0.049939547 -0.008494707 0.024567643 -0.08408727 0.012374941 -0.0150919445
-0.03487743 -0.006478612 0.05154953 -0.054142147 0.021528196 -0.109270975 0.03458417 0.023165466
-0.005314469 0.008076615 -0.033498086 0.004256965 -0.037182953 -0.04021776 -0.047819562 -0.023436176
-0.10827354 0.019035013 -0.031822693 0.11935687 -0.011873036 -0.006363316 -0.046558157 -0.030824209
0.00082344096 0.05909128 0.0121985655 0.03313948 -0.062134717 -0.009785051 0.011452877 0.0008000765
00000000: ec85 f3bc 7c03 1e3d 25c8 22bd 7505 fb3c
00000010: 7817 6f3d 21b2 94bd 1b56 63bd c70e b23c
00000020: 687f 613b c5a9 1c3d c1c5 b0ba 073e 7b3d
00000030: d201 73bd b4ea b2bd 3b53 53bd f26a 3a3d
00000040: fac9 c6bc 5ec8 7abd 560c b5bc d391 a3bd
00000050: 5f96 7ebd d94a 03bc 4d40 763b 4a54 14bd
00000060: e1a7 32bc 46cd 653d 461b 123e 0ee5 073d
00000070: 5454 ec3c b268 9a3b d71d 66bc 749f 0ebd
00000080: 7115 6bbd 9a4c 803c acb4 cbbd 08e3 80bd
00000090: 10f5 0f3d cf56 56bd 9e83 2a3c 4363 06bd
000000a0: 1b3b 973c 113d 18bc ba2c f3b8 189d ccbc
000000b0: c777 193e a29b e7bc 147b bb3c 1f62 f43c
000000c0: 02f7 f1bc 6845 d43b 3ba2 183d e8d2 b2bc
000000d0: 6111 fc3c 716c 61bd c7cb 823b bf06 87bd
000000e0: 90d6 8e3b 9647 0bbd 6f7e 90bc e35e 33bd
000000f0: 14c5 67bd 1301 653c fd01 5bbd 2714 3cbd
00000100: 7dd4 5dbd e8ca 05bd af91 423c 18c0 fa3c
00000110: 1c06 c3bc cd44 80bd eb7a 54bc 0cbf 573b
00000120: c0f5 17ba 20ed 4ebd 7820 3ebd 253c 9b3d
00000130: c1a6 383c 9e75 d23d 54c9 4fbd 68e2 04bd
00000140: f857 65bd 2440 65bd 1dbc 213d c01f ebbd
00000150: ed35 363c a617 453b 5aec fe3c 85e8 82bd
00000160: f263 6ebd 9e83 3a3d 6956 17bd 2d09 b9bd
00000170: ed5d f6bc a5dc c5bc de68 dfbb 9e4a bd3a
00000180: 1d89 003d 098f 8cbd 3385 e83c ee4b 1b3d
00000190: f934 e3bd b014 a5bd 9bf4 333d 1593 bf3c
000001a0: f506 98bb 26bc 1c3c 6995 cdbc bcae 5dbd
000001b0: 7bfa 1abe 6b3f d0bc 52f4 b6bd cb1a 6fbc
000001c0: 84fa 0c3b a678 923d 246c 14bc 5e7c 39bc
000001d0: 927a 9bbd 4cec 553c 4942 193c 088a 9cbb
000001e0: 4ef0 56be ee91 9bbd 70ce 6dbd 96a3 f03c
000001f0: 78e4 343c 37e4 353d 22fc c73b 5a16 19bd
00000200: 8758 943c ef6d 7cbd 6943 a43b 9254 e4bd
00000210: 1af7 56bb dac6 c0bc 1c5f 89bc c136 06bd
00000220: f58a c63c 70ba 02bb ae36 fabc 8617 c1bd
00000230: 03e2 babc 4fa3 4d3c e3be d73c b233 263d
00000240: 6fb8 553d 554b bf3c 4bb7 f03c b017 53bd
00000250: b0a7 c13c 2863 ab3d 7fd7 a43c 5183 40bb
00000260: 732b 8a3d 80fd f1bc 57d6 1bbd 0150 7e3d
00000270: 6c21 bcbc 2dda 92bd 446c 643c 78da b2bd
00000280: c1d9 26bd 46d8 92bc 3be1 dbbd c2c0 8dbd
00000290: 3c55 0a3e 9d15 82bc 488b 0bbd 64d5 353d
000002a0: aa98 a7ba 1461 72bd e5ae afbd 0461 22bd
000002b0: 28af 7bbd 6e9f be3b 65c0 193d fc48 89bc
000002c0: 6d5e 21bd bf32 313d 68e7 35bc 7d52 653d
000002d0: 6972 34bd 403c 053d 6db0 07bd 9a69 1b3d
000002e0: b1d8 75bb 722b 333c 5176 853c b4ef d0bb
000002f0: 5a68 95bc f8ca bbbc 9985 3fbc d0e7 063d
00000300: 2a28 ae3c 1235 afbd 3cc0 8cbd 8eed a1bc
00000310: 345e ab3b 4afd b2bc 7a0f 073d 8332 4e3c
00000320: 5162 a2bd 5e83 82bd 2939 96bc 0035 82bd
00000330: 6524 333d b981 97bd 322d fabc 01e9 ad3d
00000340: b3a6 3dbd 38b6 64bd dedd 83bd d63c 263d
00000350: fa4a 7f3c e065 69bd aa06 86bd 94c7 033d
00000360: 1f79 753c c1fa 143d 698d 4c3d 622d 0bbc
00000370: 1542 c93c f235 acbd 44c0 4a3c 3444 77bc
00000380: a3db 0ebd 894a d4bb 9a25 533d 28c4 5dbd
00000390: e65b b03c 76c9 dfbd 21a8 0d3d 81c5 bd3c
000003a0: ff24 aebb c753 043c 4a35 09bd 037e 8b3b
000003b0: 274d 18bd 61bb 24bd 72de 43bd 39fd bfbc
000003c0: 85be ddbd 51ef 9b3c 8358 02bd 6071 f43d
000003d0: 1f87 42bc 5d83 d0bb c4b3 3ebd 0d83 fcbc
000003e0: 30dc 573a b309 723d 7edc 473c 43bd 073d
000003f0: f980 7ebd 7b51 20bc d9a4 3b3c 3abc 513a

fc2.bias f4 [256]
0.022320023 -0.060331706 -0.02613283 -0.057397123 -0.0006359502 -0.09591907 0.046119064 -0.06274168
0.23622704 -0.001149574 -0.086549096 -0.15156744 0.0030065482 0.0035418016 -0.049018744 0.030598154
0.10022498 -0.030737508 -0.053405296 0.04356157 -0.045715578 -0.007400729 -0.06936616 -0.1120653
-0.046262667 -0.059984416 -0.06558509 0.015774002 -0.08908775 -0.040179774 -0.059182752 0.022476945
-0.033478547 -0.043291904 -0.16491014 -0.04492998 0.0318515 0.02364651 0.0038719184 0.0072048
0.02029128 -0.06972209 -0.03458555 -0.08043516 -0.053098638 -0.069023006 -0.11632406 0.020954533
-0.062427938 -0.033418465 -0.00757066 0.004360651 0.012941958 -0.030744465 -0.032097757 0.020808443
-0.050219 0.015076858 0.0067709354 -0.034383833 -0.051695436 0.007051074 0.002564729 0.0007705502
-0.023637734 -3.6780217e-05 -0.0960233 -0.052339684 -0.118673705 0.0020232555 0.011228093 0.025972158
-0.04136094 -0.05891133 -0.06559481 -0.028879495 -0.061536565 -0.083201826 0.028995246 -0.026602304
0.0041865013 0.0048199487 0.013715018 0.00046325842 -0.037520893 -0.03929381 -0.086020984 0.005843756
-0.014027664 -9.782405e-05 -0.0037111153 -0.07565603 0.0057013268 -0.16463706 0.014953646 0.006950209
0.0445114 -0.020460362 -0.054977685 -0.031418465 -0.022464862 -0.009211221 -0.06619738 -0.011030555
-0.012659742 0.03051859 -0.03199927 -0.005082293 -0.07175174 0.016656563 -0.08934961 -0.015394272
0.020948121 -0.06514529 0.03670253 -0.0034665314 -0.014225142 -0.05833917 -0.06082268 0.02069729
-0.07034673 0.012384269 0.019294912 0.0024545277 -0.106090724 -0.04668418 -0.08077656 -0.052027207
0.012104608 0.024503987 -0.031521875 0.040034153 0.011774289 -0.015494362 0.00033871704 -0.035977133
0.029271504 -0.08802708 -0.07422969 -0.0046602753 0.12845592 -0.0077290456 -0.09907552 -0.04158264
-0.011085825 0.017026993 -0.04220813 0.009981842 0.03141325 -0.05399243 -0.033890944 -0.029392043
-0.085983485 -0.10123196 -0.039756007 -0.004602996 -0.022222925 -0.07663979 -0.0010969334 -0.076648325
-0.03064016 -0.02425619 -0.02150482 -0.060884055 0.03878665 -0.036662787 -0.020580139 -0.007888754
0.034515753 -0.068333864 0.048966598 0.122342855 -0.07353395 -6.139102e-05 0.024413943 -0.027838808
-0.0051806434 -0.042409778 -0.07410662 0.028394511 0.032317802 -0.0018132692 0.0043303357 -0.018876547
-0.0018292266 0.009905962 0.0016805069 -0.06701103 0.04497161 -0.0045369673 -0.09979776 -0.03870336
0.007596404 0.034862634 -0.038074795 0.029614814 0.016521063 0.015158166 -0.02033208 0.044225685
-0.05605142 0.01060749 0.013021987 -0.010112865 -0.026112445 -0.026834901 -0.04850343 -0.05078354
-0.027238209 0.017623486 -0.02744267 0.0077791796 0.014087871 0.08858864 -0.062256355 -0.060727276
-0.054142777 -0.0514934 -0.26907295 -0.07259461 -0.01970059 -0.040380284 -0.0022107624 0.016543273
-0.049549326 0.0008277031 -0.025177713 -0.0625583 -0.024378283 -0.07184976 -0.0012149633 -0.06687321
-0.10450528 -0.044734962 -0.015875692 -0.05333238 0.050375883 -0.079968855 -0.00059713115 -0.11154349
-0.036203843 -0.019153085 -0.0043951296 -0.06136064 -0.03460676 -0.07063161 -0.00739149 -0.063844055
-0.06364868 -0.04677607 0.05122713 0.016836584 -0.07323075 0.033158828 0.0280107 0.20364112
00000000: 7bd8 b63c 611e 77bd 8414 d6bc 3f19 6bbd
00000010: e5b5 26ba 3871 c4bd 58e7 3c3d b67e 80bd
00000020: 80e5 713e 4dad 96ba a740 b1bd 7f34 1bbe
00000030: 8209 453b 921d 683b e1c7 48bd fba8 fa3c
00000040: c142 cd3d 3acd fbbc 83bf 5abd 9e6d 323d
00000050: 4240 3bbd d181 f2bb d80f 8ebd 7e82 e5bd
00000060: ec7d 3dbd 38b2 75bd 7a51 86bd 7b38 813c
00000070: a373 b6bd 8c93 24bd 9d69 72bd 9221 b83c
00000080: cd20 09bd da52 31bd 34de 28be 8008 38bd
00000090: b876 023d 53b6 c13c 03c0 7d3b 3e16 ec3b
000000a0: e639 a63c 75ca 8ebd 94a9 0dbd 30bb a4bd
000000b0: f57d 59bd ef5b 8dbd 4f3b eebd d7a8 ab3c
000000c0: 70b4 7fbd cde1 08bd 4d13 f8bb cbe3 8e3b
000000d0: 820a 543c d1db fbbc f078 03bd 7876 aa3c
000000e0: 70b2 4dbd ed04 773c b9de dd3b 10d6 0cbd
000000f0: 98be 53bd b20c e73b 0315 283b c0fe 493a
00000100: eca3 c1bc 7544 1ab8 dda7 c4bd 2362 56bd
00000110: 330b f3bd 9898 043b 09f6 373c 90c3 d43c
00000120: 176a 29bd 024d 71bd 9256 86bd b194 ecbc
00000130: c40d 7cbd b865 aabd 7087 ed3c 13ed d9bc
00000140: eb2e 893b a9f0 9d3b f4b4 603c 7ee1 f239
00000150: 82af 19bd 8cf2 20bd c52b b0bd fa7c bf3b
00000160: 4ad4 65bc e326 cdb8 2f36 73bb 8cf1 9abd
00000170: 32d2 ba3b 9e96 28be 2300 753c 94be e33b
00000180: 9651 363d 7d9c a7bc 4830 61bd a6b0 00bd
00000190: 3b08 b8bc a9ea 16bc 7e92 87bd 80b9 34bc
000001a0: ce6a 4fbc 1f02 fa3c ab11 03bd 5d89 a6bb
000001b0: 94f2 92bd 5873 883c eefc b6bd 4238 7cbc
000001c0: 659b ab3c e56a 85bd 6455 163d bf2e 63bb
000001d0: 9210 69bc 0ef5 6ebd 3421 79bd 5d8d a93c
000001e0: f211 90bd 64e7 4a3c 5d10 9e3c 24dc 203b
000001f0: 1846 d9bd e937 3fbd 2e6e a5bd 7b1a 55bd
00000200: 6852 463c 96bc c83c 151d 01bd dafa 233d
00000210: f3e8 403c 11dc 7dbc d595 b139 c25c 13bd
00000220: cbca ef3c 8b47 b4bd bc05 98bd 39b5 98bb
00000230: f389 033e ef43 fdbb 1be8 cabd 8f52 2abd
00000240: 52a1 35bc 317c 8b3c 6fe2 2cbd e18a 233c
00000250: 2eab 003d 2b27 5dbd 3bd1 0abd 95c7 f0bc
00000260: 1c18 b0bd b452 cfbd 32d7 22bd bbd4 96bb
00000270: da0c b6bc 52f5 9cbd fac6 8fba ccf9 9cbd
00000280: 1301 fbbc ebb4 c6bc e02a b0bc 8f61 79bd
00000290: c0de 1e3d b82b 16bd ae97 a8bc d53f 01bc
000002a0: 6460 0d3d a0f2 8bbd 3391 483d e48e fa3d
000002b0: f898 96bd 0ebf 80b8 c0ff c73c 360e e4bc
000002c0: 63c2 a9bb e0b5 2dbd 36c5 97bd 9b9b e83c
000002d0: ac5f 043d 38ab edba 7de5 8d3b fda2 9abc
000002e0: a9c2 efba 9e4c 223c 7444 dc3a 143d 89bd
000002f0: 2734 383d d7aa 94bb c562 ccbd 6a87 1ebd
00000300: 41eb f83b 1fcc 0e3d 51f4 1bbd c49a f23c
00000310: 2e57 873c f559 783c 768f a6bc fe25 353d
00000320: 2c96 65bd 0acb 2d3c 2c5a 553c 6eb0 25bc
00000330: c4e9 d5bc ded4 dbbc 88ab 46bd 6702 50bd
00000340: aa22 dfbc 215f 903c 73cf e0bc 7de8 fe3b
00000350: d0d0 663c f66d b53d 8500 7fbd 2abd 78bd
00000360: d1c4 5dbd beea 52bd eec3 89be 7cac 94bd
00000370: 2263 a1bc cc65 25bd 70e2 10bb c285 873c
00000380: 3cf4 4abd 37fa 583a 7e41 cebc 911e 80bd
00000390: f7b4 c7bc f825 93bd 673f 9fba d2f4 88bd
000003a0: dd06 d6bd 023c 37bd bd0d 82bc 0e73 5abd
000003b0: f156 4e3d b6c6 a3bd cb88 1cba ea70 e4bd
000003c0: 7b4a 14bd eee6 9cbc 0505 90bb 4b55 7bbd
000003d0: d1bf 0dbd 4ea7 90bd 5034 f2bb acc0 82bd
000003e0: 3d5a 82bd 4498 3fbd 8ad3 513d e0ec 893c
000003f0: 01fa 95bd 8dd1 073d b276 e53c 4c87 503e

fc3.weight f4 [162, 256]
-0.097170845 -0.07867867 -0.0003320666 -0.025931103 -0.044037156 -0.09328581 -0.18301582 -0.0653505
0.004129867 -0.051864732 0.001987037 -0.107419245 0.0056067873 -0.24283175 -0.06789373 -0.03755268
-0.0075351954 -0.103198424 -0.067314655 -0.047756754 -0.10571042 0.013438405 -0.3087216 -1.22251
-0.04504141 0.04900753 -0.10081435 -0.18559846 -0.0759746 -0.0055452515 -0.10965302 -0.25383142
0.20051979 -0.15643537 -0.7249311 -0.018383352 -0.12288618 -0.055378534 -0.17484584 -0.014932444
0.03813637 -0.12084185 0.014965124 0.023868758 -0.082047366 -0.04575424 -0.07461731 -0.03540818
-0.040041987 -0.16102141 -0.33068097 -0.11170058 -0.19404364 -0.2787985 -0.17860186 -0.23087658
-0.037003923 -0.05057327 -0.074202076 -0.010308464 -0.037526306 -0.08446574 -0.055023216 -0.038111523
-0.5116614 -0.00064187945 -0.0913199 0.010663855 0.058485113 -0.21196263 -0.0023293025 -0.117600255
0.047836095 -0.05473016 -0.030015014 -0.556494 -0.047982015 -0.011949196 -0.2254683 -0.25907296
-0.4619825 -0.059678108 -0.16707832 -0.13431303 -0.047488227 -0.73958427 -0.05914248 -0.34834018
0.020406665 -0.121628776 -0.13947202 -0.14915395 -0.08736097 -0.13703528 0.009572208 -0.5410347
0.042555466 -0.42738095 -0.2463422 0.02226548 -0.07526024 -0.14445429 -0.030716509 -0.09504006
0.018774021 0.0055914745 -0.04096014 -0.070760585 0.09432932 -0.007973511 -0.21762328 -0.00045150518
-0.1086161 -0.044785075 -0.21826866 -0.004211594 -0.085653014 -0.015586656 -0.23217808 -0.058110956
-0.12298385 -0.02602352 0.016579306 -0.27367845 -0.12458734 -0.15803842 -0.064948425 -0.25960505
-0.024380334 -0.04667367 -0.3821591 -0.0024182654 -0.12015781 -0.3495041 -0.014793828 -0.07893624
-0.07197534 -0.3163596 0.02898264 -0.0675661 -0.036442578 -0.15995812 -0.0033133775 0.05135868
0.13788728 -0.04057674 -0.06908779 -0.45546463 -0.022572264 -0.072611265 -0.102973275 0.034149118
-0.0067188162 -0.82474416 -0.050606564 -0.09305186 -0.19812053 -0.3101923 -0.0548383 -0.11327182
0.059114825 -0.10654991 -0.019484801 -0.058875162 -0.26646787 -0.009573373 0.010450068 -0.037927415
-0.14271252 -0.047114447 -0.06766009 -0.06341279 -0.05001393 -0.12701225 0.029868612 0.010639036
-0.049143907 -0.080766104 -0.37057412 0.03528998 -0.10649333 -0.1428062 -0.036289457 -0.09919418
-0.27007142 0.051316734 -0.03479653 -0.3115243 -0.008114807 -0.08197568 -0.63116574 0.0388973
0.0010296962 -0.02018235 -0.14325102 -0.045476496 -0.14716841 -0.011454672 -0.099494755 -0.04748714
-0.19619288 -0.37082228 0.01855918 -0.023845522 -0.0638019 -0.25027508 0.014421852 0.013609063
0.11250156 0.0373607 0.035399433 -0.46560037 -0.050342463 -0.18573622 -0.106471084 0.012428728
-0.8714708 -0.0065446366 -0.11452881 -0.06432638 -0.13775213 -0.06660255 -0.30880645 -0.03133817
0.14301847 -0.098451875 -0.20586708 -0.14053296 -0.1997205 -0.2818694 -0.039584354 -0.12950213
-0.04645926 0.044846274 -0.24476263 -0.025837993 -0.021884616 -0.02438821 -0.09056061 -0.45807374
-0.03118197 -0.021033375 -0.09605682 -0.051365696 0.03693488 -0.07679709 -0.7950394 -0.7384054
-0.0047970875 -0.70435 0.097236775 -0.18680507 -0.024277775 -0.22072077 -0.3394512 -0.05074693
00000000: 8201 c7bd 4822 a1bd 3919 aeb9 776d d4bc
00000010: 4e60 34bd a10c bfbd 8068 3bbe 7cd6 85bd
00000020: d653 873b 1d70 54bd f338 023b 9ffe dbbd
00000030: 24b9 b73b e3a8 78be de0b 8bbd d7d0 19bd
00000040: cde9 f6bb b259 d3bd 44dc 89bd 969c 43bd
00000050: b47e d8bd c12c 5c3c c210 9ebe 357b 9cbf
00000060: 577d 38bd 1fbc 483d c177 cebd 860d 3ebe
00000070: 9298 9bbd f1b4 b5bb c391 e0bd 31f6 81be
00000080: 0f55 4d3e 9830 20be 1695 39bf af98 96bc
00000090: c0ab fbbd 9ad4 62bd ca0a 33be 36a7 74bc
000000a0: e234 1c3d ef7b f7bd 4830 753c 6a88 c33c
000000b0: 7308 a8bd cc68 3bbd f6d0 98bd 2b08 11bd
000000c0: 1103 24bd cce2 24be 044f a9be 46c3 e4bd
000000d0: 60b3 46be adbe 8ebe 68e3 36be e96a 6cbe
000000e0: 6d91 17bd eb25 4fbd 42f7 97bd d5e4 28bc
000000f0: 2fb5 19bd 60fc acbd 0660 61bd d41a 1cbd
00000100: 3efc 02bf cd43 28ba ed05 bbbd 73b7 2e3c
00000110: 168e 6f3d bb0c 59be 36a7 18bb 67d8 f0bd
00000120: c8ef 433d bb2c 60bd 0ce2 f5bc 6476 0ebf
00000130: ca88 44bd 90c6 43bc 29e1 66be 36a5 84be
00000140: f888 ecbe 0871 74bd 9416 2bbe 5b89 09be
00000150: 0483 42bd 6555 3dbf 633f 72bd a559 b2be
00000160: e12b a73c 8218 f9bd c1d1 0ebe d0bb 18be
00000170: 4fea b2bd fa52 0cbe c0d4 1c3c 4081 0abf
00000180: a44e 2e3d add1 dabe 2141 7cbe 1966 b63c
00000190: 0a22 9abd d3eb 13be 30a1 fbbc 5da4 c2bd
000001a0: facb 993c b038 b73b d2c5 27bd edea 90bd
000001b0: bb2f c13d 54a3 02bc a3d8 5ebe 00b8 ecb9
000001c0: 1e72 debd 8e70 37bd d281 5fbe 6901 8abb
000001d0: d96a afbd 2c5f 7fbc 17c0 6dbe c105 6ebd
000001e0: f5de fbbd 472f d5bc 53d1 873c 951f 8cbe
000001f0: a627 ffbd d3d4 21be ae03 85bd f4ea 84be
00000200: 44b9 c7bc e42c 3fbd 5caa c3be c37b 1ebb
00000210: 4c15 f6bd 34f2 b2be d061 72bc 53a9 a1bd
00000220: cf67 93bd e3f9 a1be 006d ed3c 1860 8abd
00000230: d044 15bd 10cc 23be 4025 59bb 7b5d 523d
00000240: 5332 0d3e cc33 26bd e67d 8dbd a932 e9be
00000250: 78e9 b8bc 37b5 94bd a7e3 d2bd f2df 0b3d
00000260: 8429 dcbb 6f22 53bf d448 4fbd f991 bebd
00000270: 1ce0 4abe 86d1 9ebe 209e 60bd 0efb e7bd
00000280: 6322 723d d736 dabd 979e 9fbc 1527 71bd
00000290: 7a6e 88be a3d9 1cbc c336 2b3c c759 1bbd
000002a0: 3b23 12be 14fb 40bd 6091 8abd 91de 81bd
000002b0: 68db 4cbd 800f 02be 05af f43c 5a4f 2e3c
000002c0: 1f4b 49bd b368 a5bd e4bb bdbe 3a8c 103d
000002d0: 2d19 dabd ca3b 12be 41a4 14bd 5126 cbbd
000002e0: cd46 8abe 7f31 523d ce86 0ebd 1d80 9fbe
000002f0: f8f3 04bc dee2 a7bd 1494 21bf c652 1f3d
00000300: dff6 863a 7555 a5bc 65b0 12be 9045 3abd
00000310: 51b3 16be 60ac 3bbc e8c3 cbbd e081 42bd
00000320: c9e6 48be 6bdc bdbe 6c09 983c af57 c3bc
00000330: 92aa 82bd 0e24 80be a249 6c3c 8cf8 5e3c
00000340: 3867 e63d 8907 193d fffe 103d 2c63 eebe
00000350: e633 4ebd a331 3ebe 830d dabd dda1 4b3c
00000360: b618 5fbf 6474 d6bb 158e eabd 8dbd 83bd
00000370: e50e 0dbe eb66 88bd e11b 9ebe 745c 00bd
00000380: 6f73 123e 23a1 c9bd d2ce 52be dfe7 0fbe
00000390: 8883 4cbe 3051 90be 3423 22bd 359c 04be
000003a0: 114c 3ebd bab0 373d 0ea3 7abe 33aa d3bc
000003b0: 5e47 b3bc c9c9 c7bc d777 b9bd a488 eabe
000003c0: 5571 ffbc 2f4e acbc 70b9 c4bd d664 52bd
000003d0: 0749 173d cb47 9dbd b487 4bbf 2308 3dbf
000003e0: e330 9dbb 4850 34bf 1324 c73d d449 3fbe
000003f0: 2fe2 c6bc a004 62be 8ccc adbe 03dc 4fbd

fc3.bias f4 [162]
-0.096024364 -0.045970246 -0.15012081 -0.09684346 -0.33405086 -0.23232403 -0.14762285 -0.12063037
-0.0937464 -0.09774929 -0.10929917 0.013488652 -0.1500042 -0.02705101 -0.08393388 -0.17681906
-0.081083 -0.19569366 -0.077788524 -0.17931612 -0.10065331 -0.048673525 -0.11203531 -0.40549424
-0.13259655 -0.14538 -0.073072515 -0.063793026 -0.08449716 -0.02973596 -0.14963941 -0.12777461
-0.10894881 -0.044169825 -0.1310392 -0.057248812 -0.06677199 -0.08974764 -0.11842464 -0.0928948
-0.07347468 -0.11466451 -0.1133871 -0.09734369 -0.12244047 -0.097473696 -0.12206879 -0.096001625
-0.34792903 -0.2745768 -0.12839882 -0.09001358 -0.2906639 -0.42051828 -0.1280391 -0.09783562
-0.0930151 -0.12023618 -0.057761874 -0.094002426 -0.03613136 -0.06484376 0.07127335 -0.112786
-0.026351776 -0.08323086 -0.15662375 -0.06706793 -0.01800592 -0.08105613 -0.032139976 -0.009955927
-0.04388213 -0.09019005 -0.053867772 0.03893815 -0.055389956 -0.06900797 -0.0008903571 -0.023169154
0.22030869 0.035034627 0.009780004 0.04941837 -0.1340471 -0.121533126 -0.0692272 -0.14198591
-0.11169679 -0.034519065 -0.048460852 -0.06951125 0.021274626 0.07260022 -0.04664326 0.065196924
-0.1360323 -0.06594925 0.046680454 0.03477844 -0.03158762 -0.02785445 -0.11181593 -0.15030614
-0.10075857 -0.098862894 -0.16940977 -0.18434203 -0.037258733 -0.013650837 -0.091551654 -0.007469598
-0.081369355 0.07457106 -0.094143994 -0.056949504 0.07202142 0.023807775 0.019622618 0.059739184
-0.06088438 -0.13741073 0.0015053798 -0.12207123 -0.056801576 -0.14716421 -0.12607524 -0.116185196
-0.007208928 0.003753997 0.04391304 -0.029416574 -0.01954482 -0.10482729 0.09945741 0.028482646
0.18197833 0.012287765 -0.12001337 -0.14131357 -0.013853288 -0.021392051 0.05345632 -0.038730957
-0.16138324 -0.08437933 0.15109187 0.1312606 0.1594088 0.11320996 -0.04772011 0.0054401415
0.19282775 0.10348117 0.1883063 0.17750292 -0.073199406 -0.075951986 -0.119023904 -0.07559766
-0.114261895 -0.025067477
00000000: 6ca8 c4bd 4c4b 3cbd 45b9 19be dd55 c6bd
00000010: b708 abbe 5ae6 6dbe 722a 17be 0e0d f7bd
00000020: 1dfe bfbd c830 c8bd 3ed8 dfbd 82ff 5c3c
00000030: b39a 19be 149a ddbc 87e5 abbd 0e10 35be
00000040: d80e a6bd eb63 48be 974f 9fbd a59e 37be
00000050: 5323 cebd e45d 47bd c572 e5bd f19c cfbe
00000060: 64c7 07be 7fde 14be 0ba7 95bd eba5 82bd
00000070: d90c adbd d498 f3bc 133b 19be 59d7 02be
00000080: 8e20 dfbd 6beb 34bd 242f 06be bb7d 6abd
00000090: c1bf 88bd 9ccd b7bd 9e88 f2bd a13f bebd
000000a0: e579 96bd 3ad5 eabd 7f37 e8bd 215c c7bd
000000b0: 12c2 fabd 4aa0 c7bd 34ff f9bd 809c c4bd
000000c0: c123 b2be 5595 8cbe fb7a 03be 0a59 b8bd
000000d0: e6d1 94be 2c4e d7be af1c 03be 0b5e c8bd
000000e0: b37e bebd 633e f6bd b797 6cbd 5884 c0bd
000000f0: 7afe 13bd cecc 84bd c3f7 913d 59fc e6bd
00000100: aedf d7bc f174 aabd fa61 20be e95a 89bd
00000110: 2781 93bc c200 a6bd 35a5 03bd 2f1e 23bc
00000120: c0bd 33bd 90b5 b8bd 74a4 5cbd 9c7d 1f3d
00000130: 94e0 62bd 0d54 8dbd db66 69ba 3dcd bdbc
00000140: 9a98 613e 7880 0f3d 4f3c 203c eb6a 4a3d
00000150: a543 09be 5ce6 f8bd fdc6 8dbd c164 11be
00000160: 49c1 e4bd dd63 0dbd e37e 46bd ea5b 8ebd
00000170: 2048 ae3c 6daf 943d 010d 3fbd f785 853d
00000180: 0d4c 0bbe 6610 87bd 0134 3f3d d673 0e3d
00000190: 0562 01bd 042f e4bc c0ff e4bd dae9 19be
000001a0: 825a cebd a178 cabd c179 2dbe 28c4 3cbe
000001b0: 9d9c 18bd c3a7 5fbc 6f7f bbbd 88c3 f4bb
000001c0: faa4 a6bd b6b8 983d 91ce c0bd e243 69bd
000001d0: f77f 933d 8608 c33c 9dbf a03c 13b1 743d
000001e0: e661 79bd 66b5 0cbe 2a50 c53a 7b00 fabd
000001f0: c5a8 68bd 37b2 16be de19 01be 81f2 edbd
00000200: df38 ecbb 9e05 763b 29de 333d 07fb f0bc
00000210: 751c a0bc b1af d6bd 54b0 cb3d 7054 e93c
00000220: 8758 3a3e 9f52 493c 92c9 f5bd 81b4 10be
00000230: e7f8 62bc 623e afbc 04f5 5a3d 5aa4 1ebd
00000240: a641 25be 12cf acbd d4b7 1a3e 2e69 063e
00000250: 0f3c 233e a0da e73d 2976 43bd 3743 b23b
00000260: a374 453e f0ed d33d 5ed3 403e 53c3 353e
00000270: 92e9 95bd b78c 9bbd cec2 f3bd f2d2 9abd
00000280: 2402 eabd 4f5a cdbc
