models/predictor.pth (torch, 313432 bytes, 7 tensors)

fc1.weight f4 [256, 37]
2.0514035 -0.36013055 0.4120329 0.0058750804 0.5489423 -0.28833097 -0.27650592 -3.0474265
0.6929886 0.6024918 1.1032363 0.059572965 -0.23961572 -0.34833258 -0.12725918 -1.742143
0.6262053 -0.25320905 0.6339268 0.14599986 -0.12503193 0.28426868 1.0787094 0.7453456
0.48524413 0.423505 0.7404899 -0.10713959 -0.025583813 -0.40019017 -0.5665754 1.4388697
-0.226829 3.1420846 0.62153465 0.08536428 -0.3767207 1.5499101 1.8948054 -0.5422238
0.9563284 0.4382048 -0.15924981 0.036635894 -4.9299083 0.8311932 -0.2721331 -1.6080227
0.0021690577 1.1666389 -0.1269405 -0.083551645 -5.6705327 0.5907568 0.5089283 -1.3099002
-0.12288947 0.25765902 -0.024856498 -0.444915 -2.6925962 0.8005386 -0.6427935 -1.5250163
0.008751586 0.94520074 -0.5631089 -1.0830107 -9.5772295 0.8386538 -0.74562526 -1.391067
-0.12205413 2.6284902 10.233364 1.7913282 -1.1667 0.26529634 0.6314481 0.70134616
-0.26607463 -12.006445 -0.4832869 -6.7963424 -1.564317 0.11440854 1.120504 0.6533557
0.06468107 -8.66963 -0.54417855 -6.311297 -1.5830837 0.036995247 -0.4922966 1.0412978
-1.2786077 -4.5511026 -0.6059725 -6.389155 -1.4107488 -0.02659233 0.86019504 1.0879463
0.4551387 -7.984105 -0.005691424 -9.369581 -1.3738164 -0.14280443 4.5080595 6.942333
1.9046217 -0.90542036 -0.17831731 0.07488916 1.5767888 0.6194823 -8.712949 -0.39287564
-0.12942155 -0.77164954 -0.058012255 0.46930864 1.6186303 -0.9575431 -9.881433 -0.30090025
0.62252676 -1.010726 0.057605356 -0.6931314 0.9301001 -1.0727273 -4.0141335 -0.3493646
1.6958704 -0.87768143 0.11700331 0.21804108 0.89771914 -1.0363339 -14.783684 -0.5622951
0.5823935 -0.86386174 -0.10744682 4.41353 -9.635537 -0.50598997 2.202334 -1.1805778
-0.4865216 0.0013761207 0.29794344 12.732008 -0.37280706 0.76822156 3.7262692 -0.077146865
-0.37266073 -0.15380019 0.13655582 10.46022 -0.06352178 1.0378519 3.8405254 -0.074058644
-0.14818348 -0.01490461 0.103144325 10.590321 0.8877488 -1.2370317 3.6296856 0.016535819
0.24140939 -0.27938947 0.08047092 13.776743 1.7415406 1.6600422 3.623657 0.15971027
0.76153904 -0.17115383 0.06351654 -0.18623838 0.06982966 0.040676184 -0.022458002 -0.08704643
-0.17116866 -0.1315566 -0.30955622 -0.16124971 0.026755393 0.046511773 -0.0025567906 -0.044306155
-4.09754e-05 0.04922711 -0.086251326 0.0017860876 -0.11685602 -0.016552795 -0.16652206 -0.061219122
-0.05534392 -0.20428339 -0.16623877 -0.17275426 -0.0013121814 0.08081993 -0.058058843 -0.06928889
-0.10363212 -0.30770028 -0.13635977 -0.04086502 -0.08907382 -0.08962958 -0.053226795 -0.06467641
-0.1872568 -0.021196604 -0.03248648 -0.007855445 -0.18472096 0.058963925 -0.19785635 -0.31414703
-0.20647484 -0.0677408 -0.25817704 -0.100273624 -0.123212144 -0.21364126 -0.005048016 -0.038488336
-0.2464109 -0.08887771 -0.04142104 -0.10179085 -0.06175728 -0.19616482 -0.08763171 -0.25577167
-0.11579059 0.06886104 -0.26569676 -0.04658584 -0.17489414 0.07119333 -0.25787935 -0.3430076
00000000: 324a 0340 0863 b8be faf5 d23e bf83 c03b
00000010: 7c87 0c3f 1ea0 93be 2f92 8dbe 0909 43c0
00000020: b367 313f e73c 1a3f d936 8d3f c802 743d
00000030: d35d 75be a658 b2be 3b50 02be 8bfe debf
00000040: fe4e 203f 9ea4 81be 0749 223f fd80 153e
00000050: 5f08 00be aa8b 913e 2613 8a3f f8ce 3e3f
00000060: eb71 f83e a6d5 d83e bf90 3d3f 006c dbbd
00000070: 2595 d1bc bae5 ccbe 160b 11bf e22c b83f
00000080: dd45 68be ea17 4940 e51c 1f3f 78d3 ae3d
00000090: 89e1 c0be 7463 c63f fc88 f23f 2ecf 0abf
000000a0: f0d1 743f 615c e03e 6212 23be 850f 163d
000000b0: cfc1 9dc0 14c9 543f 0855 8bbe b0d3 cdbf
000000c0: c026 0e3b 6c54 953f b1fc 01be 201d abbd
000000d0: 0175 b5c0 d63b 173f 2049 023f cfaa a7bf
000000e0: 79ad fbbd e2eb 833e db9f cbbc e6cb e3be
000000f0: 7f53 2cc0 19f0 4c3f 1d8e 24bf bc33 c3bf
00000100: d062 0f3c adf8 713f e827 10bf 18a0 8abf
00000110: 553c 19c1 04b2 563f 4ce1 3ebf 7c0e b2bf
00000120: 84f7 f9bd 2f39 2840 dcbb 2341 3e4a e53f
00000130: 6d56 95bf ecd4 873e 95a6 213f 6c8b 333f
00000140: ef3a 88be 661a 40c1 6171 f7be a37b d9c0
00000150: 8a3b c8bf 064f ea3d ad6c 8f3f 5242 273f
00000160: 8277 843d ceb6 0ac1 494f 0bbf 25f6 c9c0
00000170: 7da2 cabf 5488 173d 4d0e fcbe 3f49 853f
00000180: 6ba9 a3bf a2a2 91c0 0421 1bbf f573 ccc0
00000190: 6b93 b4bf 28d8 d9bc be35 5c3f d341 8b3f
000001a0: f107 e93e ca7d ffc0 207f babb cee9 15c1
000001b0: 37d9 afbf 533b 12be 0642 9040 9827 de40
000001c0: a5ca f33f a1c9 67bf d098 36be 7d5f 993d
000001d0: 37d4 c93f 6496 1e3f 3d68 0bc1 ff26 c9be
000001e0: 1587 04be d38a 45bf 429e 6dbd 3949 f03e
000001f0: 472f cf3f 8b21 75bf 591a 1ec1 990f 9abe
00000200: ea5d 1f3f 785f 81bf 98f3 6b3d 0f71 31bf
00000210: 0a1b 6e3f 214f 89bf c873 80c0 ebdf b2be
00000220: 4812 d93f bbaf 60bf 6e9f ef3d 2946 5f3e
00000230: ecd0 653f 97a6 84bf f889 6cc1 92f2 0fbf
00000240: be17 153f 0b26 5dbf 140d dcbd a33b 8d40
00000250: 292b 1ac1 8f88 01bf 0af3 0c40 2c1d 97bf
00000260: 5c19 f9be f35e b43a 0b8c 983e 4eb6 4b41
00000270: 91e0 bebe 2baa 443f 327b 6e40 2dff 9dbd
00000280: 63cd bebe cc7d 1dbe 4ad5 0b3e 105d 2741
00000290: b517 82bd 55d8 843f 2bcb 7540 0fac 97bd
000002a0: 69bd 17be 7732 74bc 553d d33d f471 2941
000002b0: 8143 633f 0e57 9ebf c54c 6840 2076 873c
000002c0: 0634 773e 230c 8fbe f0cd a43d 8a6d 5c41
000002d0: cdea de3f 437c d43f ffe9 6740 178b 233e
000002e0: 39f4 423f f342 2fbe f614 823d 46b5 3ebe
000002f0: da02 8f3d 129c 263d d8f9 b7bc 6645 b2bd
00000300: d646 2fbe c6b6 06be 277e 9ebe a51e 25be
00000310: 202e db3c 2183 3e3d d48f 27bb 5f7a 35bd
00000320: 00dd 2bb8 5ea2 493d 89a4 b0bd 281b ea3a
00000330: 3652 efbd ba99 87bc c284 2abe e7c0 7abd
00000340: 4eb0 62bd aa2f 51be 7f3a 2abe 7ee6 30be
00000350: 80fd abba eb84 a53d 1ccf 6dbd 55e7 8dbd
00000360: 143d d4bd e48a 9dbe e5a1 0bbe 1462 27bd
00000370: 566c b6bd b78f b7bd 5704 5abd 1175 84bd
00000380: 3fc0 3fbe 80a4 adbc 8b10 05bd 20b4 00bc
00000390: 7e27 3dbe 2884 713d db9a 4abe e1d7 a0be
000003a0: 246e 53be b0bb 8abd c82f 84be 425c cdbd
000003b0: a656 fcbd c6c4 5abe d469 a5bb f2a5 1dbd
000003c0: 2453 7cbe 8405 b6bd 1ca9 29bd b977 d0bd
000003d0: 34f5 7cbd 6edf 48be 4178 b3bd 81f4 82be
000003e0: 9e23 edbd 0407 8d3d 6809 88be cbd0 3ebd
000003f0: 7317 33be cfcd 913d c308 84be b19e afbe

fc1.bias f4 [256]
0.63158214 -1.3084189 -1.539944 -0.8684239 3.8853998 -0.16721864 -0.1706984 -0.12245254
1.8102853 -0.09163861 -1.2014601 -1.387215 0.38126624 -0.8446785 -1.6694679 2.2480516
-0.69710577 0.4016902 -0.30186066 -0.22731517 1.9661603 -0.052812807 -0.094640404 -0.1570523
-0.60416055 -0.16983563 -0.14750217 -0.041783154 -0.19793104 -0.10485316 2.1942894 -0.18495728
-0.35851935 -0.59918267 1.8730732 -0.24555618 1.5656323 -0.045199428 -0.21523258 -0.35904396
-0.010195097 2.6457353 -0.004355966 -0.008204578 0.21948193 -0.11356161 0.058829673 0.2545541
0.0012642816 2.235821 -0.13467725 0.03225944 -0.13672021 -0.36872238 -0.086314455 -2.487877
-0.21743967 0.4654588 2.5934653 -0.12197855 -0.104228206 -0.5108986 -1.1012787 0.120482765
-0.04305408 -0.1286367 3.3119166 -0.3462671 0.023865689 -0.4076313 0.29263267 -0.072841294
-0.23993292 0.93113786 0.9820047 0.08477635 -0.20124835 -0.14349042 0.67957103 -0.08839734
-1.5244334 -0.08795644 -0.091478296 -0.6656286 0.93220603 0.5608325 1.578576 -0.012450974
-0.018965494 -0.04294891 -0.08029107 -1.3229272 0.18479833 -0.30389285 2.25942 -0.11487968
0.72923714 -0.34721977 0.04936867 0.2215845 0.23840521 0.062105466 -0.27005768 -0.0963348
-0.0052773645 1.895857 -0.61582196 0.07632917 0.04330548 -0.14161302 -0.35208532 -0.014123185
-0.22443263 -0.40575686 -0.11102949 -0.19651285 -1.8388798 -1.0059514 -0.08602851 -0.77702487
-0.12717557 -0.317965 0.48930815 0.6351776 -0.112782754 1.5865524 -0.111013405 -0.005340144
1.1307243 1.3737123 0.74750227 -0.066886604 2.0136087 -0.09935916 2.2098138 0.39608648
-0.30020046 -0.19947147 1.896074 -0.14420895 -0.123629265 1.2095432 0.0074041523 -0.31648153
0.9970686 0.000905985 -0.14120471 0.21083009 0.21993726 -0.05275234 -0.00043694582 -0.11188924
0.07013879 2.3801484 -0.15556456 0.08463066 -0.18382257 -0.21610911 -0.15988353 -0.114475384
-0.22042672 0.09932177 1.9520242 -0.19152337 -0.43301713 -0.09614162 0.00051112566 3.7512949
0.010660054 0.09312694 -0.81816286 2.3199754 -0.124691725 0.37643096 -0.037908524 1.5473009
-0.25658175 2.0738888 0.08812622 0.12987405 -0.17567053 -0.2899774 -1.8608758 0.0791406
-0.1520507 0.4855956 -0.25720385 -0.24478526 -0.36372244 -0.13975354 -0.048863884 -0.13203779
-0.016613802 -0.04993373 2.19858 -1.5271364 1.5522473 2.6878264 -0.15262026 -0.098795295
-0.18582034 -0.21234721 -0.09669469 3.0504785 0.16269262 1.8813338 -0.07772195 -0.35090098
1.3762873 -0.019443175 0.024826277 -0.29034308 -0.15509477 -0.037814707 -1.9165201 -0.109600976
-0.11152458 6.2996283 -0.29087567 -0.00886574 -0.1879421 -0.19217436 -0.0128839845 2.6534216
1.8818657 0.10890093 5.5639086 -0.16159439 2.0017014 0.061631635 -0.24384685 -0.122502014
-0.1569832 1.8999243 0.11517657 -0.16125697 1.608857 0.3783419 -0.0526329 -0.20805374
-0.0991317 0.5626327 0.51546633 1.4134794 -0.20978677 1.1903884 -0.1042375 -0.22049278
-0.33812436 0.90488416 0.030374369 -0.3951052 1.8777919 -0.07669604 -1.2962872 -0.45370728
00000000: 5eaf 213f 457a a7bf e31c c5bf 0751 5ebf
00000010: 64aa 7840 5d3b 2bbe 90cb 2ebe 66c8 fabd
00000020: 6eb7 e73f 06ad bbbd 72c9 99bf 4390 b1bf
00000030: 5435 c33e da3c 58bf 20b1 d5bf 14e0 0f40
00000040: 8675 32bf 57aa cd3e 7b8d 9abe 4fc5 68be
00000050: 24ab fb3f 3e52 58bd d4d2 c1bd 51d2 20be
00000060: 44aa 1abf 64e9 2dbe cf0a 17be d024 2bbd
00000070: 6fae 4abe 41bd d6bd 3d6f 0c40 7165 3dbe
00000080: d98f b7be 0964 19bf ddc0 ef3f 1473 7bbe
00000090: a466 c83f 0923 39bd ee65 5cbe 9cd4 b7be
000000a0: 5609 27bc ba53 2940 7ebc 8ebb 7f6c 06bc
000000b0: dfbf 603e fd92 e8bd 62f7 703d ea54 823e
000000c0: 40b6 a53a b117 0f40 d5e8 09be 7922 043d
000000d0: 6200 0cbe 2ec9 bcbe a2c5 b0bd 6039 1fc0
000000e0: 81a8 5ebe 9e50 ee3e 56fb 2540 e4cf f9bd
000000f0: 9975 d5bd 40ca 02bf b3f6 8cbf abbf f63d
00000100: 7a59 30bd 57b9 03be 71f6 5340 ec49 b1be
00000110: fa81 c33c 0db5 d0be f3d3 953e d12d 95bd
00000120: fab0 75be 0d5f 6e3f a964 7b3f 399f ad3d
00000130: 0c14 4ebe 27ef 12be 5ef8 2d3f aa09 b5bd
00000140: a220 c3bf 8222 b4bd f958 bbbd a366 2abf
00000150: 0ea5 6e3f b892 0f3f c70e ca3f 2cff 4bbc
00000160: 865d 9bbc 32eb 2fbd a56f a4bd ae55 a9bf
00000170: c63b 3d3e d897 9bbe 569a 1040 0a46 ebbd
00000180: 49af 3a3f cac6 b1be cd36 4a3d 0ce7 623e
00000190: 7f20 743e 4d62 7e3d 0045 8abe 2e4b c5bd
000001a0: beed acbb 71ab f23f 82a6 1dbf 7852 9c3d
000001b0: 1661 313d 0103 11be 8744 b4be ee64 67bc
000001c0: abd1 65be 5dbf cfbe 6e63 e3bd aa3a 49be
000001d0: 6a60 ebbf 04c3 80bf b72f b0bd 1aeb 46bf
000001e0: 503a 02be 4fcc a2be 9986 fa3e 009b 223f
000001f0: a5fa e6bd 2614 cb3f ff5a e3bd 60fc aebb
00000200: 93bb 903f ced5 af3f 4f5c 3f3f d8fb 88bd
00000210: f7de 0040 d17c cbbd 976d 0d40 d9cb ca3e
00000220: e0b3 99be 4042 4cbe 8eb2 f23f 83ab 13be
00000230: 5731 fdbd 50d2 9a3f 889e f23b de09 a2be
00000240: e33f 7f3f a07f 6d3a f897 10be d8e3 573e
00000250: 3c37 613e d612 58bd e015 e5b9 3026 e5bd
00000260: eda4 8f3d 5a54 1840 514c 1fbe d752 ad3d
00000270: fc3b 3cbe b54b 5dbe 82b8 23be 1272 eabd
00000280: 8bb7 61be 3669 cb3d eedb f93f b41e 44be
00000290: 6cb4 ddbe e6e5 c4bd 10fd 053a 3715 7040
000002a0: 82a7 2e3c 56b9 be3d 1f73 51bf 7a7a 1440
000002b0: 605e ffbd 8fbb c03e f845 1bbd f50d c63f
000002c0: af5e 83be 98ba 0440 857b b43d b4fd 043e
000002d0: fae2 33be eb77 94be 2e31 eebf 7814 a23d
000002e0: 2eb3 1bbe fd9f f83e 39b0 83be fda8 7abe
000002f0: d439 babe 8d1b 0fbe 7f25 48bd ea34 07be
00000300: ab19 88bc 5087 4cbd 89b5 0c40 3579 c3bf
00000310: 0ab0 c63f 5905 2c40 7c48 1cbe 3055 cabd
00000320: b047 3ebe 8c71 59be de07 c6bd 0a3b 4340
00000330: e598 263e 8ccf f03f b02c 9fbd 4ba9 b3be
00000340: 2f2a b03f 4b47 9fbc 7a60 cb3c d9a7 94be
00000350: 2ad1 1ebe 98e3 1abd 8850 f5bf 7a76 e0bd
00000360: 0067 e4bd 8e96 c940 a8ed 94be 9c41 11bc
00000370: e573 40be 5bc9 44be 5917 53bc a9d1 2940
00000380: fae0 f03f 7307 df3d 8a0b b240 0079 25be
00000390: e01b 0040 7471 7c3d fdb2 79be 56e2 fabd
000003a0: 34c0 20be b830 f33f b2e1 eb3d 8c20 25be
000003b0: 07ef cd3f 08b6 c13e 9995 57bd 0a0c 55be
000003c0: 9005 cbbd b208 103f 9af5 033f e5ec b43f
000003d0: 58d2 56be a65e 983f 787a d5bd dcc8 61be
000003e0: a31e adbe 7da6 673f abd3 f83c 3b4b cabe
000003f0: 7c5b f03f d012 9dbd bdec a5bf 524c e8be

fc2.weight f4 [256, 256]
-0.025717605 0.036711007 0.022468517 -0.06497064 -0.06875541 -0.0574227 -0.025664695 -0.023003323
-0.05610586 -0.019173594 -0.09152336 -0.044375736 -0.033584356 -0.092536114 -0.06335251 -0.03687321
-0.019058676 -0.06494272 0.015508892 0.00013627391 0.054688986 -0.03720096 -0.07970546 0.026300304
-0.045508143 0.06989019 0.020375546 -0.016598247 0.048893534 0.029586103 -0.039608333 -0.006374222
0.039761197 -0.0857515 -0.060884226 -0.10431306 0.053409766 -0.0048158905 0.022311758 0.031736758
-0.06861577 0.015558743 0.037302677 0.017510928 0.0008162409 -0.07040848 -0.0710037 -0.055586092
-0.024286654 -0.01769565 -0.02426177 -0.007989001 -0.030608071 0.061269674 -0.016540669 0.031315085
0.011613994 -0.10367442 0.09390052 0.0040395213 0.018434297 -0.0012170104 -0.07695272 -0.08888598
-0.018937247 -0.059596542 -0.055448387 -0.08171064 -0.047823947 0.014359062 -0.09974096 0.016805623
0.013134423 -0.03527395 -0.008221427 0.009405286 0.029126763 -0.02143921 -0.027413182 0.0611872
-0.00015445799 0.04812712 0.09142931 0.058085393 -0.004752334 0.04730925 -0.010897339 -0.013683092
0.016526693 0.024507798 -0.009982373 -0.04011506 -0.069118746 -0.002551579 0.021852262 -0.021849185
-0.049388688 -0.051963113 -0.06687917 0.021081746 0.008186542 -0.011611771 -0.041555066 -0.026749766
-0.035215683 -0.08513091 -0.007295075 -0.0081426 -0.011673303 0.019244019 0.0023135543 -0.036709104
0.008581326 -0.021063484 -0.017200978 -0.005642214 -0.07200075 -0.035181683 -0.045445275 0.024982218
0.07381832 -0.018879795 -0.034163002 -0.10108938 0.007453385 -0.07533988 0.052240685 -0.0697698
-0.03871187 -0.049361497 0.040084295 -0.03996265 -0.033918597 -0.021833222 -0.042814523 0.0016216729
0.04075716 -0.00025925227 -0.014150361 0.045308307 0.007864729 -0.059008487 -0.03857243 -0.07320855
0.04054495 -0.024150494 0.032266404 -0.004544493 0.018323593 0.021897338 0.009842647 0.047049403
-0.016139202 -0.022032898 0.06781102 -0.0063650794 0.06461871 -0.041185625 0.028193181 0.043022573
-0.015053377 -0.025485964 0.013514367 -0.0550909 -0.022440512 0.043697495 0.040578723 0.025758639
-0.013403061 -0.030115226 0.086154774 -0.016519662 -0.03466547 -0.03142736 -0.047260553 0.041232802
0.04781922 -0.04591367 -0.0975875 0.04205713 0.0046167877 -0.0981291 -0.034894012 0.025104603
0.052596916 -0.047605503 0.058683462 -0.038723767 0.042246766 -0.054828525 -0.0019198656 -0.087272525
0.002849497 0.024425317 0.01106282 0.0050944053 -0.039098177 -0.08314392 -0.0357597 -0.03457812
0.089996964 0.0021511512 -0.041288354 0.03603442 -0.052479096 -0.03408788 -0.06016462 0.0010445071
-0.044728164 -0.041019097 -0.009738853 0.050460316 0.08198752 0.045133878 -0.022508726 -0.03429935
-0.063634396 0.029191155 0.026980493 -0.03596507 0.062104404 -0.04375663 0.04428865 -0.029874912
0.023831476 -0.02459228 -0.066842124 -0.050911196 0.012711396 -0.04246171 -0.044334374 0.08925672
0.07477679 -0.13189541 0.041206494 -0.019266134 -0.038268574 0.00016403198 0.014701258 0.051151007
0.040678572 -0.02337683 -0.010904771 -0.08581892 -0.028667022 -0.03208801 -0.027737696 0.0095832
0.00017033145 -0.053917095 -0.029553548 -0.052787438 0.010859949 0.00805241 -0.004483911 -0.026402332
00000000: baad d2bc 485e 163d e50f b83c 540f 85bd
00000010: a3cf 8cbd 1134 6bbd c43e d2bc 7771 bcbc
00000020: 42cf 65bd f111 9dbc 9970 bbbd 55c3 35bd
00000030: c08f 09bd 9383 bdbd f6be 81bd 5d08 17bd
00000040: f120 9cbc b000 85bd 0219 7e3c c0e4 0e39
00000050: 8f01 603d 0960 18bd 9e3c a3bd bc73 d73c
00000060: bf66 3abd 9722 8f3d 9eea a63c 0cf9 87bc
00000070: 9644 483d 8e5e f23c 593c 22bd dade d0bb
00000080: a3dc 223d 7c9e afbd bd61 79bd 16a2 d5bd
00000090: 33c4 5a3d 9ece 9dbb 26c7 b63c 67fe 013d
000000a0: 6d86 8cbd 19ea 7e3c b1ca 183d 1473 8f3c
000000b0: 00f9 553a 5232 90bd 636a 91bd 3eae 63bd
000000c0: cef4 c6bc 78f6 90bc 9fc0 c6bc 4de4 02bc
000000d0: c7bd fabc e9f5 7a3d 4c80 87bc 3f44 003d
000000e0: 9f48 3e3c 4153 d4bd ea4e c03d f65d 843b
000000f0: 8603 973c 1884 9fba 6399 9dbd da09 b6bd
00000100: 4922 9bbc 811b 74bd d91d 63bd e857 a7bd
00000110: 0be3 43bd 4542 6b3c fd44 ccbd f2ab 893c
00000120: c331 573c 6b7b 10bd 2ab3 06bc a118 1a3c
00000130: 409b ee3c 48a1 afbc 9c91 e0bc 6e9f 7a3d
00000140: 00f6 21b9 f120 453d 4a3f bb3d f3ea 6d3d
00000150: 78b9 9bbb 58c7 413d c18a 32bc 0c2f 60bc
00000160: fd62 873c 94c4 c83c 1b8d 23bc b04f 24bd
00000170: 218e 8dbd 6438 27bb 8403 b33c 10fd b2bc
00000180: cb4b 4abd 46d7 54bd f2f7 88bd a0b3 ac3c
00000190: d920 063c 4c3f 3ebc a535 2abd 5322 dbbc
000001a0: 523e 10bd 1d59 aebd 860b efbb 8a68 05bc
000001b0: 6241 3fbc a2a5 9d3c 009f 173b 495c 16bd
000001c0: b198 0c3c 548d acbc 11e9 8cbc 52e2 b8bb
000001d0: 2175 93bd ab1a 10bd d324 3abd 82a7 cc3c
000001e0: 0f2e 973d cda9 9abc 81ee 0bbd f307 cfbd
000001f0: 863b f43b cc4b 9abd 54fa 553d 78e3 8ebd
00000200: 5690 1ebd 482f 4abd 6e2f 243d e0af 23bd
00000210: 3aee 0abd 96db b2bc 485e 2fbd 508e d43a
00000220: fbf0 263d 40ec 87b9 ead6 67bc 3495 393d
00000230: 10db 003c e2b2 71bd 20fe 1dbd 5dee 95bd
00000240: 7612 263d 42d7 c5bc c729 043d f8e9 94bb
00000250: 5c1b 963c 0c62 b33c 0e43 213c e0b6 403d
00000260: 5c36 84bc 567e b4bc 81e0 8a3d 2892 d0bb
00000270: d056 843d 42b2 28bd 63f5 e63c 7038 303d
00000280: 70a2 76bc f1c7 d0bc 5d6b 5d3c ffa6 61bd
00000290: 2ad5 b7bc 25fc 323d e035 263d c803 d33c
000002a0: 8398 5bbc 35b4 f6bc ea71 b03d 3e54 87bc
000002b0: 61fd 0dbd fab9 00bd 4894 41bd bae3 283d
000002c0: 16de 433d f90f 3cbd f5db c7bd 1944 2c3d
000002d0: 6c48 973b e9f7 c8bd 06ed 0ebd 2ba8 cd3c
000002e0: dd6f 573d fdfd 42bd 125e 703d d09c 1ebd
000002f0: f20a 2d3d e093 60bd 00a4 fbba f0bb b2bd
00000300: a0be 3a3b 9a17 c83c d540 353c f8ee a63b
00000310: 6925 20bd 5c47 aabd c378 12bd c9a1 0dbd
00000320: 5450 b83d 54fa 0c3b fa1d 29bd d498 133d
00000330: 52f4 56bd bc9f 0bbd 2d6f 76bd d8e7 883a
00000340: e134 37bd a403 28bd b68f 1fbc 7aaf 4e3d
00000350: 13e9 a73d 4dde 383d 3864 b8bc 7a7d 0cbd
00000360: c052 82bd 4a22 ef3c 3206 dd3c 1c50 13bd
00000370: 3061 7e3d 273a 33bd 0468 353d 3bbc f4bc
00000380: 3a3a c33c c075 c9bc 86e4 88bd 4288 50bd
00000390: 7643 503c 54ec 2dbd f697 35bd 3acc b63d
000003a0: 9324 993d 970f 07be 24c8 283d 03d4 9dbc
000003b0: 82bf 1cbd 0000 2c39 8cdd 703c b883 513d
000003c0: 939e 263d c480 bfbc eda9 32bc d4c1 afbd
000003d0: 1ad7 eabc b86e 03bd 2a3a e3bc db02 1d3c
000003e0: 009b 3239 2cd8 5cbd 481a f2bc a437 58bd
000003f0: eded 313c 41ee 033c c6ed 92bb b449 d8bc

fc2.bias f4 [256]
-0.11794327 0.025368541 -0.089222014 -0.034755513 -0.0062451726 -0.0698309 0.33635882 0.00042425748
0.0715063 -0.011576684 -0.07307939 2.858718 -0.082828894 -0.06873512 0.10584743 -0.026181431
-0.09774234 -0.037776724 -0.007430507 -0.021794472 -0.049499307 0.028829642 0.461478 -0.096185185
-0.005244945 -0.055904716 0.011874263 0.055197578 3.087335 -0.07793797 -0.08850512 0.15053643
0.02766601 0.40736812 0.18993284 -0.024219519 -0.081651144 -0.048524477 -0.021854244 -0.0079397205
-0.023422763 0.0065244613 -0.051220343 -0.053541947 1.4100913 0.033978168 -0.029941473 -0.09869807
0.019726522 0.0057669235 -0.04858467 -0.10047761 0.016977906 11.634128 10.140466 0.013570531
0.0024247048 -0.025454734 -0.046453353 0.04863239 -0.07078568 -0.0061014127 -0.09017065 -0.027875498
0.011535609 -0.050720796 -0.07830615 -0.008184629 -0.054941863 -0.054884378 0.019093767 0.020687105
0.2597139 -0.094442956 0.00878226 -0.013532921 -0.008218329 -0.0876956 0.020987893 0.047377415
-0.01065695 -0.047322176 -0.08558517 0.1109831 0.116596036 0.03996389 -0.00035727117 -0.00016512349
0.050789177 -0.068058066 0.5305387 -0.014119731 -0.01327319 0.05258495 -0.042350188 -0.016003378
0.03758315 -0.06426723 -0.017259683 -0.05506622 -0.005593351 -0.101411134 -0.08483866 -0.019537058
-0.019755743 -0.01471718 0.02747849 0.17938809 3.6170616 -0.021828659 -0.028311452 -0.061752133
-0.014449906 0.001127597 -0.013236446 -0.076951645 -0.046112277 -0.060583983 0.21957737 0.026265297
-0.04114288 -0.095897056 -0.0016959114 -0.036880057 0.009249319 -0.026568443 -0.073636495 -0.027275387
0.003652295 -0.10445175 -0.06427094 -0.0063762954 -0.0712345 -0.034981392 -0.053542532 -0.041578032
0.035931803 0.0028587678 0.053860508 0.21324226 -0.09080125 0.09168177 0.23631443 -0.07559709
-0.043086134 -0.000119986944 0.33648196 -0.08216164 -0.068074115 -0.08539485 -0.0037647318 -0.09371085
-0.010950949 -0.02623618 -0.030166853 0.022996664 -0.04261391 0.043632343 0.047989782 0.06907715
-0.0369129 -0.006781402 0.015489844 -0.029444296 0.007769175 -0.0041204686 0.0065082177 0.05967296
1.7386148 -0.04391349 -0.033125397 -0.01795802 0.04198341 -0.008436651 -0.007900917 -0.06520624
-0.08914852 -0.010475692 -0.09154732 0.025633838 -0.05751408 0.020251032 0.0061116284 -0.09154478
5.261394 -0.04377781 -0.072656855 -0.050560333 -0.09966677 7.2025914 0.02340971 -0.13770583
-0.06875606 0.013841177 -0.08255045 -0.07603138 -0.010726845 0.02492084 -0.015190779 0.010045183
0.05634808 -0.05651346 0.026588358 -0.052415702 -0.031933226 0.070860684 0.009432817 13.142129
-0.034873568 -0.026024628 0.022169864 -0.011336662 -0.102143005 0.008876046 -0.058384277 0.024794396
-0.07321374 -0.07443001 -0.067163065 0.017985713 -0.07729387 0.005935102 0.0151385395 0.0030402513
-0.06723066 -0.054243047 0.012097121 -0.07981666 0.1458068 -0.060836785 -0.03824166 0.040673
-0.12319225 0.10334632 -0.06305923 -0.0184209 -0.038358543 -0.042459108 -0.07193944 0.022507321
-0.07505384 0.55105 -0.10488023 -0.07408701 -0.04272344 0.016861225 -0.06569761 -0.08108874
-0.04581846 0.06467896 -0.13952385 -0.016422521 -0.0685252 -0.07054471 1.7181948 -0.03606545
00000000: 3e8c f1bd b0d1 cf3c 08ba b6bd cc5b 0ebd
00000010: 4ea4 ccbb 8103 8fbd 3937 ac3e e06e de39
00000020: e571 923d 22ac 3dbc a6aa 95bd 3cf5 3640
00000030: 32a2 a9bd 00c5 8cbd 8ac6 d83d 717a d6bc
00000040: 232d c8bd c4bb 1abd 9c7b f3bb 528a b2bc
00000050: c9bf 4abd 242c ec3c d846 ec3e bdfc c4bd
00000060: cadd abbb 58fc 64bd 458c 423c db16 623d
00000070: e696 4540 f19d 9fbd 2c42 b5bd 3926 1a3e
00000080: d4a3 e23c 8e92 d03e c17d 423e 0368 c6bc
00000090: b738 a7bd 9ac1 46bd ac07 b3bc 9a15 02bc
000000a0: 18e1 bfbc 26cb d53b 6ccc 51bd cd4e 5bbd
000000b0: df7d b43f b12c 0b3d d247 f5bc 3722 cabd
000000c0: 8499 a13c 76f8 bc3b b800 47bd 35c7 cdbd
000000d0: 4015 8b3c 6325 3a41 593f 2241 ef56 5e3c
000000e0: cce7 1e3b 7286 d0bc df45 3ebd c232 473d
000000f0: 15f8 90bd 5cee c7bb 64ab b8bd 285b e4bc
00000100: daff 3c3c 9cc0 4fbd fa5e a0bd d218 06bc
00000110: b80a 61bd 71ce 60bd 886a 9c3c 0178 a93c
00000120: 38f9 843e 4f6b c1bd 78e3 0f3c 2fb9 5dbc
00000130: 2ca6 06bc c099 b3bd cdee ab3c d20e 423d
00000140: 7d9a 2ebc e6d4 41bd 4747 afbd 1c4b e33d
00000150: e7c9 ee3d 2db1 233d 2050 bbb9 0025 2db9
00000160: 5008 503d 0762 8bbd 62d1 073f 7256 67bc
00000170: cb77 59bc 5163 573d 6477 2dbd 8419 83bc
00000180: caf0 193d 8a9e 83bd 2e64 8dbc 1e8d 61bd
00000190: 6e48 b7bb a4b0 cfbd e4bf adbd 2e0c a0bc
000001a0: ccd6 a1bc 5420 71bc 921a e13c 83b1 373e
000001b0: f07d 6740 04d2 b2bc 6bed e7bc ceef 7cbd
000001c0: 4cbf 6cbc e0cb 933a aedd 58bc d398 9dbd
000001d0: 3ae0 3cbd e926 78bd e4d8 603e 522a d73c
000001e0: 7085 28bd ad65 c4bd 5849 deba 8b0f 17bd
000001f0: 758a 173c 10a6 d9bc bbce 96bd a270 dfbc
00000200: 585b 6f3b cdea d5bd 7ca0 83bd 3ef0 d0bb
00000210: 65e3 91bd a648 0fbd 6a4f 5bbd ba4d 2abd
00000220: 3a2d 133d 2a5a 3b3b d69c 5c3d 2e5c 5a3e
00000230: 01f6 b9bd a7c3 bb3d 69fc 713e a6d2 9abd
00000240: 167b 30bd 80a1 fbb8 5d47 ac3e 5d44 a8bd
00000250: 716a 8bbd 7fe3 aebd b8b9 76bb 79eb bfbd
00000260: 9c6b 33bc 42ed d6bc 7a20 f7bc 8063 bc3c
00000270: ec8b 2ebd d4b7 323d ef90 443d 5278 8d3d
00000280: fb31 17bd 8636 debb 1dc9 7d3c 2a35 f1bc
00000290: 9094 fe3b ff04 87bb e342 d53b a26b 743d
000002a0: ee8a de3f a2de 33bd 7fae 07bd b31c 93bc
000002b0: ccf6 2b3d e139 0abc d972 01bc d98a 85bd
000002c0: 8093 b6bd 3da2 2bbc 297d bbbd 0efe d13c
000002d0: e293 6bbd 7ee5 a53c 0e44 c83b d47b bbbd
000002e0: 575d a840 5c50 33bd 1ecd 94bd 5a18 4fbd
000002f0: 171e ccbd a17b e640 b8c5 bf3c c202 0dbe
00000300: facf 8cbd 1bc6 623c 3610 a9bd 57b6 9bbd
00000310: a6bf 2fbc ca26 cc3c bfe2 78bc 8d94 243c
00000320: 3fcd 663d a87a 67bd d4cf d93c d9b1 56bd
00000330: 6acc 02bd 681f 913d 1a8c 1a3c 2946 5241
00000340: 96d7 0ebd 9a31 d5bc 939d b53c 68bd 39bc
00000350: 5a30 d1bd d66c 113c 5a24 6fbd 9e1d cb3c
00000360: 16f1 95bd c36e 98bd ca8c 89bd c656 933c
00000370: 404c 9ebd 3e7b c23b a307 783c f43e 473b
00000380: 3ab0 89bd f52d 5ebd 0133 463c eb76 a3bd
00000390: 614e 153e fe2f 79bd 49a3 1cbd bb98 263d
000003a0: 384c fcbd 3ca7 d33d 3325 81bd 6de7 96bc
000003b0: d91d 1dbd 9ae9 2dbd fc54 93bd 4661 b83c
000003c0: d4b5 99bd 9d11 0d3f 72cb d6bd eeba 97bd
000003d0: c6fe 2ebd 8d20 8a3c 788c 86bd da11 a6bd
000003e0: 23ac 3bbd 6776 843d 57df 0ebe 8688 86bc
000003f0: f156 8cbd bf79 90bd cfed db3f 5eb9 13bd

reward.weight f4 [1, 256]
-0.0024608094 0.025206367 0.026073357 0.0037218826 -0.0031641843 -0.041801497 -0.0032697213 -0.008197645
-0.012011985 -0.017520275 -0.009434109 -0.0034600117 0.021235205 -0.02351573 0.020336207 0.043037444
0.059094645 0.04709817 0.005329348 0.006624099 -0.03469143 0.018248245 0.0036584912 -0.0128716435
0.011517729 -0.012727239 0.027183276 0.0055749505 0.0021377876 -0.04454979 -0.010565316 0.0023691994
0.00056536775 0.005907408 0.0030804295 0.053191125 0.015078594 -0.02671498 -0.012644135 0.007459537
0.025789522 0.028367748 7.315795e-05 0.018396227 -0.04240399 0.005034374 -0.021334432 -0.005279205
-0.03882622 -0.01333631 -0.019455528 0.023754148 0.008209683 -0.0008643298 -1.1671931e-05 -0.01972654
-0.0073483028 -0.01064197 0.01376129 0.044634074 0.022003472 0.010547955 -0.012861285 0.0040677553
0.053863134 -0.015644249 -0.021239636 -0.011599179 -0.016684212 -0.0034611337 -0.006798559 0.013482853
-0.012860564 0.052431203 0.023118656 -0.021613784 0.0006301664 0.026134904 0.043846343 0.017866902
0.0077403 0.0050569642 0.016684595 -0.07159659 0.0060802666 -0.0061398344 -0.39798287 -0.011892366
-0.014795346 5.8130827e-05 -0.010314207 -0.013838437 0.061928824 0.026414756 0.021500204 0.0009734472
-0.00024488196 -0.015628435 -0.011726876 -0.0040191766 -0.0047167838 -0.058875844 0.0028557722 -0.00065832026
0.021885963 0.009207119 -0.010058643 -0.0048175994 0.012511029 -0.012599155 -0.022147963 0.0076732906
-0.0016802289 0.04956961 -0.014430111 -0.011809212 -0.0004068281 0.008778129 0.018466651 0.011478439
-0.02925295 -0.0015661223 -0.009644847 -0.007967278 -0.0023793243 0.009888809 0.010940938 -0.0121489465
0.0018540537 0.002261928 0.008837859 -0.03566105 0.00818658 0.048157897 -0.0034282068 0.02425052
0.016953139 -0.009352019 0.015644485 -0.0026439882 0.044891417 0.01879356 -0.07675696 -0.026183225
0.03942159 0.006083373 0.006901065 0.0011600116 0.021382678 -0.016316246 0.00912826 0.001396803
0.023039777 0.0034496556 -0.019084636 0.027667876 0.0047295033 0.023097761 -0.029692432 -0.011009961
-0.00030904077 0.0025082377 0.08218275 0.005220111 0.012528493 -0.032390445 0.03651743 -0.008533302
6.741565e-05 0.039743718 0.018163443 -0.009570875 0.025030535 -0.32751173 0.0328686 0.0054092584
0.008078762 -0.007240516 -0.019584892 0.047386467 -0.0016463036 -0.012878105 -0.03096463 -0.0034602024
-0.00033284567 0.0067847897 0.0472837 -0.019806985 0.0059377165 -0.0004819138 0.030702174 0.030628644
-0.024600208 0.016144395 0.017049247 0.002111894 -0.014180791 0.004349798 -0.02633577 -0.0017566867
0.00053966045 0.021984506 -0.019130446 0.0011684989 -0.007684593 -0.021184735 0.0007063262 0.000117011456
-0.0015973955 -0.011537245 0.018932145 -0.010176565 0.015609078 0.016510045 -0.0021331264 -0.013758894
0.0065884287 -0.0091817435 -0.027105104 -0.011369233 0.07273948 0.025355767 0.01861474 0.043484353
-0.010089916 0.03772114 -0.010797941 0.00043801777 0.011455378 0.04673785 -0.009907937 -0.030597745
-0.007350716 -0.004853554 0.008941799 0.028926393 -0.023582129 0.003598567 -0.009209752 0.017277675
0.057385862 0.030169684 -0.0046524014 -0.0009855898 -0.02604216 -0.029429518 0.0023397403 0.0071414867
-0.01411877 -0.11275381 -0.0031301444 0.016610535 0.015972707 0.05178096 -0.0037244456 0.0011317143
00000000: 8845 21bb 957d ce3c cb97 d53c d4ea 733b
00000010: 345e 4fbb 0c38 2bbd d248 56bb 6a4f 06bc
00000020: ebcd 44bc ae86 8fbc 8591 1abc 5dc1 62bb
00000030: 74f5 ad3c 0fa4 c0bc 1e98 a63c 0848 303d
00000040: 3a0d 723d 03ea 403d d0a1 ae3b f80e d93b
00000050: 9a18 0ebd 587d 953c 4cc3 6f3b 96e3 52bc
00000060: dbb4 3c3c e985 50bc 76af de3c 13ae b63b
00000070: 201a 0c3b d779 36bd 261a 2dbc 9244 1b3b
00000080: 3035 143a ee92 c13b 08e1 493b f0de 593d
00000090: 350c 773c 60d9 dabc 5929 4fbc 226f f43b
000000a0: 8c44 d33c 7b63 e83c 606c 9938 afb3 963c
000000b0: ceaf 2dbd 64f7 a43b 8cc5 aebc 2efd acbb
000000c0: 3e08 1fbd 8a80 5abc 3361 9fbc 0f98 c23c
000000d0: e881 063c 3194 62ba 90d2 43b7 8e99 a1bc
000000e0: 08ca f0bb a85b 2ebc 0977 613c 38d2 363d
000000f0: a040 b43c 54d1 2c3c 24b8 52bc ce4a 853b
00000100: 979f 5c3d 5e28 80bc bffe adbc 7c0a 3ebc
00000110: 54ad 88bc 30d4 62bb 72c6 debb 2fe7 5c3c
00000120: 1db5 52bc 1ac2 563d 5663 bd3c 640f b1bc
00000130: c031 253a de18 d63c 3998 333d 9c5d 923c
00000140: 58a2 fd3b e4b4 a53b 22ae 883c 3ca1 92bd
00000150: f93c c73b aa30 c9bb 69c4 cbbe 33d8 42bc
00000160: 2e68 72bc 80d1 7338 ebfc 28bc 9dba 62bc
00000170: 14a9 7d3d c263 d83c 3221 b03c f02e 7f3a
00000180: 8063 80b9 3407 80bc 1522 40bc 4cb3 83bb
00000190: 408f 9abb cc27 71bd e827 3b3b 2093 2cba
000001a0: 314a b33c 75d9 163c 02cd 24bc f4dc 9dbb
000001b0: 0ffb 4c3c b06c 4ebc a56f b5bc 3a70 fb3b
000001c0: 203b dcba 8109 4b3d 466c 6cbc 6d7b 41bc
000001d0: 8b4b d5b9 24d2 0f3c 6047 973c 1010 3c3c
000001e0: e2a3 efbc 5846 cdba 6c05 1ebc 3089 02bc
000001f0: 70ee 1bbb ac04 223c 9f41 333c 600c 47bc
00000200: b803 f33a db3c 143b abcc 103c 5211 12bd
00000210: 0121 063c 3741 453d c4ab 60bb 07a9 c63c
00000220: 4fe1 8a3c 3639 19bc dd28 803c c346 2dbb
00000230: 10e0 373d f4f4 993c c132 9dbd 347e d6bc
00000240: 8878 213d 0857 c73b 5422 e23b 880b 983a
00000250: ba2a af3c a6a9 85bc b38e 153c ee14 b73a
00000260: eabd bc3c 9e13 623b 6257 9cbc bea7 e23c
00000270: f3f9 9a3b 8437 bd3c 8b3d f3bc 2063 34bc
00000280: c006 a2b9 3f61 243b 6e4f a83d 770d ab3b
00000290: 4f44 4d3c d8ab 04bd 4d93 153d 43cf 0bbc
000002a0: 8061 8d38 4fca 223d 80cb 943c 29cf 1cbc
000002b0: d60c cd3c 9eaf a7be 3aa1 063d 2640 b13b
000002c0: c95c 043c da41 edbb 7f70 a0bc 5018 423d
000002d0: c8c8 d7ba b0fe 52bc 89a9 fdbc 90c4 62bb
000002e0: ca81 aeb9 f152 de3b 8eac 413d 4242 a2bc
000002f0: 2d91 c23b 60a9 fcb9 2083 fb3c ece8 fa3c
00000300: 6086 c9bc 4041 843c ddaa 8b3c b467 0a3b
00000310: 8c56 68bc c088 8e3b 1dbe d7bc a040 e6ba
00000320: 0078 0d3a da18 b43c 74b7 9cbc 5128 993a
00000330: 0acf fbbb 9c8b adbc c028 393a 0c64 f538
00000340: b35f d1ba b606 3dbc 9617 9b3c 9bbb 26bc
00000350: 38bd 7f3c 1340 873c eccb 0bbb fc6c 61bc
00000360: bfe3 d73b 066f 16bc 860b debc 0546 3abc
00000370: 70f8 943d e6b6 cf3c f07d 983c a61c 323d
00000380: 2d50 25bc 7b81 1a3d d9e9 30bc c0a5 e539
00000390: 56af 3b3c 3070 3f3d e654 22bc 1fa8 fabc
000003a0: 46de f0bb 900a 9fbb a080 123c 0bf7 ec3c
000003b0: 4f2f c1bc f0d5 6b3b 80e4 16bc e989 8d3c
000003c0: 700d 6b3d 6a26 f73c 2c73 98bb e82e 81ba
000003d0: 5e56 d5bc 2c16 f1bc 5456 193b 2203 ea3b
000003e0: 6a52 67bc 78eb e6bd 1c23 4dbb d112 883c
000003f0: 32d9 823c 4618 543d d415 74bb 0856 943a

nstate.weight f4 [7, 256]
-0.077039376 0.0053601433 0.014541016 -0.015398417 0.058511104 -0.009394936 0.023213217 0.026299328
0.008274698 0.032132313 -0.008989659 0.0108112125 -1.20149925e-05 0.049997028 -0.003416285 -0.034200124
0.030479303 -0.014622284 -0.029050853 0.010135624 -0.015004893 0.023377944 -0.027281998 0.06390342
0.04417027 -0.0039118542 -0.04729356 0.042231455 -0.11387397 -0.007685667 0.0051048826 -0.06793103
-0.03587119 0.014667983 -0.021599757 -0.015727095 -0.048410505 0.061078314 0.016753973 -0.02354714
0.03195139 0.036592793 0.015180718 -0.01682604 0.012255648 0.021999802 0.005225366 -0.04273875
0.017530046 0.006459729 -0.0121699 0.012121494 -0.0110186115 0.0008728737 0.065298624 0.030109098
-0.028460808 -0.020372689 0.018218597 -0.038912956 -0.007911761 -0.020851221 0.0007401621 0.00032199267
-0.011628802 -0.060009036 0.005365547 0.007100401 -0.0583933 0.05287556 -0.02288961 -0.0122460835
0.029684173 -0.036759857 -0.10246287 0.01732433 0.023010494 -0.015485219 0.0020449404 -0.037881605
-0.028596241 0.031598974 0.012692111 0.042951062 0.02255148 -0.034515984 -0.05250655 0.018352367
-0.03563058 -0.02292649 -0.006414157 0.01356512 -0.048061937 0.04436929 0.02003741 -0.0014013471
0.0015022932 0.041305587 0.014958766 -0.028899744 -0.023037579 0.021807391 0.001938927 0.061898388
0.010614984 -0.0017048689 -0.044574462 0.06795193 -0.107426 -0.025663402 -0.090306796 0.046064332
0.04598619 0.061038557 0.0118709365 -0.028762728 -0.049700636 -0.00429081 -0.12194024 -0.06069247
-0.012411623 -0.0057383087 0.05727101 0.03955187 0.06549084 -0.020985436 -0.039799012 -0.049550153
0.06594775 0.015039137 -0.012256203 -0.02028442 0.04170862 0.010090832 -0.010817371 -0.012837709
-0.052432943 0.012351533 -0.12076962 0.036187224 0.034738284 0.0007094955 -0.025632523 -0.011090523
0.010620995 -0.025848724 -0.0025385404 0.020843953 -0.024789711 0.006474112 0.029198863 -0.07747446
-0.03237554 0.012483908 -0.023734154 0.042710114 -0.0014278498 0.011286319 -0.050016005 0.063879356
-0.009562085 -0.08707387 0.0128776645 0.034126103 -0.010826478 0.015200459 0.00090880203 0.027355976
-0.011728374 -0.014935376 0.02596024 -0.04582627 -0.039146 -0.029210452 0.04362527 -0.048984095
-0.008224996 0.052862175 0.026691575 0.025667464 -0.05427179 -0.0139341485 0.08045113 -0.016775716
-0.05997694 -0.036672067 -0.031270802 0.015973907 0.06252955 -0.00441986 0.0033026054 -0.039975774
-0.029881064 0.04299365 0.004575763 0.04978592 0.007756264 0.030447848 -0.010264046 -0.00077291206
0.05170984 -0.039385024 -0.009276078 0.021483433 -0.038138725 0.001285228 -0.0074805967 -0.0031966807
-0.05453364 0.047483727 0.049344342 -0.019228067 -0.043003634 0.0035440654 -0.058758125 0.024465997
0.016138857 -0.008597635 0.019510403 -0.01822402 0.016530465 0.019307105 -0.0041363207 -0.0260362
0.009374462 -0.008375781 0.046322174 0.025675483 -0.013034119 0.019929077 -0.011703342 0.05082088
-0.005420363 -0.009738384 0.055249445 -0.051795863 0.038373325 0.009022096 0.043116506 0.062742196
-0.033253077 -0.0280741 -0.00532436 0.008684314 0.049439333 -0.04367646 0.030414231 -0.008024314
0.026184946 -0.022025824 -0.04132614 -0.06409634 0.0020327931 -0.023883257 -0.00062614866 0.042024452
00000000: d2c6 9dbd 24a4 af3b 713d 6e3c a449 7cbc
00000010: 57a9 6f3d 38ed 19bc a529 be3c b071 d73c
00000020: 9992 073c 2c9d 033d 5d49 13bc 8321 313c
00000030: 0094 49b7 afc9 4c3d c0e3 5fbb 6e15 0cbd
00000040: bbaf f93c 4e92 6fbc 0efc edbc e30f 263c
00000050: 15d7 75bc 1a83 bf3c 7f7e dfbc ccdf 823d
00000060: e3eb 343d 032f 80bb e4b6 41bd e4fa 2c3d
00000070: c236 e9bd 0cd8 fbbb dc46 a73b 6d1f 8bbd
00000080: abed 12bd fb51 703c f9f1 b0bc 1cd6 80bc
00000090: 184a 46bd 412d 7a3d a13f 893c efe5 c0bc
000000a0: 76df 023d 53e2 153d 8cb8 783c c3d6 89bc
000000b0: eacb 483c ee38 b43c 8c39 ab3b d40e 2fbd
000000c0: 2c9b 8f3c 22ac d33b 4364 47bc 3b99 463c
000000d0: 6887 34bc 90d1 643a 49bb 853d 5ba7 f63c
000000e0: a426 e9bc a0e4 a6bc 2b3f 953c 3163 1fbd
000000f0: 55a0 01bc 2ed0 aabc 7007 423a 20d1 a839
00000100: bb86 3ebc 09cc 75bd 78d1 af3b 7baa e83b
00000110: d02d 6fbd 0b94 583d fe82 bbbc cca3 48bc
00000120: 392c f33c 8191 16bd 0ed8 d1bd c1eb 8d3c
00000130: 8180 bc3c b7b5 7dbc 6804 063b be29 1bbd
00000140: aa42 eabc ed6d 013d 92f2 4f3c 74ed 2f3d
00000150: e2bd b83c a260 0dbd 1c11 57bd b457 963c
00000160: 5ff1 11bd 56d0 bbbc d92d d2bb 3d40 5e3c
00000170: 98dc 44bd 93bc 353d 7f25 a43c 68ad b7ba
00000180: 98e8 c43a 0c30 293d 9d15 753c 28bf ecbc
00000190: 4eb9 bcbc 6aa5 b23c 9823 fe3a 2a89 7d3d
000001a0: 78ea 2d3c e875 dfba b693 36bd 622a 8b3d
000001b0: 2a02 dcbd 0e3c d2bc c5f2 b8bd f4ad 3c3d
000001c0: 045c 3c3d 9103 7a3d 517e 423c d09f ebbc
000001d0: e592 4bbd ec99 8cbb cebb f9bd ab98 78bd
000001e0: 1f5a 4bbc 6c08 bcbb 0295 6a3d 2401 223d
000001f0: 1020 863d a6e9 abbc 4a04 23bd 1af5 4abd
00000200: 9d0f 873d b666 763c 3ece 48bc 832b a6bc
00000210: a8d6 2a3d 0454 253c 583b 31bc 4155 52bc
00000220: edc3 56bd 165e 4a3c 1056 f7bd 0e39 143d
00000230: bb49 0e3d 70fd 393a 4cfb d1bc 06b5 35bc
00000240: af03 2e3c b4c0 d3bc a45d 26bb f0c0 aa3c
00000250: cb13 cbbc ca24 d43b 7432 ef3c eeaa 9ebd
00000260: 379c 04bd 4e89 4c3c 216e c2bc cdf0 2e3d
00000270: b026 bbba 41ea 383c 95dd 4cbd 2ed3 823d
00000280: 4baa 1cbc c953 b2bd d7fc 523c d0c7 0b3d
00000290: 8a61 31bc 590b 793c ac3c 6e3a a419 e03c
000002a0: 5e28 40bc 82b3 74bc 92aa d43c 54b4 3bbd
000002b0: 8e57 20bd c24a efbc 69b0 323d 8ca3 48bd
000002c0: 22c2 06bc 0286 583d 4aa8 da3c 9344 d23c
000002d0: 194c 5ebd 0e4c 64bc 90c3 a43d 3a6d 89bc
000002e0: 61aa 75bd 7335 16bd d015 00bd b6db 823c
000002f0: 7e0f 803d 79d4 90bb 8670 583b a3bd 23bd
00000300: 22c9 f4bc 1c1a 303d 48f0 953b 52ec 4b3d
00000310: 4228 fe3b c46d f93c 872a 28bc 409d 4aba
00000320: b2cd 533d 3152 21bd b1fa 17bc 06fe af3c
00000330: 5a37 1cbd 1875 a83a cb1f f5bb 677f 51bb
00000340: ab5e 5fbd 4c7e 423d 4b1d 4a3d 2e84 9dbc
00000350: 9424 30bd 8d43 683b 5cac 70bd ea6c c83c
00000360: a335 843c 18dd 0cbc 48d4 9f3c 8a4a 95bc
00000370: e66a 873c ef29 9e3c f989 87bb de49 d5bc
00000380: 5897 193c 923a 09bc 52bc 3d3d 6455 d23c
00000390: 0f8d 55bc 4e42 a33c 60bf 3fbc 8e29 503d
000003a0: 4d9d b1bb be8d 1fbc 3e4d 623d e627 54bd
000003b0: 592d 1d3d 6ad1 133c ef9a 303d fb7e 803d
000003c0: 6134 08bd a8fb e5bc f877 aebb a748 0e3c
000003d0: e680 4a3d 16e6 32bd 4427 f93c 6a78 03bc
000003e0: d081 d63c 806f b4bc 9945 29bd f144 83bd
000003f0: 9c38 053b d2a6 c3bc 2024 24ba d521 2c3d

nstate.bias f4 [7]
71.81009 46.858227 97.996086 14.98498 14.332489 0.98301566 -0.012964036
00000000: c49e 8f42 d36e 3b42 fffd c342 7ac2 6f41
00000010: e051 6541 eaa6 7b3f 1c67 54bc
